models/v2/experimental/hey_peppa_pig.tflite (tflite, 62112 bytes, 18 tensors)

model_1/dense_1/MatMul i1 [1, 1088] scale=0.005048942 zero_point=0
0	0x11	0.085832015
1	0xea	-0.11107672
2	0x23	0.17671296
3	0xf0	-0.08078307
4	0x06	0.03029365
5	0x0e	0.070685185
6	0xf1	-0.07573412
7	0x01	0.005048942
8	0xd3	-0.22720239
9	0xfa	-0.03029365
10	0x03	0.015146825
11	0x0a	0.05048942
12	0xef	-0.085832015
13	0xdb	-0.18681085
14	0x2f	0.23730026
15	0xf2	-0.070685185
16	0x19	0.12622355
17	0x28	0.20195767
18	0xe3	-0.14641932
19	0xf8	-0.040391535
20	0x15	0.10602778
21	0x0a	0.05048942
22	0xf0	-0.08078307
23	0xf1	-0.07573412
24	0x07	0.035342593
25	0x21	0.16661508
26	0xe0	-0.16156614
27	0x1a	0.1312725
28	0xf5	-0.05553836
29	0xd3	-0.22720239
30	0xff	-0.005048942
31	0xf1	-0.07573412
32	0xfe	-0.010097884
33	0xf9	-0.035342593
34	0x04	0.020195767
35	0x05	0.02524471
36	0xdc	-0.1817619
37	0xe9	-0.11612566
38	0x03	0.015146825
39	0xeb	-0.10602778
40	0xf7	-0.045440476
41	0x00	0.0
42	0xe3	-0.14641932
43	0xe2	-0.15146825
44	0xe9	-0.11612566
45	0x15	0.10602778
46	0xcc	-0.262545
47	0xf5	-0.05553836
48	0xf0	-0.08078307
49	0x01	0.005048942
50	0x08	0.040391535
51	0x01	0.005048942
52	0x2a	0.21205556
53	0xdd	-0.17671296
54	0xe9	-0.11612566
55	0x10	0.08078307
56	0xef	-0.085832015
57	0x0a	0.05048942
58	0xdc	-0.1817619
59	0xed	-0.09592989
60	0xdf	-0.16661508
61	0x0b	0.05553836
62	0xe4	-0.14137037
63	0x26	0.19185978
64	0x13	0.09592989
65	0xf3	-0.06563625
66	0x23	0.17671296
67	0xfe	-0.010097884
68	0x00	0.0
69	0x02	0.010097884
70	0xf7	-0.045440476
71	0xfa	-0.03029365
72	0xf8	-0.040391535
73	0x08	0.040391535
74	0xfb	-0.02524471
75	0xf0	-0.08078307
76	0x0d	0.06563625
77	0xeb	-0.10602778
78	0x24	0.1817619
79	0x07	0.035342593
80	0x1b	0.13632143
81	0x0e	0.070685185
82	0x13	0.09592989
83	0x0d	0.06563625
84	0xfc	-0.020195767
85	0x19	0.12622355
86	0xfb	-0.02524471
87	0xe4	-0.14137037
88	0x06	0.03029365
89	0x1a	0.1312725
90	0xf4	-0.0605873
91	0x09	0.045440476
92	0xff	-0.005048942
93	0xec	-0.10097884
94	0xf6	-0.05048942
95	0xfb	-0.02524471
96	0xfe	-0.010097884
97	0xeb	-0.10602778
98	0xe2	-0.15146825
99	0xfe	-0.010097884
100	0xec	-0.10097884
101	0x01	0.005048942
102	0xfe	-0.010097884
103	0x09	0.045440476
104	0xf9	-0.035342593
105	0x04	0.020195767
106	0xe3	-0.14641932
107	0x13	0.09592989
108	0x12	0.09088095
109	0x13	0.09592989
110	0xd7	-0.20700662
111	0xf8	-0.040391535
112	0xf2	-0.070685185
113	0xf5	-0.05553836
114	0x06	0.03029365
115	0x04	0.020195767
116	0x3d	0.30798545
117	0xf3	-0.06563625
118	0xfc	-0.020195767
119	0x14	0.10097884
120	0xfb	-0.02524471
121	0x00	0.0
122	0x04	0.020195767
123	0xf5	-0.05553836
124	0xc8	-0.28274074
125	0xfa	-0.03029365
126	0xff	-0.005048942
127	0x16	0.11107672
128	0x0f	0.07573412
129	0xf1	-0.07573412
130	0x1b	0.13632143
131	0x04	0.020195767
132	0xf9	-0.035342593
133	0xf6	-0.05048942
134	0x1a	0.1312725
135	0x08	0.040391535
136	0xe0	-0.16156614
137	0x03	0.015146825
138	0x05	0.02524471
139	0xd9	-0.19690873
140	0xff	-0.005048942
141	0xf2	-0.070685185
142	0x11	0.085832015
143	0x0e	0.070685185
144	0x11	0.085832015
145	0x22	0.17166403
146	0x20	0.16156614
147	0x22	0.17166403
148	0xec	-0.10097884
149	0xff	-0.005048942
150	0x0b	0.05553836
151	0xf9	-0.035342593
152	0xe9	-0.11612566
153	0x12	0.09088095
154	0x02	0.010097884
155	0x0e	0.070685185
156	0xef	-0.085832015
157	0xdb	-0.18681085
158	0x18	0.1211746
159	0xe5	-0.13632143
160	0x0b	0.05553836
161	0xe7	-0.12622355
162	0xf5	-0.05553836
163	0x0d	0.06563625
164	0xdd	-0.17671296
165	0x0e	0.070685185
166	0xf8	-0.040391535
167	0x1a	0.1312725
168	0x0b	0.05553836
169	0x06	0.03029365
170	0xdd	-0.17671296
171	0x33	0.25749603
172	0x02	0.010097884
173	0x01	0.005048942
174	0xf4	-0.0605873
175	0xe9	-0.11612566
176	0xf5	-0.05553836
177	0xfc	-0.020195767
178	0xf6	-0.05048942
179	0x1b	0.13632143
180	0x1e	0.15146825
181	0xf8	-0.040391535
182	0x09	0.045440476
183	0x08	0.040391535
184	0x01	0.005048942
185	0x0c	0.0605873
186	0x10	0.08078307
187	0xe6	-0.1312725
188	0xaf	-0.40896428
189	0xe9	-0.11612566
190	0xfe	-0.010097884
191	0x11	0.085832015
192	0x0c	0.0605873
193	0xf2	-0.070685185
194	0x25	0.18681085
195	0x05	0.02524471
196	0xf6	-0.05048942
197	0xdf	-0.16661508
198	0x2d	0.22720239
199	0x0a	0.05048942
200	0xf2	-0.070685185
201	0x0d	0.06563625
202	0x06	0.03029365
203	0xd3	-0.22720239
204	0xff	-0.005048942
205	0xd9	-0.19690873
206	0x10	0.08078307
207	0x04	0.020195767
208	0x0f	0.07573412
209	0xff	-0.005048942
210	0x19	0.12622355
211	0x19	0.12622355
212	0xdd	-0.17671296
213	0xfe	-0.010097884
214	0x0c	0.0605873
215	0xf3	-0.06563625
216	0xe5	-0.13632143
217	0x0d	0.06563625
218	0x12	0.09088095
219	0xf1	-0.07573412
220	0xff	-0.005048942
221	0xda	-0.19185978
222	0x24	0.1817619
223	0xe4	-0.14137037
224	0x0f	0.07573412
225	0x01	0.005048942
226	0xf0	-0.08078307
227	0x02	0.010097884
228	0xd8	-0.20195767
229	0x0c	0.0605873
230	0x0f	0.07573412
231	0x0a	0.05048942
232	0x17	0.11612566
233	0x0f	0.07573412
234	0xc3	-0.30798545
235	0xfc	-0.020195767
236	0xfd	-0.015146825
237	0xf6	-0.05048942
238	0x18	0.1211746
239	0xe2	-0.15146825
240	0xed	-0.09592989
241	0xf9	-0.035342593
242	0xf7	-0.045440476
243	0xf5	-0.05553836
244	0x01	0.005048942
245	0xe5	-0.13632143
246	0x11	0.085832015
247	0x13	0.09592989
248	0xfc	-0.020195767
249	0x01	0.005048942
250	0xfb	-0.02524471
251	0xee	-0.09088095
252	0xd6	-0.21205556
253	0xed	-0.09592989
254	0xf5	-0.05553836
255	0x12	0.09088095

model_1/conv2d_9/Conv2D i1 [64, 1, 1, 64]
0	0x48	72
1	0xe1	-31
2	0x5b	91
3	0x32	50
4	0x26	38
5	0x15	21
6	0xf6	-10
7	0xa8	-88
8	0x04	4
9	0x1a	26
10	0xe6	-26
11	0x42	66
12	0xcf	-49
13	0xe8	-24
14	0x2a	42
15	0x11	17
16	0xc3	-61
17	0xb6	-74
18	0xfd	-3
19	0x15	21
20	0x54	84
21	0xc9	-55
22	0x28	40
23	0xf4	-12
24	0x23	35
25	0xfa	-6
26	0x4b	75
27	0xf5	-11
28	0x35	53
29	0x1c	28
30	0xf6	-10
31	0xc2	-62
32	0xbb	-69
33	0xf9	-7
34	0x06	6
35	0xbd	-67
36	0xec	-20
37	0x03	3
38	0x23	35
39	0xad	-83
40	0x2e	46
41	0x04	4
42	0x0c	12
43	0xee	-18
44	0xa5	-91
45	0x68	104
46	0xd8	-40
47	0x74	116
48	0xcc	-52
49	0x16	22
50	0xd1	-47
51	0x44	68
52	0x0d	13
53	0xda	-38
54	0xf1	-15
55	0xfe	-2
56	0x65	101
57	0xf2	-14
58	0x81	-127
59	0xd4	-44
60	0x30	48
61	0x26	38
62	0xbe	-66
63	0x0c	12
64	0xe2	-30
65	0x11	17
66	0x0d	13
67	0xa6	-90
68	0x98	-104
69	0xd5	-43
70	0x94	-108
71	0xb8	-72
72	0x0e	14
73	0xa6	-90
74	0xca	-54
75	0x0c	12
76	0x20	32
77	0xfc	-4
78	0xf2	-14
79	0xef	-17
80	0x2a	42
81	0x38	56
82	0x18	24
83	0xee	-18
84	0x8e	-114
85	0x26	38
86	0x3c	60
87	0x4b	75
88	0x7f	127
89	0xc2	-62
90	0x23	35
91	0xe6	-26
92	0x18	24
93	0x1e	30
94	0x55	85
95	0xcc	-52
96	0x44	68
97	0xf3	-13
98	0xcf	-49
99	0x1d	29
100	0xc8	-56
101	0x1d	29
102	0x39	57
103	0x31	49
104	0x34	52
105	0x08	8
106	0x1b	27
107	0xe0	-32
108	0x3e	62
109	0xf6	-10
110	0x14	20
111	0x91	-111
112	0x0e	14
113	0x09	9
114	0xdb	-37
115	0xe8	-24
116	0xa5	-91
117	0x01	1
118	0xa9	-87
119	0x13	19
120	0x13	19
121	0xe6	-26
122	0x2e	46
123	0xd0	-48
124	0xf4	-12
125	0x3f	63
126	0x34	52
127	0xfa	-6
128	0x10	16
129	0xe6	-26
130	0x79	121
131	0xde	-34
132	0x3c	60
133	0xc8	-56
134	0x01	1
135	0xed	-19
136	0xb6	-74
137	0x2d	45
138	0x15	21
139	0x81	-127
140	0x26	38
141	0x09	9
142	0xbc	-68
143	0xde	-34
144	0xbb	-69
145	0x27	39
146	0x4e	78
147	0xe7	-25
148	0xae	-82
149	0x23	35
150	0xdd	-35
151	0xb3	-77
152	0xef	-17
153	0x72	114
154	0xce	-50
155	0x84	-124
156	0x11	17
157	0x50	80
158	0x3d	61
159	0xcd	-51
160	0xe6	-26
161	0xb0	-80
162	0x59	89
163	0xe6	-26
164	0x1b	27
165	0xe4	-28
166	0x0d	13
167	0x39	57
168	0x27	39
169	0x73	115
170	0xc4	-60
171	0x69	105
172	0x56	86
173	0xe2	-30
174	0x59	89
175	0xda	-38
176	0x36	54
177	0x08	8
178	0xa7	-89
179	0xcf	-49
180	0x3f	63
181	0xf1	-15
182	0x29	41
183	0x42	66
184	0xcd	-51
185	0xf1	-15
186	0x5a	90
187	0x3e	62
188	0xfa	-6
189	0x26	38
190	0xe5	-27
191	0x25	37
192	0xca	-54
193	0x17	23
194	0xf5	-11
195	0x29	41
196	0xf1	-15
197	0xc4	-60
198	0x43	67
199	0x17	23
200	0x95	-107
201	0x18	24
202	0x18	24
203	0x22	34
204	0xd2	-46
205	0xf2	-14
206	0x05	5
207	0x2a	42
208	0xc9	-55
209	0x30	48
210	0xd3	-45
211	0xfb	-5
212	0xdf	-33
213	0x37	55
214	0xf9	-7
215	0x16	22
216	0xb2	-78
217	0x9b	-101
218	0xd4	-44
219	0x0b	11
220	0x20	32
221	0xfa	-6
222	0x43	67
223	0x0e	14
224	0x11	17
225	0xce	-50
226	0xcb	-53
227	0xfb	-5
228	0xf6	-10
229	0x1a	26
230	0x1c	28
231	0x11	17
232	0xef	-17
233	0xfb	-5
234	0x3f	63
235	0x31	49
236	0x13	19
237	0xc3	-61
238	0x7b	123
239	0x81	-127
240	0x83	-125
241	0xc1	-63
242	0x71	113
243	0xc8	-56
244	0xa5	-91
245	0x4e	78
246	0x49	73
247	0x43	67
248	0xdc	-36
249	0x27	39
250	0xfe	-2
251	0x2f	47
252	0x0f	15
253	0x0d	13
254	0x49	73
255	0xcb	-53

model_1/depthwise_conv2d_11/depthwise i1 [1, 23, 1, 64]
0	0x81	-127
1	0xc4	-60
2	0x59	89
3	0x81	-127
4	0xb3	-77
5	0x24	36
6	0x63	99
7	0x42	66
8	0xc8	-56
9	0x00	0
10	0x6c	108
11	0x48	72
12	0x3c	60
13	0x81	-127
14	0x7f	127
15	0xe7	-25
16	0xc6	-58
17	0x7f	127
18	0xb5	-75
19	0x7f	127
20	0x3f	63
21	0xd5	-43
22	0x22	34
23	0x20	32
24	0x44	68
25	0x95	-107
26	0xff	-1
27	0x81	-127
28	0xd1	-47
29	0xee	-18
30	0x1f	31
31	0x35	53
32	0x14	20
33	0x2d	45
34	0xa1	-95
35	0xba	-70
36	0xad	-83
37	0xe2	-30
38	0xf4	-12
39	0xda	-38
40	0x22	34
41	0x4a	74
42	0x05	5
43	0xc9	-55
44	0x81	-127
45	0x6d	109
46	0xdc	-36
47	0x29	41
48	0xef	-17
49	0xc3	-61
50	0x50	80
51	0x50	80
52	0x2d	45
53	0xe3	-29
54	0xee	-18
55	0x95	-107
56	0xe7	-25
57	0x9d	-99
58	0xff	-1
59	0x81	-127
60	0x40	64
61	0x2f	47
62	0x58	88
63	0xfe	-2
64	0xbb	-69
65	0x81	-127
66	0x30	48
67	0x87	-121
68	0x99	-103
69	0x2b	43
70	0x7f	127
71	0x1d	29
72	0xd8	-40
73	0x27	39
74	0x7f	127
75	0x2a	42
76	0x33	51
77	0x97	-105
78	0x6b	107
79	0xdc	-36
80	0xb1	-79
81	0x36	54
82	0xbe	-66
83	0x32	50
84	0x3f	63
85	0x96	-106
86	0x0b	11
87	0x30	48
88	0x17	23
89	0x82	-126
90	0xb9	-71
91	0x8c	-116
92	0x0d	13
93	0x15	21
94	0x35	53
95	0x1f	31
96	0x68	104
97	0x20	32
98	0x95	-107
99	0x96	-106
100	0x8b	-117
101	0xec	-20
102	0xff	-1
103	0xd0	-48
104	0x7b	123
105	0x12	18
106	0xde	-34
107	0x96	-106
108	0xab	-85
109	0x55	85
110	0xf4	-12
111	0x2a	42
112	0xd6	-42
113	0x92	-110
114	0x2a	42
115	0x38	56
116	0x2b	43
117	0xce	-50
118	0xc7	-57
119	0xa7	-89
120	0x05	5
121	0x93	-109
122	0xf4	-12
123	0xb8	-72
124	0x32	50
125	0x16	22
126	0x4a	74
127	0x0d	13
128	0xc9	-55
129	0x89	-119
130	0x03	3
131	0x9f	-97
132	0x93	-109
133	0x16	22
134	0x50	80
135	0x1d	29
136	0xeb	-21
137	0x4e	78
138	0x4b	75
139	0x10	16
140	0x48	72
141	0xe9	-23
142	0x6b	107
143	0xc7	-57
144	0x92	-110
145	0xe9	-23
146	0xd5	-43
147	0x29	41
148	0x34	52
149	0xc1	-63
150	0xe5	-27
151	0x1a	26
152	0x39	57
153	0x81	-127
154	0xc7	-57
155	0xb3	-77
156	0x1a	26
157	0x07	7
158	0x09	9
159	0xf9	-7
160	0x7f	127
161	0x16	22
162	0xde	-34
163	0xaf	-81
164	0xa3	-93
165	0xd8	-40
166	0xf0	-16
167	0xd0	-48
168	0x7f	127
169	0x41	65
170	0xfa	-6
171	0x81	-127
172	0xb3	-77
173	0x38	56
174	0xff	-1
175	0x27	39
176	0xe5	-27
177	0x81	-127
178	0x0d	13
179	0x13	19
180	0x24	36
181	0xf4	-12
182	0xc3	-61
183	0xab	-85
184	0x03	3
185	0xfa	-6
186	0x16	22
187	0xdb	-37
188	0x10	16
189	0x3e	62
190	0x38	56
191	0x32	50
192	0xc5	-59
193	0xaf	-81
194	0xd3	-45
195	0xa7	-89
196	0x81	-127
197	0x4a	74
198	0x30	48
199	0x1e	30
200	0x27	39
201	0x32	50
202	0x17	23
203	0x0a	10
204	0x3c	60
205	0x14	20
206	0x4e	78
207	0xdb	-37
208	0xa6	-90
209	0xe2	-30
210	0xcd	-51
211	0xf6	-10
212	0x37	55
213	0xe7	-25
214	0xca	-54
215	0x30	48
216	0x18	24
217	0x9f	-97
218	0xf4	-12
219	0xf4	-12
220	0x40	64
221	0x0c	12
222	0x28	40
223	0xf6	-10
224	0x3b	59
225	0x07	7
226	0x1f	31
227	0xe0	-32
228	0xbe	-66
229	0xc2	-62
230	0xec	-20
231	0xd9	-39
232	0x62	98
233	0x20	32
234	0xf9	-7
235	0xa3	-93
236	0xe4	-28
237	0x3d	61
238	0x02	2
239	0x0a	10
240	0x14	20
241	0xab	-85
242	0x0b	11
243	0x19	25
244	0x42	66
245	0x2b	43
246	0xc7	-57
247	0xab	-85
248	0xef	-17
249	0x17	23
250	0x0e	14
251	0x02	2
252	0x17	23
253	0x4a	74
254	0x37	55
255	0x17	23

model_1/conv2d_8/Conv2D i1 [64, 1, 1, 64]
0	0x2c	44
1	0xe4	-28
2	0x29	41
3	0x09	9
4	0x3c	60
5	0x09	9
6	0xd0	-48
7	0xcf	-49
8	0x20	32
9	0x30	48
10	0x56	86
11	0xa9	-87
12	0xcf	-49
13	0xfe	-2
14	0xbb	-69
15	0x24	36
16	0xc2	-62
17	0xd7	-41
18	0x23	35
19	0xf7	-9
20	0xef	-17
21	0x7f	127
22	0xf5	-11
23	0xb3	-77
24	0xec	-20
25	0x3b	59
26	0xdc	-36
27	0x4d	77
28	0x3e	62
29	0xfb	-5
30	0xe6	-26
31	0x5d	93
32	0x1d	29
33	0x0d	13
34	0xd0	-48
35	0x34	52
36	0x42	66
37	0xa5	-91
38	0x58	88
39	0xdd	-35
40	0xc7	-57
41	0x98	-104
42	0x05	5
43	0xed	-19
44	0xcc	-52
45	0xee	-18
46	0xbe	-66
47	0xdf	-33
48	0x2e	46
49	0x9f	-97
50	0xf0	-16
51	0xf2	-14
52	0xe6	-26
53	0xb4	-76
54	0xae	-82
55	0xfe	-2
56	0x27	39
57	0xb9	-71
58	0xc9	-55
59	0xc2	-62
60	0x06	6
61	0x07	7
62	0x18	24
63	0x3b	59
64	0xd0	-48
65	0x2c	44
66	0xcd	-51
67	0xa2	-94
68	0x05	5
69	0x2d	45
70	0xf7	-9
71	0xe8	-24
72	0x34	52
73	0xe1	-31
74	0xe8	-24
75	0x0f	15
76	0x29	41
77	0x3a	58
78	0xe2	-30
79	0xbe	-66
80	0xcd	-51
81	0x19	25
82	0xf3	-13
83	0x16	22
84	0x12	18
85	0xc0	-64
86	0xaf	-81
87	0x81	-127
88	0xef	-17
89	0x5a	90
90	0xe0	-32
91	0x28	40
92	0x74	116
93	0xf0	-16
94	0x46	70
95	0xac	-84
96	0x29	41
97	0xc3	-61
98	0xf2	-14
99	0xef	-17
100	0xee	-18
101	0x08	8
102	0xfa	-6
103	0xd6	-42
104	0x26	38
105	0xf3	-13
106	0xfe	-2
107	0x5d	93
108	0x27	39
109	0xef	-17
110	0xbf	-65
111	0x99	-103
112	0xd7	-41
113	0xad	-83
114	0xea	-22
115	0x28	40
116	0xe1	-31
117	0x0b	11
118	0xd4	-44
119	0xec	-20
120	0xfb	-5
121	0x09	9
122	0x44	68
123	0xbe	-66
124	0xe5	-27
125	0x58	88
126	0x3b	59
127	0xf0	-16
128	0x34	52
129	0x1e	30
130	0xd0	-48
131	0x34	52
132	0x81	-127
133	0xeb	-21
134	0x09	9
135	0x0e	14
136	0xb3	-77
137	0x2c	44
138	0x5c	92
139	0x60	96
140	0x20	32
141	0xe7	-25
142	0xe7	-25
143	0xeb	-21
144	0xf7	-9
145	0x69	105
146	0xf8	-8
147	0xc1	-63
148	0x1b	27
149	0x43	67
150	0x2e	46
151	0xea	-22
152	0x56	86
153	0xda	-38
154	0x00	0
155	0xa4	-92
156	0x2c	44
157	0x34	52
158	0x44	68
159	0x45	69
160	0x3d	61
161	0xd4	-44
162	0xe7	-25
163	0x13	19
164	0x50	80
165	0xed	-19
166	0xf6	-10
167	0xe6	-26
168	0x16	22
169	0x2a	42
170	0xb4	-76
171	0x33	51
172	0xde	-34
173	0x0b	11
174	0xe1	-31
175	0xd0	-48
176	0x1b	27
177	0x14	20
178	0x69	105
179	0xfc	-4
180	0x9b	-101
181	0xfd	-3
182	0xb6	-74
183	0x1e	30
184	0xec	-20
185	0x15	21
186	0x3b	59
187	0xf4	-12
188	0xe3	-29
189	0x11	17
190	0x47	71
191	0x7a	122
192	0x16	22
193	0x23	35
194	0xda	-38
195	0xae	-82
196	0x0f	15
197	0x27	39
198	0xec	-20
199	0xf9	-7
200	0x3c	60
201	0x32	50
202	0x1c	28
203	0xc9	-55
204	0xb9	-71
205	0x1d	29
206	0xd4	-44
207	0x23	35
208	0xe2	-30
209	0x2b	43
210	0xeb	-21
211	0x72	114
212	0x1d	29
213	0xe4	-28
214	0x61	97
215	0x0a	10
216	0x20	32
217	0x14	20
218	0xf9	-7
219	0xf0	-16
220	0xe7	-25
221	0xcb	-53
222	0x39	57
223	0x14	20
224	0xe7	-25
225	0x4d	77
226	0xfb	-5
227	0x7c	124
228	0x0e	14
229	0x02	2
230	0xc7	-57
231	0x16	22
232	0x7f	127
233	0xd1	-47
234	0xd5	-43
235	0x08	8
236	0x21	33
237	0xb1	-79
238	0x06	6
239	0x62	98
240	0x49	73
241	0xdc	-36
242	0x27	39
243	0x1f	31
244	0x9b	-101
245	0x14	20
246	0xbc	-68
247	0xbc	-68
248	0xf5	-11
249	0xbe	-66
250	0xba	-70
251	0x18	24
252	0xbe	-66
253	0x3d	61
254	0xfb	-5
255	0x36	54

model_1/depthwise_conv2d_10/depthwise1 i1 [1, 15, 1, 32]
0	0x25	37
1	0x7f	127
2	0x7f	127
3	0xd0	-48
4	0xea	-22
5	0x33	51
6	0xd9	-39
7	0x02	2
8	0x53	83
9	0x81	-127
10	0xe9	-23
11	0x21	33
12	0xdc	-36
13	0x1a	26
14	0x81	-127
15	0x0b	11
16	0x2b	43
17	0xda	-38
18	0x7f	127
19	0xb3	-77
20	0xcc	-52
21	0xf6	-10
22	0xbe	-66
23	0x8c	-116
24	0x01	1
25	0x55	85
26	0xa5	-91
27	0x23	35
28	0x81	-127
29	0x43	67
30	0x06	6
31	0xa6	-90
32	0x17	23
33	0x7e	126
34	0x67	103
35	0xd3	-45
36	0x2a	42
37	0x44	68
38	0xd9	-39
39	0xb9	-71
40	0x32	50
41	0xae	-82
42	0x55	85
43	0xc1	-63
44	0xee	-18
45	0x49	73
46	0xd8	-40
47	0x18	24
48	0x18	24
49	0x25	37
50	0x72	114
51	0xa8	-88
52	0xed	-19
53	0x16	22
54	0xac	-84
55	0xe0	-32
56	0x1e	30
57	0x59	89
58	0x9c	-100
59	0x0d	13
60	0x90	-112
61	0x59	89
62	0x07	7
63	0xcc	-52
64	0x25	37
65	0x66	102
66	0x31	49
67	0xac	-84
68	0x51	81
69	0x26	38
70	0xd3	-45
71	0xbc	-68
72	0x49	73
73	0xa2	-94
74	0x72	114
75	0x9f	-97
76	0xec	-20
77	0x4c	76
78	0xb4	-76
79	0x36	54
80	0x16	22
81	0x0b	11
82	0x70	112
83	0xad	-83
84	0xcc	-52
85	0x29	41
86	0x81	-127
87	0xc3	-61
88	0x22	34
89	0x4a	74
90	0x82	-126
91	0x0b	11
92	0x9d	-99
93	0x57	87
94	0xdf	-33
95	0xd6	-42
96	0x25	37
97	0x5e	94
98	0x26	38
99	0xbb	-69
100	0x7d	125
101	0x0c	12
102	0x94	-108
103	0x8e	-114
104	0x0f	15
105	0xc0	-64
106	0x58	88
107	0xb3	-77
108	0x35	53
109	0x3c	60
110	0xa8	-88
111	0x38	56
112	0x23	35
113	0x5a	90
114	0x3d	61
115	0xc8	-56
116	0xcc	-52
117	0x17	23
118	0x8a	-118
119	0xf6	-10
120	0x3a	58
121	0x17	23
122	0x81	-127
123	0xa3	-93
124	0x17	23
125	0x3b	59
126	0xee	-18
127	0xcf	-49
128	0x34	52
129	0x2b	43
130	0x42	66
131	0x81	-127
132	0x21	33
133	0xe8	-24
134	0x81	-127
135	0x8a	-118
136	0xea	-22
137	0xc1	-63
138	0xf1	-15
139	0xfa	-6
140	0x05	5
141	0x5a	90
142	0xa0	-96
143	0x0f	15
144	0x07	7
145	0x7f	127
146	0x42	66
147	0xdc	-36
148	0xec	-20
149	0xc3	-61
150	0xbb	-69
151	0xb5	-75
152	0x20	32
153	0xcf	-49
154	0xbe	-66
155	0xa4	-92
156	0x2e	46
157	0xe3	-29
158	0xb1	-79
159	0xce	-50
160	0x19	25
161	0x2c	44
162	0x05	5
163	0xb4	-76
164	0xeb	-21
165	0xa6	-90
166	0xc1	-63
167	0xd5	-43
168	0xeb	-21
169	0xc9	-55
170	0xfa	-6
171	0xe7	-25
172	0x2b	43
173	0x05	5
174	0xcf	-49
175	0xf9	-7
176	0x34	52
177	0x73	115
178	0xea	-22
179	0xa8	-88
180	0x08	8
181	0xb0	-80
182	0xfd	-3
183	0x0a	10
184	0xf9	-7
185	0xa8	-88
186	0x2b	43
187	0xfb	-5
188	0x48	72
189	0x05	5
190	0xbc	-68
191	0xe5	-27
192	0x08	8
193	0x2e	46
194	0x0a	10
195	0xb7	-73
196	0xe3	-29
197	0xfc	-4
198	0xf4	-12
199	0xae	-82
200	0x07	7
201	0xe3	-29
202	0x3c	60
203	0xb7	-73
204	0x06	6
205	0xe7	-25
206	0xa7	-89
207	0xdb	-37
208	0x2c	44
209	0x1d	29
210	0xaf	-81
211	0x81	-127
212	0x3b	59
213	0x81	-127
214	0x56	86
215	0x10	16
216	0x37	55
217	0x97	-105
218	0x44	68
219	0x10	16
220	0x05	5
221	0x15	21
222	0xc3	-61
223	0xeb	-21
224	0x29	41
225	0xf4	-12
226	0xed	-19
227	0xe2	-30
228	0x81	-127
229	0x11	17
230	0x2a	42
231	0xcb	-53
232	0xe4	-28
233	0xf2	-14
234	0x26	38
235	0xbe	-66
236	0x21	33
237	0xf2	-14
238	0x05	5
239	0xfb	-5
240	0x10	16
241	0xfc	-4
242	0xd6	-42
243	0xd0	-48
244	0x49	73
245	0x8f	-113
246	0x21	33
247	0xe7	-25
248	0x2c	44
249	0x81	-127
250	0x3c	60
251	0x48	72
252	0xb7	-73
253	0x8d	-115
254	0xf3	-13
255	0xf9	-7

model_1/depthwise_conv2d_9/depthwise i1 [1, 9, 1, 32]
0	0x33	51
1	0x7f	127
2	0x38	56
3	0xe5	-27
4	0xf5	-11
5	0xde	-34
6	0x7f	127
7	0xf8	-8
8	0x96	-106
9	0xd7	-41
10	0xa0	-96
11	0xd0	-48
12	0x81	-127
13	0x01	1
14	0x25	37
15	0x10	16
16	0x04	4
17	0xc9	-55
18	0x57	87
19	0x99	-103
20	0xca	-54
21	0x18	24
22	0x7f	127
23	0x29	41
24	0x05	5
25	0x3d	61
26	0x14	20
27	0x1f	31
28	0xc8	-56
29	0x2d	45
30	0x42	66
31	0x0a	10
32	0xf4	-12
33	0x37	55
34	0x09	9
35	0xcb	-53
36	0x00	0
37	0xe6	-26
38	0xef	-17
39	0x0b	11
40	0xc0	-64
41	0x11	17
42	0xdd	-35
43	0xd9	-39
44	0xce	-50
45	0xcc	-52
46	0x19	25
47	0xda	-38
48	0x18	24
49	0xbf	-65
50	0x7f	127
51	0xbc	-68
52	0xad	-83
53	0x17	23
54	0x54	84
55	0x61	97
56	0x42	66
57	0x0b	11
58	0xed	-19
59	0xfe	-2
60	0xdb	-37
61	0x0e	14
62	0xf5	-11
63	0x24	36
64	0x0a	10
65	0x03	3
66	0xf2	-14
67	0xdf	-33
68	0x27	39
69	0xf4	-12
70	0xcf	-49
71	0xd1	-47
72	0xe8	-24
73	0x00	0
74	0xb1	-79
75	0xf1	-15
76	0x06	6
77	0xa6	-90
78	0x0d	13
79	0xc4	-60
80	0xef	-17
81	0xd8	-40
82	0x5a	90
83	0x81	-127
84	0x22	34
85	0xfd	-3
86	0x5b	91
87	0x3c	60
88	0xd4	-44
89	0x12	18
90	0x2f	47
91	0xad	-83
92	0xdb	-37
93	0x95	-107
94	0x8e	-114
95	0x2a	42
96	0x3b	59
97	0x11	17
98	0x14	20
99	0xc7	-57
100	0x68	104
101	0x2c	44
102	0x3e	62
103	0xbe	-66
104	0x28	40
105	0xd2	-46
106	0x92	-110
107	0xca	-54
108	0x4c	76
109	0x86	-122
110	0x0b	11
111	0xb5	-75
112	0x12	18
113	0x87	-121
114	0x03	3
115	0x9c	-100
116	0xfc	-4
117	0xbf	-65
118	0x79	121
119	0xf4	-12
120	0xde	-34
121	0x40	64
122	0x5a	90
123	0xbd	-67
124	0x81	-127
125	0x97	-105
126	0x81	-127
127	0x2e	46
128	0x03	3
129	0xde	-34
130	0x38	56
131	0x2d	45
132	0x61	97
133	0x08	8
134	0x2f	47
135	0xc0	-64
136	0x21	33
137	0xed	-19
138	0x81	-127
139	0xd9	-39
140	0x40	64
141	0xb0	-80
142	0xf9	-7
143	0xcf	-49
144	0x9e	-98
145	0x81	-127
146	0x36	54
147	0x18	24
148	0x5b	91
149	0xd4	-44
150	0x40	64
151	0xe7	-25
152	0xdf	-33
153	0x5e	94
154	0x4f	79
155	0x8c	-116
156	0xb4	-76
157	0xab	-85
158	0xdd	-35
159	0x05	5
160	0xff	-1
161	0xdc	-36
162	0x63	99
163	0xf6	-10
164	0x7f	127
165	0x26	38
166	0x47	71
167	0x19	25
168	0x13	19
169	0xdf	-33
170	0xa8	-88
171	0x81	-127
172	0x70	112
173	0xff	-1
174	0x2b	43
175	0x1d	29
176	0xad	-83
177	0xab	-85
178	0xb1	-79
179	0x30	48
180	0x7f	127
181	0x3b	59
182	0x49	73
183	0xd4	-44
184	0x5f	95
185	0x7f	127
186	0x60	96
187	0x81	-127
188	0xf0	-16
189	0xed	-19
190	0x1a	26
191	0x3d	61
192	0x20	32
193	0xfa	-6
194	0x5e	94
195	0x4d	77
196	0x39	57
197	0xd6	-42
198	0x71	113
199	0x7f	127
200	0x01	1
201	0xb2	-78
202	0xca	-54
203	0xae	-82
204	0x50	80
205	0x16	22
206	0x07	7
207	0x14	20
208	0x81	-127
209	0x0a	10
210	0xe6	-26
211	0x05	5
212	0x40	64
213	0x67	103
214	0x20	32
215	0x81	-127
216	0xdb	-37
217	0x73	115
218	0x56	86
219	0xc9	-55
220	0x5b	91
221	0x6f	111
222	0x07	7
223	0x58	88
224	0x5b	91
225	0x0f	15
226	0x7f	127
227	0x7f	127
228	0xa4	-92
229	0xa8	-88
230	0xf8	-8
231	0x7f	127
232	0x16	22
233	0xd5	-43
234	0xa8	-88
235	0xa6	-90
236	0x5a	90
237	0x4d	77
238	0x30	48
239	0x49	73
240	0xa0	-96
241	0x22	34
242	0x5e	94
243	0xf7	-9
244	0x00	0
245	0x7f	127
246	0xb6	-74
247	0xfc	-4
248	0x81	-127
249	0x0d	13
250	0x7f	127
251	0x2a	42
252	0x72	114
253	0x7f	127
254	0x0e	14
255	0x6b	107

model_1/conv2d_7/Conv2D i1 [64, 1, 1, 64]
0	0x07	7
1	0x1c	28
2	0x46	70
3	0x3f	63
4	0x1d	29
5	0xec	-20
6	0xf1	-15
7	0xf4	-12
8	0xfc	-4
9	0xdd	-35
10	0x0e	14
11	0x22	34
12	0xad	-83
13	0x15	21
14	0x20	32
15	0xe2	-30
16	0xf9	-7
17	0xd5	-43
18	0x26	38
19	0xf9	-7
20	0xe2	-30
21	0xfa	-6
22	0xcc	-52
23	0x4e	78
24	0x81	-127
25	0x3e	62
26	0xa6	-90
27	0x05	5
28	0x07	7
29	0x1d	29
30	0x12	18
31	0x34	52
32	0xff	-1
33	0x11	17
34	0x0a	10
35	0xdd	-35
36	0x1a	26
37	0x45	69
38	0xfe	-2
39	0xf7	-9
40	0xc9	-55
41	0x2c	44
42	0x0b	11
43	0xd5	-43
44	0x44	68
45	0x10	16
46	0x0c	12
47	0xd0	-48
48	0x21	33
49	0xf2	-14
50	0xf7	-9
51	0xee	-18
52	0xfa	-6
53	0x1e	30
54	0x01	1
55	0xfe	-2
56	0x2a	42
57	0xfa	-6
58	0x26	38
59	0xea	-22
60	0x09	9
61	0x17	23
62	0x20	32
63	0xe0	-32
64	0x41	65
65	0xf5	-11
66	0xec	-20
67	0x18	24
68	0x67	103
69	0xcc	-52
70	0x2c	44
71	0xe8	-24
72	0x12	18
73	0x11	17
74	0xca	-54
75	0xcc	-52
76	0x2d	45
77	0x33	51
78	0x24	36
79	0x0c	12
80	0xd9	-39
81	0xc5	-59
82	0x23	35
83	0xef	-17
84	0xbf	-65
85	0xfa	-6
86	0xd6	-42
87	0x37	55
88	0x04	4
89	0xe1	-31
90	0xf9	-7
91	0x1e	30
92	0x2c	44
93	0x1e	30
94	0xee	-18
95	0x02	2
96	0x01	1
97	0x48	72
98	0xdd	-35
99	0x37	55
100	0xd5	-43
101	0x81	-127
102	0xfd	-3
103	0x2d	45
104	0xe7	-25
105	0xf1	-15
106	0xb7	-73
107	0x3d	61
108	0x35	53
109	0xf2	-14
110	0xdb	-37
111	0x43	67
112	0xee	-18
113	0x0f	15
114	0x01	1
115	0xb6	-74
116	0x17	23
117	0xcd	-51
118	0xca	-54
119	0x1b	27
120	0x1f	31
121	0xd4	-44
122	0x3d	61
123	0x27	39
124	0xfa	-6
125	0x05	5
126	0x15	21
127	0xdf	-33
128	0x16	22
129	0xee	-18
130	0x03	3
131	0x00	0
132	0x12	18
133	0x00	0
134	0x11	17
135	0x3f	63
136	0x20	32
137	0xcd	-51
138	0x1c	28
139	0x3f	63
140	0xc2	-62
141	0xf2	-14
142	0x1f	31
143	0xed	-19
144	0xf9	-7
145	0x08	8
146	0xf5	-11
147	0x1b	27
148	0xd1	-47
149	0xf5	-11
150	0xe0	-32
151	0x04	4
152	0x81	-127
153	0x4a	74
154	0x24	36
155	0xd2	-46
156	0xe8	-24
157	0x02	2
158	0xe8	-24
159	0x31	49
160	0x10	16
161	0xed	-19
162	0x11	17
163	0xfc	-4
164	0x06	6
165	0x51	81
166	0xfe	-2
167	0xa8	-88
168	0xed	-19
169	0x2b	43
170	0x68	104
171	0x09	9
172	0x07	7
173	0xef	-17
174	0x25	37
175	0xfb	-5
176	0xf2	-14
177	0x0c	12
178	0x24	36
179	0xe6	-26
180	0x05	5
181	0xec	-20
182	0x1b	27
183	0x26	38
184	0xeb	-21
185	0xe0	-32
186	0xe9	-23
187	0x1c	28
188	0xe3	-29
189	0xe4	-28
190	0xfc	-4
191	0x07	7
192	0xd4	-44
193	0xbf	-65
194	0x30	48
195	0x05	5
196	0xde	-34
197	0x9a	-102
198	0xd3	-45
199	0x3b	59
200	0xbf	-65
201	0x0d	13
202	0x24	36
203	0xf5	-11
204	0xef	-17
205	0xd7	-41
206	0xed	-19
207	0xc6	-58
208	0xeb	-21
209	0xb6	-74
210	0xb6	-74
211	0xfc	-4
212	0x48	72
213	0xea	-22
214	0xeb	-21
215	0xf7	-9
216	0xc9	-55
217	0xf3	-13
218	0x39	57
219	0x81	-127
220	0xc6	-58
221	0x90	-112
222	0x4e	78
223	0x40	64
224	0x05	5
225	0xfe	-2
226	0x1f	31
227	0x42	66
228	0xdc	-36
229	0xd9	-39
230	0xf1	-15
231	0x71	113
232	0xeb	-21
233	0xcd	-51
234	0xd0	-48
235	0xd0	-48
236	0x11	17
237	0x50	80
238	0x28	40
239	0xe7	-25
240	0xeb	-21
241	0x29	41
242	0x0b	11
243	0x62	98
244	0x28	40
245	0xbb	-69
246	0x31	49
247	0x26	38
248	0x07	7
249	0x91	-111
250	0x0a	10
251	0xe8	-24
252	0x1d	29
253	0x47	71
254	0x45	69
255	0x25	37

model_1/depthwise_conv2d_8/depthwise i1 [1, 11, 1, 32]
0	0x85	-123
1	0xa7	-89
2	0x81	-127
3	0x7f	127
4	0xbd	-67
5	0x68	104
6	0x0b	11
7	0x81	-127
8	0x07	7
9	0xd4	-44
10	0xe3	-29
11	0x11	17
12	0x1f	31
13	0x81	-127
14	0xe7	-25
15	0xfd	-3
16	0x7f	127
17	0x67	103
18	0x8f	-113
19	0x16	22
20	0x6b	107
21	0xda	-38
22	0xd0	-48
23	0x5c	92
24	0x32	50
25	0x81	-127
26	0x18	24
27	0x0b	11
28	0x29	41
29	0x81	-127
30	0x64	100
31	0x7f	127
32	0xa6	-90
33	0xcf	-49
34	0xac	-84
35	0x7c	124
36	0xc7	-57
37	0x1e	30
38	0x7f	127
39	0x8d	-115
40	0x12	18
41	0x8a	-118
42	0xf7	-9
43	0x25	37
44	0x55	85
45	0x90	-112
46	0xd4	-44
47	0x1f	31
48	0x54	84
49	0x12	18
50	0xe1	-31
51	0x4f	79
52	0x25	37
53	0xc2	-62
54	0xc6	-58
55	0x4c	76
56	0x7f	127
57	0xd7	-41
58	0x21	33
59	0xe1	-31
60	0xe4	-28
61	0xac	-84
62	0x7f	127
63	0x17	23
64	0x85	-123
65	0x21	33
66	0x9e	-98
67	0x44	68
68	0xf4	-12
69	0x28	40
70	0x14	20
71	0xfe	-2
72	0xe3	-29
73	0x81	-127
74	0x35	53
75	0x1e	30
76	0x08	8
77	0xbf	-65
78	0xd4	-44
79	0x4a	74
80	0x73	115
81	0x09	9
82	0x02	2
83	0x33	51
84	0x14	20
85	0xb8	-72
86	0x11	17
87	0x0c	12
88	0x5a	90
89	0x19	25
90	0xf4	-12
91	0x21	33
92	0x17	23
93	0xcc	-52
94	0x3f	63
95	0x1c	28
96	0x81	-127
97	0x12	18
98	0xf3	-13
99	0xe0	-32
100	0x26	38
101	0xc5	-59
102	0xad	-83
103	0xcb	-53
104	0x05	5
105	0xbe	-66
106	0x14	20
107	0x17	23
108	0x10	16
109	0xab	-85
110	0xab	-85
111	0x35	53
112	0x55	85
113	0x90	-112
114	0x1b	27
115	0xc5	-59
116	0x22	34
117	0x81	-127
118	0x44	68
119	0xa6	-90
120	0xe2	-30
121	0x1f	31
122	0xc8	-56
123	0x23	35
124	0x5d	93
125	0x5f	95
126	0xeb	-21
127	0xe1	-31
128	0xc1	-63
129	0x21	33
130	0xef	-17
131	0x02	2
132	0xc8	-56
133	0x84	-124
134	0xff	-1
135	0x51	81
136	0x0a	10
137	0xfb	-5
138	0x09	9
139	0x0b	11
140	0x00	0
141	0xa1	-95
142	0x81	-127
143	0x02	2
144	0x58	88
145	0xf9	-7
146	0x46	70
147	0xbb	-69
148	0x0e	14
149	0xb7	-73
150	0xf0	-16
151	0xf9	-7
152	0x1d	29
153	0x2b	43
154	0xdb	-37
155	0x10	16
156	0x4c	76
157	0x1b	27
158	0xa7	-89
159	0xf8	-8
160	0xc4	-60
161	0x4c	76
162	0x01	1
163	0x2c	44
164	0xdd	-35
165	0xf0	-16
166	0xec	-20
167	0x09	9
168	0x29	41
169	0x65	101
170	0x47	71
171	0xb2	-78
172	0xaa	-86
173	0xc6	-58
174	0x84	-124
175	0xdf	-33
176	0xc8	-56
177	0x2d	45
178	0xf2	-14
179	0x81	-127
180	0xc9	-55
181	0xba	-70
182	0xdb	-37
183	0x2a	42
184	0x41	65
185	0x31	49
186	0x23	35
187	0xa4	-92
188	0x13	19
189	0xeb	-21
190	0x99	-103
191	0xfa	-6
192	0xd1	-47
193	0x74	116
194	0xfb	-5
195	0x2e	46
196	0xd1	-47
197	0x7f	127
198	0x2e	46
199	0x9a	-102
200	0xf0	-16
201	0x5b	91
202	0xe3	-29
203	0x28	40
204	0xd7	-41
205	0xb0	-80
206	0x84	-124
207	0x32	50
208	0xb4	-76
209	0x41	65
210	0xc7	-57
211	0xc9	-55
212	0x81	-127
213	0xfc	-4
214	0xbb	-69
215	0xae	-82
216	0x0e	14
217	0x34	52
218	0x45	69
219	0x81	-127
220	0xd1	-47
221	0xb6	-74
222	0xb4	-76
223	0x60	96
224	0xfa	-6
225	0x7f	127
226	0xdd	-35
227	0xf1	-15
228	0x29	41
229	0xbf	-65
230	0x06	6
231	0x01	1
232	0x15	21
233	0x0e	14
234	0x81	-127
235	0x41	65
236	0xab	-85
237	0xa4	-92
238	0x9c	-100
239	0xdf	-33
240	0xb1	-79
241	0x74	116
242	0xa7	-89
243	0x39	57
244	0xaf	-81
245	0x12	18
246	0xda	-38
247	0x81	-127
248	0xe2	-30
249	0x36	54
250	0xfc	-4
251	0xa2	-94
252	0x08	8
253	0x03	3
254	0xe8	-24
255	0x6c	108

model_1/depthwise_conv2d_7/depthwise i1 [1, 7, 1, 32]
0	0x27	39
1	0x64	100
2	0x5f	95
3	0xc9	-55
4	0x13	19
5	0x04	4
6	0xf4	-12
7	0x6b	107
8	0x6b	107
9	0x8c	-116
10	0x7f	127
11	0x27	39
12	0x4f	79
13	0x3a	58
14	0x2e	46
15	0xdb	-37
16	0x16	22
17	0x3e	62
18	0x5c	92
19	0xc7	-57
20	0x7f	127
21	0xf1	-15
22	0x41	65
23	0x25	37
24	0xaa	-86
25	0x02	2
26	0x81	-127
27	0xff	-1
28	0xe5	-27
29	0xb7	-73
30	0x70	112
31	0xcc	-52
32	0x19	25
33	0x56	86
34	0x44	68
35	0x81	-127
36	0x29	41
37	0x81	-127
38	0x72	114
39	0x6c	108
40	0x7f	127
41	0xb4	-76
42	0x33	51
43	0xd9	-39
44	0xc4	-60
45	0xcf	-49
46	0x2a	42
47	0x12	18
48	0xfd	-3
49	0x33	51
50	0x3c	60
51	0xf5	-11
52	0x7b	123
53	0xa2	-94
54	0x02	2
55	0x55	85
56	0x2d	45
57	0xa4	-92
58	0xc0	-64
59	0x7b	123
60	0xdf	-33
61	0xaa	-86
62	0x7f	127
63	0x81	-127
64	0xb0	-80
65	0x58	88
66	0xc7	-57
67	0xc3	-61
68	0xce	-50
69	0xa4	-92
70	0x59	89
71	0x20	32
72	0x13	19
73	0x9c	-100
74	0x97	-105
75	0xd6	-42
76	0x81	-127
77	0x81	-127
78	0xae	-82
79	0xc3	-61
80	0x14	20
81	0x40	64
82	0x02	2
83	0xb1	-79
84	0x42	66
85	0x81	-127
86	0x22	34
87	0x7f	127
88	0x72	114
89	0xcb	-53
90	0x09	9
91	0x7f	127
92	0xf2	-14
93	0x57	87
94	0x67	103
95	0xf0	-16
96	0x81	-127
97	0xf5	-11
98	0xe9	-23
99	0xb4	-76
100	0x81	-127
101	0xec	-20
102	0xcf	-49
103	0x8d	-115
104	0x21	33
105	0xfc	-4
106	0x8e	-114
107	0x56	86
108	0x28	40
109	0xa7	-89
110	0xaf	-81
111	0x9c	-100
112	0x3a	58
113	0xa3	-93
114	0xaf	-81
115	0x7f	127
116	0x39	57
117	0xa9	-87
118	0x0e	14
119	0xee	-18
120	0xe3	-29
121	0x73	115
122	0xff	-1
123	0x2f	47
124	0xf1	-15
125	0x7f	127
126	0xd4	-44
127	0xac	-84
128	0xa6	-90
129	0xd2	-46
130	0x7f	127
131	0x1a	26
132	0xb2	-78
133	0xe1	-31
134	0x81	-127
135	0xe4	-28
136	0xe2	-30
137	0xdd	-35
138	0xa7	-89
139	0x34	52
140	0x6b	107
141	0xf6	-10
142	0x3b	59
143	0x71	113
144	0x01	1
145	0xbf	-65
146	0x81	-127
147	0x6f	111
148	0xc9	-55
149	0x38	56
150	0xe4	-28
151	0xaa	-86
152	0xd4	-44
153	0x7f	127
154	0x47	71
155	0x31	49
156	0xa9	-87
157	0x4f	79
158	0x0c	12
159	0xbc	-68
160	0x0d	13
161	0x97	-105
162	0x1d	29
163	0x33	51
164	0x95	-107
165	0xef	-17
166	0xc2	-62
167	0xf2	-14
168	0xd9	-39
169	0x0e	14
170	0xc3	-61
171	0x81	-127
172	0x35	53
173	0x0b	11
174	0x7f	127
175	0x73	115
176	0x81	-127
177	0x8e	-114
178	0x0e	14
179	0x98	-104
180	0xfa	-6
181	0x6f	111
182	0x6d	109
183	0xb4	-76
184	0x4d	77
185	0x96	-106
186	0x78	120
187	0xca	-54
188	0x81	-127
189	0xc1	-63
190	0x28	40
191	0xd9	-39
192	0xf1	-15
193	0x81	-127
194	0xcc	-52
195	0x51	81
196	0x9f	-97
197	0xf2	-14
198	0x19	25
199	0x81	-127
200	0x85	-123
201	0x7f	127
202	0xe4	-28
203	0xa2	-94
204	0xce	-50
205	0x08	8
206	0x36	54
207	0x7f	127
208	0xbc	-68
209	0x81	-127
210	0xdd	-35
211	0x07	7
212	0x51	81
213	0x05	5
214	0x7f	127
215	0x1b	27
216	0x7f	127
217	0x96	-106
218	0x13	19
219	0xec	-20
220	0x9f	-97
221	0x91	-111
222	0x2a	42
223	0xb9	-71

model_1/conv2d_6/Conv2D i1 [64, 1, 1, 32]
0	0x1e	30
1	0x81	-127
2	0xfe	-2
3	0x26	38
4	0xac	-84
5	0xdf	-33
6	0xb2	-78
7	0xe2	-30
8	0xcb	-53
9	0xdd	-35
10	0xc6	-58
11	0xab	-85
12	0x18	24
13	0xfd	-3
14	0xab	-85
15	0xd2	-46
16	0x01	1
17	0xe9	-23
18	0x0d	13
19	0xea	-22
20	0xe9	-23
21	0x09	9
22	0xc3	-61
23	0x10	16
24	0xd0	-48
25	0x48	72
26	0xf7	-9
27	0xf6	-10
28	0x3c	60
29	0xcb	-53
30	0xb7	-73
31	0xf2	-14
32	0xe8	-24
33	0xd5	-43
34	0xd9	-39
35	0x7d	125
36	0xc4	-60
37	0x20	32
38	0xd5	-43
39	0xe9	-23
40	0x7f	127
41	0xff	-1
42	0xbe	-66
43	0x44	68
44	0xeb	-21
45	0xe2	-30
46	0x6e	110
47	0xe4	-28
48	0xd9	-39
49	0x21	33
50	0x12	18
51	0xe3	-29
52	0xe2	-30
53	0xc9	-55
54	0x0d	13
55	0xc7	-57
56	0x1f	31
57	0xb2	-78
58	0xef	-17
59	0x63	99
60	0xf8	-8
61	0xfc	-4
62	0x45	69
63	0xe5	-27
64	0x7c	124
65	0xfb	-5
66	0x04	4
67	0x1e	30
68	0x11	17
69	0x0a	10
70	0x0f	15
71	0x58	88
72	0xd3	-45
73	0x7f	127
74	0x11	17
75	0xe1	-31
76	0x0a	10
77	0x84	-124
78	0xf3	-13
79	0xe0	-32
80	0x35	53
81	0xeb	-21
82	0x0b	11
83	0xbb	-69
84	0xe7	-25
85	0x3c	60
86	0x27	39
87	0x08	8
88	0xf5	-11
89	0x53	83
90	0x0e	14
91	0xeb	-21
92	0x25	37
93	0x00	0
94	0xd8	-40
95	0x2a	42
96	0x1d	29
97	0xe4	-28
98	0x3d	61
99	0xfc	-4
100	0xc5	-59
101	0x0f	15
102	0xbe	-66
103	0xf8	-8
104	0xcb	-53
105	0xd0	-48
106	0x39	57
107	0x15	21
108	0xe5	-27
109	0x04	4
110	0x25	37
111	0x1d	29
112	0xd4	-44
113	0x81	-127
114	0xee	-18
115	0x37	55
116	0x57	87
117	0xfb	-5
118	0xdc	-36
119	0x20	32
120	0xf6	-10
121	0xa1	-95
122	0xff	-1
123	0x1b	27
124	0xc7	-57
125	0xed	-19
126	0xfa	-6
127	0xa5	-91
128	0x19	25
129	0xc3	-61
130	0x46	70
131	0xaf	-81
132	0xa9	-87
133	0x03	3
134	0xfb	-5
135	0x1b	27
136	0xfe	-2
137	0xf3	-13
138	0x3d	61
139	0xd3	-45
140	0x50	80
141	0xa9	-87
142	0xb1	-79
143	0xdd	-35
144	0x0c	12
145	0x81	-127
146	0xb8	-72
147	0x70	112
148	0x20	32
149	0x3a	58
150	0x0d	13
151	0xb7	-73
152	0x06	6
153	0x45	69
154	0xb6	-74
155	0x6c	108
156	0x2f	47
157	0xc0	-64
158	0xce	-50
159	0x12	18
160	0x14	20
161	0x0f	15
162	0x8c	-116
163	0x24	36
164	0xec	-20
165	0x12	18
166	0x15	21
167	0x27	39
168	0xe9	-23
169	0x91	-111
170	0x27	39
171	0x27	39
172	0x04	4
173	0x3a	58
174	0x3f	63
175	0x4d	77
176	0x09	9
177	0x17	23
178	0x42	66
179	0x18	24
180	0x34	52
181	0x40	64
182	0xb4	-76
183	0xcb	-53
184	0x81	-127
185	0x00	0
186	0xd7	-41
187	0x4f	79
188	0x08	8
189	0xbd	-67
190	0x09	9
191	0xe9	-23
192	0x44	68
193	0xa5	-91
194	0xce	-50
195	0xe4	-28
196	0xb5	-75
197	0xa7	-89
198	0x0c	12
199	0xf2	-14
200	0xca	-54
201	0xd5	-43
202	0xf4	-12
203	0xfe	-2
204	0xa3	-93
205	0xe0	-32
206	0xaf	-81
207	0x81	-127
208	0xe9	-23
209	0xf3	-13
210	0x0a	10
211	0xda	-38
212	0xf0	-16
213	0xf1	-15
214	0x38	56
215	0x05	5
216	0xc6	-58
217	0x59	89
218	0xdc	-36
219	0x43	67
220	0xd9	-39
221	0x9f	-97
222	0x1c	28
223	0xd0	-48
224	0xcb	-53
225	0x02	2
226	0xbb	-69
227	0x7f	127
228	0xf3	-13
229	0xf0	-16
230	0x33	51
231	0x26	38
232	0x08	8
233	0x72	114
234	0x07	7
235	0x36	54
236	0x0d	13
237	0xed	-19
238	0x08	8
239	0xb3	-77
240	0x1d	29
241	0x0e	14
242	0xea	-22
243	0x35	53
244	0xcb	-53
245	0xf5	-11
246	0x0b	11
247	0x4f	79
248	0xdd	-35
249	0xec	-20
250	0xf9	-7
251	0xe1	-31
252	0xd5	-43
253	0xdc	-36
254	0x27	39
255	0xd5	-43

model_1/depthwise_conv2d_6/depthwise i1 [1, 5, 1, 32]
0	0xcf	-49
1	0xcc	-52
2	0x08	8
3	0xf6	-10
4	0x7f	127
5	0xb4	-76
6	0x9b	-101
7	0xba	-70
8	0xa0	-96
9	0x60	96
10	0xc7	-57
11	0xce	-50
12	0xed	-19
13	0xa6	-90
14	0x05	5
15	0x23	35
16	0xec	-20
17	0x00	0
18	0x41	65
19	0x25	37
20	0x21	33
21	0x01	1
22	0xde	-34
23	0x86	-122
24	0xba	-70
25	0x81	-127
26	0xe0	-32
27	0x38	56
28	0xe9	-23
29	0x60	96
30	0xcf	-49
31	0x81	-127
32	0xcd	-51
33	0xba	-70
34	0xb2	-78
35	0x02	2
36	0x50	80
37	0xc4	-60
38	0x08	8
39	0x19	25
40	0xa8	-88
41	0x09	9
42	0x1d	29
43	0x81	-127
44	0x7f	127
45	0xb0	-80
46	0x3d	61
47	0xd4	-44
48	0x1a	26
49	0xdd	-35
50	0x7f	127
51	0x2f	47
52	0x39	57
53	0xe7	-25
54	0x7f	127
55	0x81	-127
56	0x8e	-114
57	0xa0	-96
58	0xa6	-90
59	0x7b	123
60	0x39	57
61	0xeb	-21
62	0xdb	-37
63	0xb5	-75
64	0xc0	-64
65	0xe8	-24
66	0xa7	-89
67	0x5c	92
68	0x7c	124
69	0x7f	127
70	0x66	102
71	0x7f	127
72	0xce	-50
73	0xf6	-10
74	0xb9	-71
75	0xd1	-47
76	0x74	116
77	0x81	-127
78	0xfd	-3
79	0xc6	-58
80	0x7f	127
81	0xe5	-27
82	0xd0	-48
83	0xbc	-68
84	0xb0	-80
85	0x48	72
86	0x47	71
87	0xac	-84
88	0xc3	-61
89	0x2a	42
90	0x81	-127
91	0x7f	127
92	0x7f	127
93	0x81	-127
94	0xfc	-4
95	0x34	52
96	0x7f	127
97	0x57	87
98	0x79	121
99	0x81	-127
100	0x43	67
101	0x75	117
102	0x07	7
103	0x35	53
104	0xf0	-16
105	0x0b	11
106	0x81	-127
107	0xd3	-45
108	0x09	9
109	0xf1	-15
110	0xeb	-21
111	0x30	48
112	0x63	99
113	0x7f	127
114	0xa9	-87
115	0x81	-127
116	0x81	-127
117	0x7f	127
118	0x2e	46
119	0x8c	-116
120	0x81	-127
121	0x52	82
122	0xfc	-4
123	0x2b	43
124	0x35	53
125	0x8e	-114
126	0x0b	11
127	0x7c	124
128	0x43	67
129	0x7f	127
130	0x7f	127
131	0xa2	-94
132	0xf8	-8
133	0xaf	-81
134	0x7f	127
135	0x31	49
136	0x81	-127
137	0x81	-127
138	0xda	-38
139	0xda	-38
140	0xc7	-57
141	0x3d	61
142	0x81	-127
143	0x7f	127
144	0xfe	-2
145	0x5e	94
146	0x1d	29
147	0x2f	47
148	0xf6	-10
149	0xe7	-25
150	0x05	5
151	0x45	69
152	0x96	-106
153	0x11	17
154	0x33	51
155	0xe2	-30
156	0x52	82
157	0xbe	-66
158	0x7f	127
159	0x02	2

model_1/stream_6/conv2d_5/Conv2D i1 [32, 5, 1, 40]
0	0x1f	31
1	0xd9	-39
2	0x2c	44
3	0xf7	-9
4	0xfe	-2
5	0xf2	-14
6	0x00	0
7	0xff	-1
8	0x22	34
9	0x58	88
10	0x1d	29
11	0x11	17
12	0x15	21
13	0xfd	-3
14	0xe8	-24
15	0x18	24
16	0x24	36
17	0x22	34
18	0xe7	-25
19	0x04	4
20	0xf4	-12
21	0xa2	-94
22	0x97	-105
23	0x81	-127
24	0xdf	-33
25	0xce	-50
26	0xe2	-30
27	0xe5	-27
28	0xf1	-15
29	0xc0	-64
30	0xe6	-26
31	0xe5	-27
32	0xff	-1
33	0xc9	-55
34	0xdb	-37
35	0x00	0
36	0x04	4
37	0xf1	-15
38	0x14	20
39	0xc3	-61
40	0xf7	-9
41	0xb9	-71
42	0x12	18
43	0xe7	-25
44	0x29	41
45	0xe0	-32
46	0x34	52
47	0x10	16
48	0x6e	110
49	0x59	89
50	0x6f	111
51	0x41	65
52	0x27	39
53	0xe8	-24
54	0xfa	-6
55	0x03	3
56	0x42	66
57	0xef	-17
58	0x15	21
59	0xe9	-23
60	0x11	17
61	0xcc	-52
62	0xb1	-79
63	0xa6	-90
64	0xfa	-6
65	0xfd	-3
66	0xeb	-21
67	0xe3	-29
68	0x0e	14
69	0x0b	11
70	0xf8	-8
71	0xdc	-36
72	0xfb	-5
73	0xaa	-86
74	0xea	-22
75	0xf5	-11
76	0xf7	-9
77	0xc5	-59
78	0x2e	46
79	0xbc	-68
80	0xe7	-25
81	0xb7	-73
82	0xec	-20
83	0xd2	-46
84	0x12	18
85	0x9e	-98
86	0x00	0
87	0x1f	31
88	0x6a	106
89	0x68	104
90	0x62	98
91	0x30	48
92	0xd9	-39
93	0x9b	-101
94	0xcd	-51
95	0xf7	-9
96	0x20	32
97	0xfe	-2
98	0x11	17
99	0x10	16
100	0x17	23
101	0x00	0
102	0xe6	-26
103	0x98	-104
104	0xc0	-64
105	0xdf	-33
106	0x0e	14
107	0xb2	-78
108	0xee	-18
109	0xbf	-65
110	0x09	9
111	0xf5	-11
112	0xea	-22
113	0xdc	-36
114	0xac	-84
115	0xed	-19
116	0xde	-34
117	0xe0	-32
118	0x24	36
119	0xec	-20
120	0x01	1
121	0xc7	-57
122	0xf1	-15
123	0xc2	-62
124	0x1e	30
125	0xb9	-71
126	0x15	21
127	0x23	35
128	0x61	97
129	0x23	35
130	0x1e	30
131	0x42	66
132	0xe0	-32
133	0xcb	-53
134	0x14	20
135	0xf0	-16
136	0x54	84
137	0x36	54
138	0x04	4
139	0x32	50
140	0x29	41
141	0xdb	-37
142	0xdb	-37
143	0xb3	-77
144	0xea	-22
145	0x17	23
146	0xfd	-3
147	0xf3	-13
148	0x1f	31
149	0xfa	-6
150	0xfc	-4
151	0x1d	29
152	0xec	-20
153	0x17	23
154	0xfc	-4
155	0x36	54
156	0xfc	-4
157	0xfb	-5
158	0xf9	-7
159	0x2f	47
160	0x00	0
161	0xec	-20
162	0xcf	-49
163	0xef	-17
164	0x34	52
165	0xcd	-51
166	0x1e	30
167	0x3a	58
168	0x3e	62
169	0x22	34
170	0x53	83
171	0x33	51
172	0x25	37
173	0xec	-20
174	0x0b	11
175	0xff	-1
176	0x3c	60
177	0x24	36
178	0x4b	75
179	0x35	53
180	0x4e	78
181	0xed	-19
182	0xe5	-27
183	0xf2	-14
184	0xec	-20
185	0x1a	26
186	0xe8	-24
187	0xe4	-28
188	0xf8	-8
189	0x03	3
190	0x08	8
191	0x1a	26
192	0xd6	-42
193	0x33	51
194	0x08	8
195	0x50	80
196	0xf8	-8
197	0x57	87
198	0x56	86
199	0x3c	60
200	0x15	21
201	0xf9	-7
202	0x01	1
203	0xc4	-60
204	0x15	21
205	0x1b	27
206	0x19	25
207	0x22	34
208	0xe6	-26
209	0xdd	-35
210	0xfe	-2
211	0xd9	-39
212	0xcb	-53
213	0xd2	-46
214	0x0e	14
215	0xf2	-14
216	0x32	50
217	0xd1	-47
218	0xe7	-25
219	0xda	-38
220	0x08	8
221	0x3b	59
222	0xf7	-9
223	0x2e	46
224	0x55	85
225	0x7f	127
226	0x34	52
227	0x05	5
228	0xf1	-15
229	0x0a	10
230	0xfc	-4
231	0x27	39
232	0x24	36
233	0x22	34
234	0x13	19
235	0xde	-34
236	0xe8	-24
237	0xa9	-87
238	0xd5	-43
239	0xd8	-40
240	0x2d	45
241	0x3e	62
242	0x31	49
243	0x30	48
244	0x06	6
245	0x14	20
246	0x20	32
247	0xfd	-3
248	0xf1	-15
249	0xbf	-65
250	0x04	4
251	0xf4	-12
252	0xdd	-35
253	0xbd	-67
254	0x24	36
255	0xed	-19

tfl.pseudo_qconst i1 [1, 14, 1, 64] scale=0.03387933 zero_point=-128
0	0x80	0.0
1	0x80	0.0
2	0x80	0.0
3	0x80	0.0
4	0x80	0.0
5	0x80	0.0
6	0x80	0.0
7	0x80	0.0
8	0x80	0.0
9	0x80	0.0
10	0x80	0.0
11	0x80	0.0
12	0x80	0.0
13	0x80	0.0
14	0x80	0.0
15	0x80	0.0
16	0x80	0.0
17	0x80	0.0
18	0x80	0.0
19	0x80	0.0
20	0x80	0.0
21	0x80	0.0
22	0x80	0.0
23	0x80	0.0
24	0x80	0.0
25	0x80	0.0
26	0x80	0.0
27	0x80	0.0
28	0x80	0.0
29	0x80	0.0
30	0x80	0.0
31	0x80	0.0
32	0x80	0.0
33	0x80	0.0
34	0x80	0.0
35	0x80	0.0
36	0x80	0.0
37	0x80	0.0
38	0x80	0.0
39	0x80	0.0
40	0x80	0.0
41	0x80	0.0
42	0x80	0.0
43	0x80	0.0
44	0x80	0.0
45	0x80	0.0
46	0x80	0.0
47	0x80	0.0
48	0x80	0.0
49	0x80	0.0
50	0x80	0.0
51	0x80	0.0
52	0x80	0.0
53	0x80	0.0
54	0x80	0.0
55	0x80	0.0
56	0x80	0.0
57	0x80	0.0
58	0x80	0.0
59	0x80	0.0
60	0x80	0.0
61	0x80	0.0
62	0x80	0.0
63	0x80	0.0
64	0x80	0.0
65	0x80	0.0
66	0x80	0.0
67	0x80	0.0
68	0x80	0.0
69	0x80	0.0
70	0x80	0.0
71	0x80	0.0
72	0x80	0.0
73	0x80	0.0
74	0x80	0.0
75	0x80	0.0
76	0x80	0.0
77	0x80	0.0
78	0x80	0.0
79	0x80	0.0
80	0x80	0.0
81	0x80	0.0
82	0x80	0.0
83	0x80	0.0
84	0x80	0.0
85	0x80	0.0
86	0x80	0.0
87	0x80	0.0
88	0x80	0.0
89	0x80	0.0
90	0x80	0.0
91	0x80	0.0
92	0x80	0.0
93	0x80	0.0
94	0x80	0.0
95	0x80	0.0
96	0x80	0.0
97	0x80	0.0
98	0x80	0.0
99	0x80	0.0
100	0x80	0.0
101	0x80	0.0
102	0x80	0.0
103	0x80	0.0
104	0x80	0.0
105	0x80	0.0
106	0x80	0.0
107	0x80	0.0
108	0x80	0.0
109	0x80	0.0
110	0x80	0.0
111	0x80	0.0
112	0x80	0.0
113	0x80	0.0
114	0x80	0.0
115	0x80	0.0
116	0x80	0.0
117	0x80	0.0
118	0x80	0.0
119	0x80	0.0
120	0x80	0.0
121	0x80	0.0
122	0x80	0.0
123	0x80	0.0
124	0x80	0.0
125	0x80	0.0
126	0x80	0.0
127	0x80	0.0
128	0x80	0.0
129	0x80	0.0
130	0x80	0.0
131	0x80	0.0
132	0x80	0.0
133	0x80	0.0
134	0x80	0.0
135	0x80	0.0
136	0x80	0.0
137	0x80	0.0
138	0x80	0.0
139	0x80	0.0
140	0x80	0.0
141	0x80	0.0
142	0x80	0.0
143	0x80	0.0
144	0x80	0.0
145	0x80	0.0
146	0x80	0.0
147	0x80	0.0
148	0x80	0.0
149	0x80	0.0
150	0x80	0.0
151	0x80	0.0
152	0x80	0.0
153	0x80	0.0
154	0x80	0.0
155	0x80	0.0
156	0x80	0.0
157	0x80	0.0
158	0x80	0.0
159	0x80	0.0
160	0x80	0.0
161	0x80	0.0
162	0x80	0.0
163	0x80	0.0
164	0x80	0.0
165	0x80	0.0
166	0x80	0.0
167	0x80	0.0
168	0x80	0.0
169	0x80	0.0
170	0x80	0.0
171	0x80	0.0
172	0x80	0.0
173	0x80	0.0
174	0x80	0.0
175	0x80	0.0
176	0x80	0.0
177	0x80	0.0
178	0x80	0.0
179	0x80	0.0
180	0x80	0.0
181	0x80	0.0
182	0x80	0.0
183	0x80	0.0
184	0x80	0.0
185	0x80	0.0
186	0x80	0.0
187	0x80	0.0
188	0x80	0.0
189	0x80	0.0
190	0x80	0.0
191	0x80	0.0
192	0x80	0.0
193	0x80	0.0
194	0x80	0.0
195	0x80	0.0
196	0x80	0.0
197	0x80	0.0
198	0x80	0.0
199	0x80	0.0
200	0x80	0.0
201	0x80	0.0
202	0x80	0.0
203	0x80	0.0
204	0x80	0.0
205	0x80	0.0
206	0x80	0.0
207	0x80	0.0
208	0x80	0.0
209	0x80	0.0
210	0x80	0.0
211	0x80	0.0
212	0x80	0.0
213	0x80	0.0
214	0x80	0.0
215	0x80	0.0
216	0x80	0.0
217	0x80	0.0
218	0x80	0.0
219	0x80	0.0
220	0x80	0.0
221	0x80	0.0
222	0x80	0.0
223	0x80	0.0
224	0x80	0.0
225	0x80	0.0
226	0x80	0.0
227	0x80	0.0
228	0x80	0.0
229	0x80	0.0
230	0x80	0.0
231	0x80	0.0
232	0x80	0.0
233	0x80	0.0
234	0x80	0.0
235	0x80	0.0
236	0x80	0.0
237	0x80	0.0
238	0x80	0.0
239	0x80	0.0
240	0x80	0.0
241	0x80	0.0
242	0x80	0.0
243	0x80	0.0
244	0x80	0.0
245	0x80	0.0
246	0x80	0.0
247	0x80	0.0
248	0x80	0.0
249	0x80	0.0
250	0x80	0.0
251	0x80	0.0
252	0x80	0.0
253	0x80	0.0
254	0x80	0.0
255	0x80	0.0

tfl.pseudo_qconst1 i1 [1, 10, 1, 64] scale=0.03917378 zero_point=-128
0	0x80	0.0
1	0x80	0.0
2	0x80	0.0
3	0x80	0.0
4	0x80	0.0
5	0x80	0.0
6	0x80	0.0
7	0x80	0.0
8	0x80	0.0
9	0x80	0.0
10	0x80	0.0
11	0x80	0.0
12	0x80	0.0
13	0x80	0.0
14	0x80	0.0
15	0x80	0.0
16	0x80	0.0
17	0x80	0.0
18	0x80	0.0
19	0x80	0.0
20	0x80	0.0
21	0x80	0.0
22	0x80	0.0
23	0x80	0.0
24	0x80	0.0
25	0x80	0.0
26	0x80	0.0
27	0x80	0.0
28	0x80	0.0
29	0x80	0.0
30	0x80	0.0
31	0x80	0.0
32	0x80	0.0
33	0x80	0.0
34	0x80	0.0
35	0x80	0.0
36	0x80	0.0
37	0x80	0.0
38	0x80	0.0
39	0x80	0.0
40	0x80	0.0
41	0x80	0.0
42	0x80	0.0
43	0x80	0.0
44	0x80	0.0
45	0x80	0.0
46	0x80	0.0
47	0x80	0.0
48	0x80	0.0
49	0x80	0.0
50	0x80	0.0
51	0x80	0.0
52	0x80	0.0
53	0x80	0.0
54	0x80	0.0
55	0x80	0.0
56	0x80	0.0
57	0x80	0.0
58	0x80	0.0
59	0x80	0.0
60	0x80	0.0
61	0x80	0.0
62	0x80	0.0
63	0x80	0.0
64	0x80	0.0
65	0x80	0.0
66	0x80	0.0
67	0x80	0.0
68	0x80	0.0
69	0x80	0.0
70	0x80	0.0
71	0x80	0.0
72	0x80	0.0
73	0x80	0.0
74	0x80	0.0
75	0x80	0.0
76	0x80	0.0
77	0x80	0.0
78	0x80	0.0
79	0x80	0.0
80	0x80	0.0
81	0x80	0.0
82	0x80	0.0
83	0x80	0.0
84	0x80	0.0
85	0x80	0.0
86	0x80	0.0
87	0x80	0.0
88	0x80	0.0
89	0x80	0.0
90	0x80	0.0
91	0x80	0.0
92	0x80	0.0
93	0x80	0.0
94	0x80	0.0
95	0x80	0.0
96	0x80	0.0
97	0x80	0.0
98	0x80	0.0
99	0x80	0.0
100	0x80	0.0
101	0x80	0.0
102	0x80	0.0
103	0x80	0.0
104	0x80	0.0
105	0x80	0.0
106	0x80	0.0
107	0x80	0.0
108	0x80	0.0
109	0x80	0.0
110	0x80	0.0
111	0x80	0.0
112	0x80	0.0
113	0x80	0.0
114	0x80	0.0
115	0x80	0.0
116	0x80	0.0
117	0x80	0.0
118	0x80	0.0
119	0x80	0.0
120	0x80	0.0
121	0x80	0.0
122	0x80	0.0
123	0x80	0.0
124	0x80	0.0
125	0x80	0.0
126	0x80	0.0
127	0x80	0.0
128	0x80	0.0
129	0x80	0.0
130	0x80	0.0
131	0x80	0.0
132	0x80	0.0
133	0x80	0.0
134	0x80	0.0
135	0x80	0.0
136	0x80	0.0
137	0x80	0.0
138	0x80	0.0
139	0x80	0.0
140	0x80	0.0
141	0x80	0.0
142	0x80	0.0
143	0x80	0.0
144	0x80	0.0
145	0x80	0.0
146	0x80	0.0
147	0x80	0.0
148	0x80	0.0
149	0x80	0.0
150	0x80	0.0
151	0x80	0.0
152	0x80	0.0
153	0x80	0.0
154	0x80	0.0
155	0x80	0.0
156	0x80	0.0
157	0x80	0.0
158	0x80	0.0
159	0x80	0.0
160	0x80	0.0
161	0x80	0.0
162	0x80	0.0
163	0x80	0.0
164	0x80	0.0
165	0x80	0.0
166	0x80	0.0
167	0x80	0.0
168	0x80	0.0
169	0x80	0.0
170	0x80	0.0
171	0x80	0.0
172	0x80	0.0
173	0x80	0.0
174	0x80	0.0
175	0x80	0.0
176	0x80	0.0
177	0x80	0.0
178	0x80	0.0
179	0x80	0.0
180	0x80	0.0
181	0x80	0.0
182	0x80	0.0
183	0x80	0.0
184	0x80	0.0
185	0x80	0.0
186	0x80	0.0
187	0x80	0.0
188	0x80	0.0
189	0x80	0.0
190	0x80	0.0
191	0x80	0.0
192	0x80	0.0
193	0x80	0.0
194	0x80	0.0
195	0x80	0.0
196	0x80	0.0
197	0x80	0.0
198	0x80	0.0
199	0x80	0.0
200	0x80	0.0
201	0x80	0.0
202	0x80	0.0
203	0x80	0.0
204	0x80	0.0
205	0x80	0.0
206	0x80	0.0
207	0x80	0.0
208	0x80	0.0
209	0x80	0.0
210	0x80	0.0
211	0x80	0.0
212	0x80	0.0
213	0x80	0.0
214	0x80	0.0
215	0x80	0.0
216	0x80	0.0
217	0x80	0.0
218	0x80	0.0
219	0x80	0.0
220	0x80	0.0
221	0x80	0.0
222	0x80	0.0
223	0x80	0.0
224	0x80	0.0
225	0x80	0.0
226	0x80	0.0
227	0x80	0.0
228	0x80	0.0
229	0x80	0.0
230	0x80	0.0
231	0x80	0.0
232	0x80	0.0
233	0x80	0.0
234	0x80	0.0
235	0x80	0.0
236	0x80	0.0
237	0x80	0.0
238	0x80	0.0
239	0x80	0.0
240	0x80	0.0
241	0x80	0.0
242	0x80	0.0
243	0x80	0.0
244	0x80	0.0
245	0x80	0.0
246	0x80	0.0
247	0x80	0.0
248	0x80	0.0
249	0x80	0.0
250	0x80	0.0
251	0x80	0.0
252	0x80	0.0
253	0x80	0.0
254	0x80	0.0
255	0x80	0.0

tfl.pseudo_qconst2 i1 [1, 4, 1, 32] scale=1.2935619 zero_point=-128
0	0x80	0.0
1	0x80	0.0
2	0x80	0.0
3	0x80	0.0
4	0x80	0.0
5	0x80	0.0
6	0x80	0.0
7	0x80	0.0
8	0x80	0.0
9	0x80	0.0
10	0x80	0.0
11	0x80	0.0
12	0x80	0.0
13	0x80	0.0
14	0x80	0.0
15	0x80	0.0
16	0x80	0.0
17	0x80	0.0
18	0x80	0.0
19	0x80	0.0
20	0x80	0.0
21	0x80	0.0
22	0x80	0.0
23	0x80	0.0
24	0x80	0.0
25	0x80	0.0
26	0x80	0.0
27	0x80	0.0
28	0x80	0.0
29	0x80	0.0
30	0x80	0.0
31	0x80	0.0
32	0x80	0.0
33	0x80	0.0
34	0x80	0.0
35	0x80	0.0
36	0x80	0.0
37	0x80	0.0
38	0x80	0.0
39	0x80	0.0
40	0x80	0.0
41	0x80	0.0
42	0x80	0.0
43	0x80	0.0
44	0x80	0.0
45	0x80	0.0
46	0x80	0.0
47	0x80	0.0
48	0x80	0.0
49	0x80	0.0
50	0x80	0.0
51	0x80	0.0
52	0x80	0.0
53	0x80	0.0
54	0x80	0.0
55	0x80	0.0
56	0x80	0.0
57	0x80	0.0
58	0x80	0.0
59	0x80	0.0
60	0x80	0.0
61	0x80	0.0
62	0x80	0.0
63	0x80	0.0
64	0x80	0.0
65	0x80	0.0
66	0x80	0.0
67	0x80	0.0
68	0x80	0.0
69	0x80	0.0
70	0x80	0.0
71	0x80	0.0
72	0x80	0.0
73	0x80	0.0
74	0x80	0.0
75	0x80	0.0
76	0x80	0.0
77	0x80	0.0
78	0x80	0.0
79	0x80	0.0
80	0x80	0.0
81	0x80	0.0
82	0x80	0.0
83	0x80	0.0
84	0x80	0.0
85	0x80	0.0
86	0x80	0.0
87	0x80	0.0
88	0x80	0.0
89	0x80	0.0
90	0x80	0.0
91	0x80	0.0
92	0x80	0.0
93	0x80	0.0
94	0x80	0.0
95	0x80	0.0
96	0x80	0.0
97	0x80	0.0
98	0x80	0.0
99	0x80	0.0
100	0x80	0.0
101	0x80	0.0
102	0x80	0.0
103	0x80	0.0
104	0x80	0.0
105	0x80	0.0
106	0x80	0.0
107	0x80	0.0
108	0x80	0.0
109	0x80	0.0
110	0x80	0.0
111	0x80	0.0
112	0x80	0.0
113	0x80	0.0
114	0x80	0.0
115	0x80	0.0
116	0x80	0.0
117	0x80	0.0
118	0x80	0.0
119	0x80	0.0
120	0x80	0.0
121	0x80	0.0
122	0x80	0.0
123	0x80	0.0
124	0x80	0.0
125	0x80	0.0
126	0x80	0.0
127	0x80	0.0

tfl.pseudo_qconst3 i1 [1, 2, 1, 40] scale=0.101960786 zero_point=-128
0	0x80	0.0
1	0x80	0.0
2	0x80	0.0
3	0x80	0.0
4	0x80	0.0
5	0x80	0.0
6	0x80	0.0
7	0x80	0.0
8	0x80	0.0
9	0x80	0.0
10	0x80	0.0
11	0x80	0.0
12	0x80	0.0
13	0x80	0.0
14	0x80	0.0
15	0x80	0.0
16	0x80	0.0
17	0x80	0.0
18	0x80	0.0
19	0x80	0.0
20	0x80	0.0
21	0x80	0.0
22	0x80	0.0
23	0x80	0.0
24	0x80	0.0
25	0x80	0.0
26	0x80	0.0
27	0x80	0.0
28	0x80	0.0
29	0x80	0.0
30	0x80	0.0
31	0x80	0.0
32	0x80	0.0
33	0x80	0.0
34	0x80	0.0
35	0x80	0.0
36	0x80	0.0
37	0x80	0.0
38	0x80	0.0
39	0x80	0.0
40	0x80	0.0
41	0x80	0.0
42	0x80	0.0
43	0x80	0.0
44	0x80	0.0
45	0x80	0.0
46	0x80	0.0
47	0x80	0.0
48	0x80	0.0
49	0x80	0.0
50	0x80	0.0
51	0x80	0.0
52	0x80	0.0
53	0x80	0.0
54	0x80	0.0
55	0x80	0.0
56	0x80	0.0
57	0x80	0.0
58	0x80	0.0
59	0x80	0.0
60	0x80	0.0
61	0x80	0.0
62	0x80	0.0
63	0x80	0.0
64	0x80	0.0
65	0x80	0.0
66	0x80	0.0
67	0x80	0.0
68	0x80	0.0
69	0x80	0.0
70	0x80	0.0
71	0x80	0.0
72	0x80	0.0
73	0x80	0.0
74	0x80	0.0
75	0x80	0.0
76	0x80	0.0
77	0x80	0.0
78	0x80	0.0
79	0x80	0.0

tfl.pseudo_qconst4 i1 [1, 16, 1, 64] scale=0.024240246 zero_point=-128
0	0x80	0.0
1	0x80	0.0
2	0x80	0.0
3	0x80	0.0
4	0x80	0.0
5	0x80	0.0
6	0x80	0.0
7	0x80	0.0
8	0x80	0.0
9	0x80	0.0
10	0x80	0.0
11	0x80	0.0
12	0x80	0.0
13	0x80	0.0
14	0x80	0.0
15	0x80	0.0
16	0x80	0.0
17	0x80	0.0
18	0x80	0.0
19	0x80	0.0
20	0x80	0.0
21	0x80	0.0
22	0x80	0.0
23	0x80	0.0
24	0x80	0.0
25	0x80	0.0
26	0x80	0.0
27	0x80	0.0
28	0x80	0.0
29	0x80	0.0
30	0x80	0.0
31	0x80	0.0
32	0x80	0.0
33	0x80	0.0
34	0x80	0.0
35	0x80	0.0
36	0x80	0.0
37	0x80	0.0
38	0x80	0.0
39	0x80	0.0
40	0x80	0.0
41	0x80	0.0
42	0x80	0.0
43	0x80	0.0
44	0x80	0.0
45	0x80	0.0
46	0x80	0.0
47	0x80	0.0
48	0x80	0.0
49	0x80	0.0
50	0x80	0.0
51	0x80	0.0
52	0x80	0.0
53	0x80	0.0
54	0x80	0.0
55	0x80	0.0
56	0x80	0.0
57	0x80	0.0
58	0x80	0.0
59	0x80	0.0
60	0x80	0.0
61	0x80	0.0
62	0x80	0.0
63	0x80	0.0
64	0x80	0.0
65	0x80	0.0
66	0x80	0.0
67	0x80	0.0
68	0x80	0.0
69	0x80	0.0
70	0x80	0.0
71	0x80	0.0
72	0x80	0.0
73	0x80	0.0
74	0x80	0.0
75	0x80	0.0
76	0x80	0.0
77	0x80	0.0
78	0x80	0.0
79	0x80	0.0
80	0x80	0.0
81	0x80	0.0
82	0x80	0.0
83	0x80	0.0
84	0x80	0.0
85	0x80	0.0
86	0x80	0.0
87	0x80	0.0
88	0x80	0.0
89	0x80	0.0
90	0x80	0.0
91	0x80	0.0
92	0x80	0.0
93	0x80	0.0
94	0x80	0.0
95	0x80	0.0
96	0x80	0.0
97	0x80	0.0
98	0x80	0.0
99	0x80	0.0
100	0x80	0.0
101	0x80	0.0
102	0x80	0.0
103	0x80	0.0
104	0x80	0.0
105	0x80	0.0
106	0x80	0.0
107	0x80	0.0
108	0x80	0.0
109	0x80	0.0
110	0x80	0.0
111	0x80	0.0
112	0x80	0.0
113	0x80	0.0
114	0x80	0.0
115	0x80	0.0
116	0x80	0.0
117	0x80	0.0
118	0x80	0.0
119	0x80	0.0
120	0x80	0.0
121	0x80	0.0
122	0x80	0.0
123	0x80	0.0
124	0x80	0.0
125	0x80	0.0
126	0x80	0.0
127	0x80	0.0
128	0x80	0.0
129	0x80	0.0
130	0x80	0.0
131	0x80	0.0
132	0x80	0.0
133	0x80	0.0
134	0x80	0.0
135	0x80	0.0
136	0x80	0.0
137	0x80	0.0
138	0x80	0.0
139	0x80	0.0
140	0x80	0.0
141	0x80	0.0
142	0x80	0.0
143	0x80	0.0
144	0x80	0.0
145	0x80	0.0
146	0x80	0.0
147	0x80	0.0
148	0x80	0.0
149	0x80	0.0
150	0x80	0.0
151	0x80	0.0
152	0x80	0.0
153	0x80	0.0
154	0x80	0.0
155	0x80	0.0
156	0x80	0.0
157	0x80	0.0
158	0x80	0.0
159	0x80	0.0
160	0x80	0.0
161	0x80	0.0
162	0x80	0.0
163	0x80	0.0
164	0x80	0.0
165	0x80	0.0
166	0x80	0.0
167	0x80	0.0
168	0x80	0.0
169	0x80	0.0
170	0x80	0.0
171	0x80	0.0
172	0x80	0.0
173	0x80	0.0
174	0x80	0.0
175	0x80	0.0
176	0x80	0.0
177	0x80	0.0
178	0x80	0.0
179	0x80	0.0
180	0x80	0.0
181	0x80	0.0
182	0x80	0.0
183	0x80	0.0
184	0x80	0.0
185	0x80	0.0
186	0x80	0.0
187	0x80	0.0
188	0x80	0.0
189	0x80	0.0
190	0x80	0.0
191	0x80	0.0
192	0x80	0.0
193	0x80	0.0
194	0x80	0.0
195	0x80	0.0
196	0x80	0.0
197	0x80	0.0
198	0x80	0.0
199	0x80	0.0
200	0x80	0.0
201	0x80	0.0
202	0x80	0.0
203	0x80	0.0
204	0x80	0.0
205	0x80	0.0
206	0x80	0.0
207	0x80	0.0
208	0x80	0.0
209	0x80	0.0
210	0x80	0.0
211	0x80	0.0
212	0x80	0.0
213	0x80	0.0
214	0x80	0.0
215	0x80	0.0
216	0x80	0.0
217	0x80	0.0
218	0x80	0.0
219	0x80	0.0
220	0x80	0.0
221	0x80	0.0
222	0x80	0.0
223	0x80	0.0
224	0x80	0.0
225	0x80	0.0
226	0x80	0.0
227	0x80	0.0
228	0x80	0.0
229	0x80	0.0
230	0x80	0.0
231	0x80	0.0
232	0x80	0.0
233	0x80	0.0
234	0x80	0.0
235	0x80	0.0
236	0x80	0.0
237	0x80	0.0
238	0x80	0.0
239	0x80	0.0
240	0x80	0.0
241	0x80	0.0
242	0x80	0.0
243	0x80	0.0
244	0x80	0.0
245	0x80	0.0
246	0x80	0.0
247	0x80	0.0
248	0x80	0.0
249	0x80	0.0
250	0x80	0.0
251	0x80	0.0
252	0x80	0.0
253	0x80	0.0
254	0x80	0.0
255	0x80	0.0
