models/v2/hey_luna.tflite (tflite, 63544 bytes, 18 tensors)

tfl.pseudo_qconst1 i1 [1, 2368] scale=0.0053866557 zero_point=0
-0.06463987 -0.0969598 0.0969598 0.010773311 -0.23701285 -0.118506424 -0.15082636 -0.043093245
0.08618649 -0.16159967 -0.19930626 -0.21546623 0.17237298 0.20469292 -0.113119766 0.06463987
-0.09157315 -0.37167925 0.021546623 -0.08079983 0.15082636 -0.053866558 -0.12389308 -0.010773311
-0.18853295 -0.2316262 0.21546623 -0.32858598 -0.0053866557 0.0484799 0.070026524 -0.0969598
-0.16159967 -0.08618649 0.03770659 -0.107733116 -0.010773311 -0.043093245 0.03770659 -0.0969598
-0.2693328 -0.26394612 -0.08618649 -0.12389308 -0.0053866557 0.09157315 -0.1454397 0.059253212
-0.032319933 -0.14005305 0.08618649 -0.3501326 -0.010773311 -0.1454397 -0.113119766 -0.06463987
-0.010773311 0.118506424 -0.21007957 -0.032319933 -0.0484799 0.12389308 -0.2316262 0.043093245
0.107733116 -0.032319933 0.15621302 0.059253212 -0.18853295 -0.053866558 -0.06463987 -0.08079983
0.0484799 -0.06463987 -0.10234646 -0.16159967 0.10234646 0.107733116 -0.016159967 -0.03770659
0.032319933 -0.23701285 0.016159967 -0.016159967 0.070026524 -0.1346664 -0.107733116 -0.043093245
-0.08079983 -0.10234646 0.2693328 -0.21546623 -0.016159967 0.059253212 0.070026524 -0.113119766
-0.1454397 0.07541318 -0.010773311 -0.070026524 0.053866558 0.0484799 0.1346664 -0.070026524
-0.19930626 -0.16698633 -0.053866558 -0.06463987 0.032319933 0.059253212 0.016159967 0.0
0.053866558 -0.053866558 0.12389308 -0.20469292 -0.07541318 0.026933279 -0.032319933 -0.1346664
0.07541318 0.043093245 -0.08618649 0.0053866557 0.026933279 0.12927973 -0.1939196 0.08618649
0.2316262 -0.016159967 0.0969598 0.010773311 -0.1454397 -0.032319933 -0.0053866557 -0.0053866557
-0.016159967 -0.0053866557 0.08079983 -0.08618649 0.07541318 0.14005305 0.070026524 -0.010773311
0.0969598 -0.1454397 -0.016159967 0.053866558 0.043093245 -0.118506424 0.026933279 0.0
0.0 -0.06463987 0.19930626 -0.17775963 0.016159967 0.22623953 -0.059253212 -0.107733116
-0.107733116 0.010773311 -0.0484799 0.021546623 0.059253212 0.113119766 0.10234646 -0.06463987
-0.09157315 -0.12927973 -0.1346664 -0.032319933 -0.021546623 0.09157315 -0.08079983 0.016159967
0.03770659 -0.0053866557 0.06463987 -0.1454397 -0.021546623 0.026933279 0.070026524 -0.23701285
0.07541318 0.059253212 -0.070026524 0.12389308 0.053866558 0.070026524 -0.107733116 0.08618649
0.2531728 0.010773311 0.032319933 -0.10234646 -0.0484799 -0.026933279 -0.010773311 -0.032319933
-0.118506424 0.026933279 0.12389308 -0.0969598 0.0484799 0.16159967 0.016159967 -0.059253212
0.0969598 -0.1939196 -0.026933279 0.107733116 -0.016159967 -0.12389308 0.053866558 -0.12389308
-0.021546623 -0.016159967 0.1346664 -0.16159967 -0.016159967 0.21007957 -0.1831463 -0.1346664
-0.08618649 0.016159967 -0.08618649 0.026933279 0.08618649 0.1454397 0.107733116 -0.016159967
-0.08618649 -0.10234646 -0.1454397 -0.08079983 0.0053866557 -0.070026524 -0.08079983 -0.016159967
0.070026524 0.026933279 0.010773311 -0.10234646 -0.0053866557 0.0053866557 0.0484799 -0.27471945
0.07541318 0.021546623 -0.026933279 0.10234646 0.10234646 0.070026524 -0.15621302 0.03770659
00000000: f4ee 1202 d4ea e4f8 10e2 dbd8 2026 eb0c
00000010: efbb 04f1 1cf6 e9fe ddd5 28c3 ff09 0dee
00000020: e2f0 07ec fef8 07ee cecf f0e9 ff11 e50b
00000030: fae6 10bf fee5 ebf4 fe16 d9fa f717 d508
00000040: 14fa 1d0b ddf6 f4f1 09f4 ede2 1314 fdf9
00000050: 06d4 03fd 0de7 ecf8 f1ed 32d8 fd0b 0deb
00000060: e50e fef3 0a09 19f3 dbe1 f6f4 060b 0300
00000070: 0af6 17da f205 fae7 0e08 f001 0518 dc10
00000080: 2bfd 1202 e5fa ffff fdff 0ff0 0e1a 0dfe
00000090: 12e5 fd0a 08ea 0500 00f4 25df 032a f5ec
000000a0: ec02 f704 0b15 13f4 efe8 e7fa fc11 f103
000000b0: 07ff 0ce5 fc05 0dd4 0e0b f317 0a0d ec10
000000c0: 2f02 06ed f7fb fefa ea05 17ee 091e 03f5
000000d0: 12dc fb14 fde9 0ae9 fcfd 19e2 fd27 dee7
000000e0: f003 f005 101b 14fd f0ed e5f1 01f3 f1fd
000000f0: 0d05 02ed ff01 09cd 0e04 fb13 130d e307

tfl.pseudo_qconst3 i1 [64, 1, 1, 64]
-28 -45 -36 -67 105 -15 70 25
-10 -12 34 12 25 -76 93 -70
62 -18 28 -37 -33 0 120 29
57 -47 20 28 -33 -57 -84 -21
-47 -22 11 -22 -4 -99 -18 -56
-77 81 46 -28 -53 6 40 -25
71 14 -28 2 -69 -63 -37 3
85 89 8 11 -19 42 13 127
60 -8 60 -17 -14 -6 55 37
-38 89 61 -1 -7 -61 -15 76
30 -127 6 105 28 30 -61 4
68 -20 -76 31 -59 -26 12 -79
54 26 -102 -65 -66 -18 69 -74
85 -79 99 -1 -31 -63 -19 40
50 55 -19 -22 -23 -116 -105 1
91 60 58 20 22 -5 -25 75
-36 -19 63 -110 50 -14 25 0
-52 -20 -61 -14 24 -45 -15 11
-5 4 93 -68 35 -9 -10 13
28 3 -34 -19 -50 -79 -23 -3
3 0 -22 -1 13 -60 -46 8
30 -101 52 89 11 -53 -94 -45
127 -4 3 68 58 12 -84 40
-49 -25 -29 -101 -11 47 -64 79
-33 -21 0 -66 -54 -40 13 54
52 71 -59 4 -31 -70 13 -29
4 -50 109 79 28 3 -44 16
-1 -82 15 -22 -25 -60 -45 18
-61 28 -36 -20 5 17 18 -12
-59 14 18 127 -91 -8 -60 -43
108 -14 44 40 36 14 -29 -53
-42 -20 22 28 -36 -29 29 91
00000000: e4d3 dcbd 69f1 4619 f6f4 220c 19b4 5dba
00000010: 3eee 1cdb df00 781d 39d1 141c dfc7 aceb
00000020: d1ea 0bea fc9d eec8 b351 2ee4 cb06 28e7
00000030: 470e e402 bbc1 db03 5559 080b ed2a 0d7f
00000040: 3cf8 3cef f2fa 3725 da59 3dff f9c3 f14c
00000050: 1e81 0669 1c1e c304 44ec b41f c5e6 0cb1
00000060: 361a 9abf beee 45b6 55b1 63ff e1c1 ed28
00000070: 3237 edea e98c 9701 5b3c 3a14 16fb e74b
00000080: dced 3f92 32f2 1900 ccec c3f2 18d3 f10b
00000090: fb04 5dbc 23f7 f60d 1c03 deed ceb1 e9fd
000000a0: 0300 eaff 0dc4 d208 1e9b 3459 0bcb a2d3
000000b0: 7ffc 0344 3a0c ac28 cfe7 e39b f52f c04f
000000c0: dfeb 00be cad8 0d36 3447 c504 e1ba 0de3
000000d0: 04ce 6d4f 1c03 d410 ffae 0fea e7c4 d312
000000e0: c31c dcec 0511 12f4 c50e 127f a5f8 c4d5
000000f0: 6cf2 2c28 240e e3cb d6ec 161c dce3 1d5b

tfl.pseudo_qconst5 i1 [1, 23, 1, 64]
127 -38 127 127 127 -69 -35 -10
-127 -57 19 127 -18 127 -32 69
38 94 127 -92 -36 112 -87 -46
-72 39 -31 -103 91 127 101 -121
9 -83 -87 -97 -127 -127 -70 -19
113 -56 72 -6 124 112 -71 -69
-114 108 85 95 47 -5 -74 -106
-126 -8 67 -12 -34 -15 -113 -82
94 -28 106 115 107 -15 -32 -12
-97 -18 13 120 -45 83 -52 25
66 52 111 -14 -57 55 -82 -74
-84 46 -45 -91 90 115 43 -74
33 -117 -33 -8 -121 -106 -66 28
32 -53 98 27 72 15 -127 -59
-107 71 109 88 61 14 -57 -76
-127 -13 119 -13 -30 -90 -87 -104
74 -38 113 103 78 16 -19 15
-49 26 27 45 -65 69 -86 7
25 12 97 50 -88 17 -61 -61
-89 54 -35 -49 82 59 -80 -45
-2 -109 12 16 -115 -83 -27 25
-5 -5 51 57 57 -36 -73 -72
-127 64 109 69 54 4 -72 -73
-106 -4 20 -4 -40 -82 -23 -85
70 -26 109 58 42 36 -14 34
-17 -2 8 5 -35 47 -98 -29
-27 -54 93 100 -50 -19 -42 -84
-98 59 12 -79 55 98 -75 -49
20 -4 89 4 -72 -29 -35 3
-39 -61 78 57 66 -31 -78 -52
-82 47 107 89 26 -31 -26 -56
-80 -11 -38 -26 -41 -84 -32 -83
00000000: 7fda 7f7f 7fbb ddf6 81c7 137f ee7f e045
00000010: 265e 7fa4 dc70 a9d2 b827 e199 5b7f 6587
00000020: 09ad a99f 8181 baed 71c8 48fa 7c70 b9bb
00000030: 8e6c 555f 2ffb b696 82f8 43f4 def1 8fae
00000040: 5ee4 6a73 6bf1 e0f4 9fee 0d78 d353 cc19
00000050: 4234 6ff2 c737 aeb6 ac2e d3a5 5a73 2bb6
00000060: 218b dff8 8796 be1c 20cb 621b 480f 81c5
00000070: 9547 6d58 3d0e c7b4 81f3 77f3 e2a6 a998
00000080: 4ada 7167 4e10 ed0f cf1a 1b2d bf45 aa07
00000090: 190c 6132 a811 c3c3 a736 ddcf 523b b0d3
000000a0: fe93 0c10 8dad e519 fbfb 3339 39dc b7b8
000000b0: 8140 6d45 3604 b8b7 96fc 14fc d8ae e9ab
000000c0: 46e6 6d3a 2a24 f222 effe 0805 dd2f 9ee3
000000d0: e5ca 5d64 ceed d6ac 9e3b 0cb1 3762 b5cf
000000e0: 14fc 5904 b8e3 dd03 d9c3 4e39 42e1 b2cc
000000f0: ae2f 6b59 1ae1 e6c8 b0f5 dae6 d7ac e0ad

tfl.pseudo_qconst7 i1 [64, 1, 1, 64]
-38 -5 8 64 9 44 -47 -10
14 -6 86 14 18 -11 53 -38
73 23 -1 20 -15 -14 2 34
53 -64 -23 -57 -15 15 74 127
-49 -9 -17 56 -7 11 71 -6
12 30 -40 -64 -127 82 -26 -2
22 -42 41 28 67 -32 -25 17
-7 -15 -65 1 -1 -13 62 55
21 -107 88 -17 24 46 -127 8
32 -21 66 12 38 2 -30 27
-7 12 14 104 83 4 126 30
47 -1 -81 -5 -105 -52 -44 35
33 4 -7 86 -2 -6 9 -112
24 27 -88 -15 -30 63 -50 83
38 63 60 -40 -11 8 14 13
-4 49 -44 7 39 41 3 -5
-11 -32 87 9 16 -5 40 -41
55 -110 19 -69 6 -28 -78 -57
47 60 -20 3 44 32 -127 34
0 -65 -5 -66 65 5 -101 7
76 45 10 -52 -54 -14 -5 -2
6 72 58 9 92 -67 20 87
29 59 57 29 38 37 42 -36
33 90 44 32 -1 4 -21 -8
19 -3 17 -17 -2 -59 -6 16
16 -60 -5 -64 -16 105 35 -26
10 101 -12 4 32 -42 -9 -4
41 -17 -80 -3 33 -1 -6 -54
-24 16 27 -13 26 -27 18 30
51 -11 -18 13 5 82 55 33
-6 25 12 -42 43 -49 -3 37
127 72 48 -31 60 -27 44 -52
00000000: dafb 0840 092c d1f6 0efa 560e 12f5 35da
00000010: 4917 ff14 f1f2 0222 35c0 e9c7 f10f 4a7f
00000020: cff7 ef38 f90b 47fa 0c1e d8c0 8152 e6fe
00000030: 16d6 291c 43e0 e711 f9f1 bf01 fff3 3e37
00000040: 1595 58ef 182e 8108 20eb 420c 2602 e21b
00000050: f90c 0e68 5304 7e1e 2fff affb 97cc d423
00000060: 2104 f956 fefa 0990 181b a8f1 e23f ce53
00000070: 263f 3cd8 f508 0e0d fc31 d407 2729 03fb
00000080: f5e0 5709 10fb 28d7 3792 13bb 06e4 b2c7
00000090: 2f3c ec03 2c20 8122 00bf fbbe 4105 9b07
000000a0: 4c2d 0acc caf2 fbfe 0648 3a09 5cbd 1457
000000b0: 1d3b 391d 2625 2adc 215a 2c20 ff04 ebf8
000000c0: 13fd 11ef fec5 fa10 10c4 fbc0 f069 23e6
000000d0: 0a65 f404 20d6 f7fc 29ef b0fd 21ff faca
000000e0: e810 1bf3 1ae5 121e 33f5 ee0d 0552 3721
000000f0: fa19 0cd6 2bcf fd25 7f48 30e1 3ce5 2ccc

tfl.pseudo_qconst9 i1 [1, 15, 1, 32]
-127 -127 88 -56 14 -127 -109 -17
7 -127 83 -79 -83 25 74 -93
95 -42 -127 -126 18 127 54 127
127 127 43 79 -21 16 -79 45
-101 -105 60 -78 -18 -89 -125 -77
-47 -61 93 -27 -59 42 120 -24
-43 29 -77 -127 -9 107 36 43
83 80 76 127 -12 55 -102 26
-61 -59 118 -93 36 -73 15 -68
-37 -89 127 -15 -65 51 122 -29
10 37 -67 -106 -14 29 61 58
77 28 95 61 -45 -17 -127 43
-87 -7 122 5 74 61 30 -100
-22 -50 100 -43 -40 66 63 -29
75 60 -70 -113 -14 -12 -35 29
36 3 45 111 -36 53 -85 68
-43 -25 99 0 54 9 -48 -105
-95 -107 96 11 -30 15 -16 29
-85 92 -59 -88 -16 -6 34 -3
43 54 17 65 -43 43 -24 63
-39 -4 24 64 97 70 -80 -127
16 -94 51 6 17 84 -94 47
24 17 -24 -80 -19 -60 -35 -17
39 62 -28 11 -11 -9 -57 66
26 -38 67 62 74 105 -80 -118
48 -65 -1 -37 32 127 -127 -5
27 75 15 0 15 -30 -23 -35
42 61 4 36 -7 -45 57 23
16 -31 -6 127 -19 108 -28 -97
113 -102 -22 -83 61 44 -66 38
-24 73 -35 12 0 15 -21 39
10 89 -40 35 -43 -2 46 -16
00000000: 8181 58c8 0e81 93ef 0781 53b1 ad19 4aa3
00000010: 5fd6 8182 127f 367f 7f7f 2b4f eb10 b12d
00000020: 9b97 3cb2 eea7 83b3 d1c3 5de5 c52a 78e8
00000030: d51d b381 f76b 242b 5350 4c7f f437 9a1a
00000040: c3c5 76a3 24b7 0fbc dba7 7ff1 bf33 7ae3
00000050: 0a25 bd96 f21d 3d3a 4d1c 5f3d d3ef 812b
00000060: a9f9 7a05 4a3d 1e9c eace 64d5 d842 3fe3
00000070: 4b3c ba8f f2f4 dd1d 2403 2d6f dc35 ab44
00000080: d5e7 6300 3609 d097 a195 600b e20f f01d
00000090: ab5c c5a8 f0fa 22fd 2b36 1141 d52b e83f
000000a0: d9fc 1840 6146 b081 10a2 3306 1154 a22f
000000b0: 1811 e8b0 edc4 ddef 273e e40b f5f7 c742
000000c0: 1ada 433e 4a69 b08a 30bf ffdb 207f 81fb
000000d0: 1b4b 0f00 0fe2 e9dd 2a3d 0424 f9d3 3917
000000e0: 10e1 fa7f ed6c e49f 719a eaad 3d2c be26
000000f0: e849 dd0c 000f eb27 0a59 d823 d5fe 2ef0

tfl.pseudo_qconst11 i1 [1, 9, 1, 32]
-127 -57 53 -23 -18 78 75 10
6 74 10 127 57 99 -25 60
-99 -82 25 127 -32 -19 -96 -33
-4 -93 43 -13 5 -39 33 51
-62 -100 66 -33 -19 -1 65 104
16 127 -127 23 21 110 4 -64
-83 -103 -28 92 -60 -24 -100 28
-48 -65 -86 -45 -25 47 5 56
-83 -86 85 -53 -6 -69 10 8
40 60 -110 111 53 -1 20 -85
64 -43 -6 -91 -33 -16 -68 -4
-44 -55 -127 -34 -66 95 5 51
-39 -127 61 7 53 -86 127 99
-12 45 -121 59 67 39 -38 23
106 -102 -16 -127 -97 5 -27 -28
-43 -67 -117 -41 -84 119 -55 8
-35 -117 97 -60 22 -108 76 -1
-37 92 -78 112 27 -7 40 -82
127 -38 -6 -47 -70 19 40 -19
40 0 -5 -42 -102 108 7 -69
35 -72 127 -107 -12 -90 -4 -34
-28 25 -40 25 32 -100 -24 -59
102 -84 25 -48 -127 -5 127 -104
0 104 -28 -40 -127 127 0 -64
14 -99 94 -127 -53 -64 -22 51
-32 95 19 -2 30 -97 -97 126
105 -51 1 97 -39 3 109 -127
0 127 13 -14 -34 -35 52 -99
40 -13 29 -104 -65 -127 -107 109
-104 111 -61 -25 -50 -15 -127 108
55 -127 54 -53 -42 48 88 -59
-41 107 31 -87 -44 2 40 -105
00000000: 81c7 35e9 ee4e 4b0a 064a 0a7f 3963 e73c
00000010: 9dae 197f e0ed a0df fca3 2bf3 05d9 2133
00000020: c29c 42df edff 4168 107f 8117 156e 04c0
00000030: ad99 e45c c4e8 9c1c d0bf aad3 e72f 0538
00000040: adaa 55cb fabb 0a08 283c 926f 35ff 14ab
00000050: 40d5 faa5 dff0 bcfc d4c9 81de be5f 0533
00000060: d981 3d07 35aa 7f63 f42d 873b 4327 da17
00000070: 6a9a f081 9f05 e5e4 d5bd 8bd7 ac77 c908
00000080: dd8b 61c4 1694 4cff db5c b270 1bf9 28ae
00000090: 7fda fad1 ba13 28ed 2800 fbd6 9a6c 07bb
000000a0: 23b8 7f95 f4a6 fcde e419 d819 209c e8c5
000000b0: 66ac 19d0 81fb 7f98 0068 e4d8 817f 00c0
000000c0: 0e9d 5e81 cbc0 ea33 e05f 13fe 1e9f 9f7e
000000d0: 69cd 0161 d903 6d81 007f 0df2 dedd 349d
000000e0: 28f3 1d98 bf81 956d 986f c3e7 cef1 816c
000000f0: 3781 36cb d630 58c5 d76b 1fa9 d402 2897

tfl.pseudo_qconst13 i1 [64, 1, 1, 64]
14 -45 -76 23 36 -6 -39 33
-5 -44 28 -53 32 -9 -90 -45
-31 -29 -8 13 8 -78 10 -43
15 -61 -39 -8 -10 -36 43 35
-40 -24 53 44 -95 -8 -57 -6
-28 -14 19 -81 33 72 127 -7
-54 -51 -53 -76 27 -17 -20 17
38 28 70 10 21 -74 -63 -42
61 34 -85 -52 57 22 -118 -77
126 55 -23 16 -4 -42 -20 -38
-14 9 -35 127 -9 -54 -29 95
-30 -25 8 36 -122 -11 23 -13
-93 2 -15 12 -69 -29 -19 105
-79 16 -27 55 -89 44 -41 107
-69 -17 -20 -33 5 61 23 -18
51 -13 -20 -27 -3 -56 -37 25
37 -32 -22 -83 56 13 -15 34
30 76 122 -42 33 -47 33 51
62 -55 -2 41 94 -9 -20 35
-114 -49 0 -79 13 25 -58 1
-97 44 21 57 41 -31 41 -39
82 -5 11 10 57 18 -12 127
28 68 21 -61 18 36 0 15
32 8 -104 -22 52 43 4 -24
-81 -7 -23 31 86 -62 -49 42
4 -60 -16 13 -56 -23 -7 -127
19 -28 57 65 -47 -9 -91 -4
-55 37 -1 -18 -35 -66 52 20
21 24 23 -69 -10 -41 -19 42
50 25 39 -91 20 63 -35 -95
0 31 -1 20 0 6 114 -86
24 102 -26 -7 35 72 -101 9
00000000: 0ed3 b417 24fa d921 fbd4 1ccb 20f7 a6d3
00000010: e1e3 f80d 08b2 0ad5 0fc3 d9f8 f6dc 2b23
00000020: d8e8 352c a1f8 c7fa e4f2 13af 2148 7ff9
00000030: cacd cbb4 1bef ec11 261c 460a 15b6 c1d6
00000040: 3d22 abcc 3916 8ab3 7e37 e910 fcd6 ecda
00000050: f209 dd7f f7ca e35f e2e7 0824 86f5 17f3
00000060: a302 f10c bbe3 ed69 b110 e537 a72c d76b
00000070: bbef ecdf 053d 17ee 33f3 ece5 fdc8 db19
00000080: 25e0 eaad 380d f122 1e4c 7ad6 21d1 2133
00000090: 3ec9 fe29 5ef7 ec23 8ecf 00b1 0d19 c601
000000a0: 9f2c 1539 29e1 29d9 52fb 0b0a 3912 f47f
000000b0: 1c44 15c3 1224 000f 2008 98ea 342b 04e8
000000c0: aff9 e91f 56c2 cf2a 04c4 f00d c8e9 f981
000000d0: 13e4 3941 d1f7 a5fc c925 ffee ddbe 3414
000000e0: 1518 17bb f6d7 ed2a 3219 27a5 143f dda1
000000f0: 001f ff14 0006 72aa 1866 e6f9 2348 9b09

tfl.pseudo_qconst15 i1 [1, 11, 1, 32]
-127 12 50 16 40 103 16 107
114 -28 -127 60 46 104 -127 -127
-19 -105 -39 -117 127 72 127 78
12 -42 127 103 -45 -26 44 -79
-122 59 117 36 98 118 -115 74
57 1 -67 27 96 1 -116 -45
2 -93 -6 -111 81 49 82 60
20 -6 49 0 -100 -35 36 -34
-76 19 78 -34 60 127 -113 112
-14 -33 -92 31 95 -32 -70 -35
-3 21 25 -39 -27 -2 35 49
16 -22 97 24 -127 10 127 -6
2 -14 79 -113 -22 79 -127 127
-16 -9 -7 15 64 -4 -99 40
2 10 16 -77 30 31 27 -80
-48 3 93 -6 -103 6 88 -63
33 -32 63 -89 -32 83 -97 105
-1 -21 52 -51 127 -127 -63 59
-39 108 29 12 53 30 12 -2
-41 73 23 57 -117 -34 56 -85
42 -117 52 -77 61 16 22 16
29 -40 16 -90 73 -83 -91 66
7 35 37 31 62 45 9 -46
-127 86 -39 1 -7 -45 75 -67
13 -106 -12 -41 17 47 -47 67
57 43 95 -127 42 -117 -50 86
54 76 21 17 60 20 5 -101
-102 47 -38 64 -74 9 56 -74
-12 23 -91 -121 34 -23 -78 6
20 44 53 -84 -35 -44 -21 49
50 -24 20 25 82 14 19 -107
-66 26 -67 89 -64 71 62 -71
00000000: 810c 3210 2867 106b 72e4 813c 2e68 8181
00000010: ed97 d98b 7f48 7f4e 0cd6 7f67 d3e6 2cb1
00000020: 863b 7524 6276 8d4a 3901 bd1b 6001 8cd3
00000030: 02a3 fa91 5131 523c 14fa 3100 9cdd 24de
00000040: b413 4ede 3c7f 8f70 f2df a41f 5fe0 badd
00000050: fd15 19d9 e5fe 2331 10ea 6118 810a 7ffa
00000060: 02f2 4f8f ea4f 817f f0f7 f90f 40fc 9d28
00000070: 020a 10b3 1e1f 1bb0 d003 5dfa 9906 58c1
00000080: 21e0 3fa7 e053 9f69 ffeb 34cd 7f81 c13b
00000090: d96c 1d0c 351e 0cfe d749 1739 8bde 38ab
000000a0: 2a8b 34b3 3d10 1610 1dd8 10a6 49ad a542
000000b0: 0723 251f 3e2d 09d2 8156 d901 f9d3 4bbd
000000c0: 0d96 f4d7 112f d143 392b 5f81 2a8b ce56
000000d0: 364c 1511 3c14 059b 9a2f da40 b609 38b6
000000e0: f417 a587 22e9 b206 142c 35ac ddd4 eb31
000000f0: 32e8 1419 520e 1395 be1a bd59 c047 3eb9

tfl.pseudo_qconst17 i1 [1, 7, 1, 32]
19 85 12 114 127 -50 -14 69
8 127 72 -36 -4 127 -17 34
124 23 32 57 60 110 -78 47
-97 120 15 43 -17 -38 -127 -24
14 127 -17 127 88 -51 -84 26
48 73 76 -12 -59 84 119 27
14 91 -46 22 81 -1 32 30
-29 -23 -52 91 -26 -31 -97 -69
-88 21 47 67 4 57 -26 -38
-82 -13 95 -25 10 113 6 48
64 14 -127 -37 3 41 8 59
-119 -42 -37 127 -83 -34 -70 -81
-89 45 12 106 -33 -20 -36 -64
-9 63 -4 97 91 109 73 -95
-44 30 -115 -11 63 -117 39 35
-76 19 -35 19 -81 -125 -42 -24
-97 -81 -52 33 -80 93 69 -84
-79 -29 -46 75 -9 63 24 -127
-50 43 40 52 -101 -14 59 91
-102 -17 37 59 -46 -127 119 32
-118 -104 -46 86 -73 92 90 -113
-127 26 -40 127 -36 111 -127 -47
-109 -72 82 -42 -127 127 127 -17
-102 -127 78 29 -127 -53 24 72
-127 19 -127 11 -52 127 127 -127
-70 -124 -127 24 -127 -16 -34 33
-127 -127 119 -127 -126 110 110 127
-127 -33 127 35 -109 -59 3 127
00000000: 1355 0c72 7fce f245 087f 48dc fc7f ef22
00000010: 7c17 2039 3c6e b22f 9f78 0f2b efda 81e8
00000020: 0e7f ef7f 58cd ac1a 3049 4cf4 c554 771b
00000030: 0e5b d216 51ff 201e e3e9 cc5b e6e1 9fbb
00000040: a815 2f43 0439 e6da aef3 5fe7 0a71 0630
00000050: 400e 81db 0329 083b 89d6 db7f adde baaf
00000060: a72d 0c6a dfec dcc0 f73f fc61 5b6d 49a1
00000070: d41e 8df5 3f8b 2723 b413 dd13 af83 d6e8
00000080: 9faf cc21 b05d 45ac b1e3 d24b f73f 1881
00000090: ce2b 2834 9bf2 3b5b 9aef 253b d281 7720
000000a0: 8a98 d256 b75c 5a8f 811a d87f dc6f 81d1
000000b0: 93b8 52d6 817f 7fef 9a81 4e1d 81cb 1848
000000c0: 8113 810b cc7f 7f81 ba84 8118 81f0 de21
000000d0: 8181 7781 826e 6e7f 81df 7f23 93c5 037f

tfl.pseudo_qconst19 i1 [64, 1, 1, 32]
-4 -13 -1 47 -22 -11 37 -37
-26 29 -127 27 12 16 -45 -74
68 -22 -70 -25 4 -82 -43 -11
-7 22 14 25 -35 -21 -20 38
-91 52 -40 -49 34 -127 -8 -15
38 39 -17 8 -14 -43 -72 23
2 -5 113 -4 19 10 -86 60
32 37 42 -43 71 90 48 63
50 41 7 49 6 66 44 35
-5 -87 57 -29 47 -40 127 -22
7 -29 16 5 24 -23 1 42
3 52 24 55 14 5 -12 51
-101 -42 -50 -10 38 3 27 -42
-34 84 29 -122 -63 -95 -1 28
-82 -5 122 99 -124 -92 79 42
-50 -1 105 127 27 36 9 -19
79 -66 70 -65 -49 -1 -19 -6
-2 44 -52 -23 37 -25 -29 64
43 -41 -43 -3 20 -57 -30 31
127 -5 -100 19 -39 3 60 -36
-42 33 64 79 -94 39 -60 37
-36 40 -59 24 1 23 -4 23
127 -20 -83 -84 33 2 -30 46
47 -110 20 -25 -21 -38 19 1
-48 -26 -30 -37 70 -35 -10 -3
127 8 -11 -19 -18 48 37 46
-24 -35 64 85 32 46 -68 11
96 -36 45 -67 54 68 25 -9
-6 56 44 72 -98 70 -63 -18
59 -3 -20 120 70 38 -25 86
82 62 -18 -87 16 28 -14 6
39 -53 -21 -127 56 -16 36 6
00000000: fcf3 ff2f eaf5 25db e61d 811b 0c10 d3b6
00000010: 44ea bae7 04ae d5f5 f916 0e19 ddeb ec26
00000020: a534 d8cf 2281 f8f1 2627 ef08 f2d5 b817
00000030: 02fb 71fc 130a aa3c 2025 2ad5 475a 303f
00000040: 3229 0731 0642 2c23 fba9 39e3 2fd8 7fea
00000050: 07e3 1005 18e9 012a 0334 1837 0e05 f433
00000060: 9bd6 cef6 2603 1bd6 de54 1d86 c1a1 ff1c
00000070: aefb 7a63 84a4 4f2a ceff 697f 1b24 09ed
00000080: 4fbe 46bf cfff edfa fe2c cce9 25e7 e340
00000090: 2bd7 d5fd 14c7 e21f 7ffb 9c13 d903 3cdc
000000a0: d621 404f a227 c425 dc28 c518 0117 fc17
000000b0: 7fec adac 2102 e22e 2f92 14e7 ebda 1301
000000c0: d0e6 e2db 46dd f6fd 7f08 f5ed ee30 252e
000000d0: e8dd 4055 202e bc0b 60dc 2dbd 3644 19f7
000000e0: fa38 2c48 9e46 c1ee 3bfd ec78 4626 e756
000000f0: 523e eea9 101c f206 27cb eb81 38f0 2406

tfl.pseudo_qconst21 i1 [1, 5, 1, 32]
-33 36 127 -101 54 77 127 -100
-34 127 24 -127 49 -127 127 -51
-127 127 -68 125 110 -127 9 32
122 116 36 81 -44 127 -80 -115
-4 -89 33 -118 127 117 50 -77
-1 45 103 -19 127 -95 121 35
22 119 23 127 55 2 127 12
98 127 90 74 47 35 -95 -48
75 -77 87 -57 84 127 -77 -127
-92 12 20 -83 82 -30 29 29
-4 -12 127 82 -114 67 80 33
-3 22 42 -33 -121 72 -127 53
111 -127 -20 -48 93 -9 -125 88
-95 -83 61 -125 -24 -86 -75 82
-73 -33 80 17 -110 98 -75 -75
35 60 -36 127 -127 65 -61 -19
127 -118 121 -127 -14 -116 -64 8
-127 -26 127 -116 -80 -69 -85 127
-78 -51 -40 87 -127 43 -45 -127
-127 66 -127 110 -119 67 -69 127
00000000: df24 7f9b 364d 7f9c de7f 1881 3181 7fcd
00000010: 817f bc7d 6e81 0920 7a74 2451 d47f b08d
00000020: fca7 218a 7f75 32b3 ff2d 67ed 7fa1 7923
00000030: 1677 177f 3702 7f0c 627f 5a4a 2f23 a1d0
00000040: 4bb3 57c7 547f b381 a40c 14ad 52e2 1d1d
00000050: fcf4 7f52 8e43 5021 fd16 2adf 8748 8135
00000060: 6f81 ecd0 5df7 8358 a1ad 3d83 e8aa b552
00000070: b7df 5011 9262 b5b5 233c dc7f 8141 c3ed
00000080: 7f8a 7981 f28c c008 81e6 7f8c b0bb ab7f
00000090: b2cd d857 812b d381 8142 816e 8943 bb7f

tfl.pseudo_qconst23 i1 [32, 5, 1, 40]
-52 -3 12 51 50 52 -61 -73
12 -54 -1 6 -2 -21 -26 23
60 10 -16 26 34 5 -28 -20
-6 -72 -46 -69 -21 34 -4 53
15 62 -20 44 1 32 -15 88
-35 19 -6 62 -22 69 -32 -107
-1 -41 -42 15 20 -18 -108 -55
26 -47 -30 9 57 52 4 -52
-29 -54 -68 -33 -11 11 14 44
35 30 -5 77 20 12 18 117
-36 -5 -46 39 0 87 -26 -91
-65 -116 -39 -25 -18 16 -47 11
-13 -46 -53 29 32 21 -13 -36
-5 -16 -28 -58 10 0 -28 41
33 51 34 40 14 -5 1 59
-87 -58 -53 36 -16 70 -103 -127
-26 -61 -73 -30 -17 2 -87 -11
10 -43 -49 25 43 21 -12 -86
-32 -67 -16 -33 -20 19 24 25
36 42 13 46 22 38 -28 77
-102 -6 -80 21 6 69 -77 -72
-67 -16 -52 -26 7 34 -75 17
8 -17 -46 35 18 -19 -6 -74
-44 -49 -56 -48 -37 29 7 -13
19 61 -7 57 5 -35 -4 64
96 64 61 52 46 25 31 24
30 20 40 -12 -19 3 -3 -33
33 5 7 12 3 -9 -6 52
34 30 32 10 32 14 35 -19
34 -37 -23 26 6 1 22 62
127 65 65 30 20 39 13 0
41 -13 22 -15 -10 -80 24 -46
00000000: ccfd 0c33 3234 c3b7 0cca ff06 feeb e617
00000010: 3c0a f01a 2205 e4ec fab8 d2bb eb22 fc35
00000020: 0f3e ec2c 0120 f158 dd13 fa3e ea45 e095
00000030: ffd7 d60f 14ee 94c9 1ad1 e209 3934 04cc
00000040: e3ca bcdf f50b 0e2c 231e fb4d 140c 1275
00000050: dcfb d227 0057 e6a5 bf8c d9e7 ee10 d10b
00000060: f3d2 cb1d 2015 f3dc fbf0 e4c6 0a00 e429
00000070: 2133 2228 0efb 013b a9c6 cb24 f046 9981
00000080: e6c3 b7e2 ef02 a9f5 0ad5 cf19 2b15 f4aa
00000090: e0bd f0df ec13 1819 242a 0d2e 1626 e44d
000000a0: 9afa b015 0645 b3b8 bdf0 cce6 0722 b511
000000b0: 08ef d223 12ed fab6 d4cf c8d0 db1d 07f3
000000c0: 133d f939 05dd fc40 6040 3d34 2e19 1f18
000000d0: 1e14 28f4 ed03 fddf 2105 070c 03f7 fa34
000000e0: 221e 200a 200e 23ed 22db e91a 0601 163e
000000f0: 7f41 411e 1427 0d00 29f3 16f1 f6b0 18d2

tfl.pseudo_qconst24 i1 [1, 22, 1, 64] scale=0.047247488 zero_point=-128
0.0 0.0 0.0 0.0 0.0 0.0 0.0 0.0
0.0 0.0 0.0 0.0 0.0 0.0 0.0 0.0
0.0 0.0 0.0 0.0 0.0 0.0 0.0 0.0
0.0 0.0 0.0 0.0 0.0 0.0 0.0 0.0
0.0 0.0 0.0 0.0 0.0 0.0 0.0 0.0
0.0 0.0 0.0 0.0 0.0 0.0 0.0 0.0
0.0 0.0 0.0 0.0 0.0 0.0 0.0 0.0
0.0 0.0 0.0 0.0 0.0 0.0 0.0 0.0
0.0 0.0 0.0 0.0 0.0 0.0 0.0 0.0
0.0 0.0 0.0 0.0 0.0 0.0 0.0 0.0
0.0 0.0 0.0 0.0 0.0 0.0 0.0 0.0
0.0 0.0 0.0 0.0 0.0 0.0 0.0 0.0
0.0 0.0 0.0 0.0 0.0 0.0 0.0 0.0
0.0 0.0 0.0 0.0 0.0 0.0 0.0 0.0
0.0 0.0 0.0 0.0 0.0 0.0 0.0 0.0
0.0 0.0 0.0 0.0 0.0 0.0 0.0 0.0
0.0 0.0 0.0 0.0 0.0 0.0 0.0 0.0
0.0 0.0 0.0 0.0 0.0 0.0 0.0 0.0
0.0 0.0 0.0 0.0 0.0 0.0 0.0 0.0
0.0 0.0 0.0 0.0 0.0 0.0 0.0 0.0
0.0 0.0 0.0 0.0 0.0 0.0 0.0 0.0
0.0 0.0 0.0 0.0 0.0 0.0 0.0 0.0
0.0 0.0 0.0 0.0 0.0 0.0 0.0 0.0
0.0 0.0 0.0 0.0 0.0 0.0 0.0 0.0
0.0 0.0 0.0 0.0 0.0 0.0 0.0 0.0
0.0 0.0 0.0 0.0 0.0 0.0 0.0 0.0
0.0 0.0 0.0 0.0 0.0 0.0 0.0 0.0
0.0 0.0 0.0 0.0 0.0 0.0 0.0 0.0
0.0 0.0 0.0 0.0 0.0 0.0 0.0 0.0
0.0 0.0 0.0 0.0 0.0 0.0 0.0 0.0
0.0 0.0 0.0 0.0 0.0 0.0 0.0 0.0
0.0 0.0 0.0 0.0 0.0 0.0 0.0 0.0
00000000: 8080 8080 8080 8080 8080 8080 8080 8080
00000010: 8080 8080 8080 8080 8080 8080 8080 8080
00000020: 8080 8080 8080 8080 8080 8080 8080 8080
00000030: 8080 8080 8080 8080 8080 8080 8080 8080
00000040: 8080 8080 8080 8080 8080 8080 8080 8080
00000050: 8080 8080 8080 8080 8080 8080 8080 8080
00000060: 8080 8080 8080 8080 8080 8080 8080 8080
00000070: 8080 8080 8080 8080 8080 8080 8080 8080
00000080: 8080 8080 8080 8080 8080 8080 8080 8080
00000090: 8080 8080 8080 8080 8080 8080 8080 8080
000000a0: 8080 8080 8080 8080 8080 8080 8080 8080
000000b0: 8080 8080 8080 8080 8080 8080 8080 8080
000000c0: 8080 8080 8080 8080 8080 8080 8080 8080
000000d0: 8080 8080 8080 8080 8080 8080 8080 8080
000000e0: 8080 8080 8080 8080 8080 8080 8080 8080
000000f0: 8080 8080 8080 8080 8080 8080 8080 8080

tfl.pseudo_qconst25 i1 [1, 36, 1, 64] scale=0.022276938 zero_point=-128
0.0 0.0 0.0 0.0 0.0 0.0 0.0 0.0
0.0 0.0 0.0 0.0 0.0 0.0 0.0 0.0
0.0 0.0 0.0 0.0 0.0 0.0 0.0 0.0
0.0 0.0 0.0 0.0 0.0 0.0 0.0 0.0
0.0 0.0 0.0 0.0 0.0 0.0 0.0 0.0
0.0 0.0 0.0 0.0 0.0 0.0 0.0 0.0
0.0 0.0 0.0 0.0 0.0 0.0 0.0 0.0
0.0 0.0 0.0 0.0 0.0 0.0 0.0 0.0
0.0 0.0 0.0 0.0 0.0 0.0 0.0 0.0
0.0 0.0 0.0 0.0 0.0 0.0 0.0 0.0
0.0 0.0 0.0 0.0 0.0 0.0 0.0 0.0
0.0 0.0 0.0 0.0 0.0 0.0 0.0 0.0
0.0 0.0 0.0 0.0 0.0 0.0 0.0 0.0
0.0 0.0 0.0 0.0 0.0 0.0 0.0 0.0
0.0 0.0 0.0 0.0 0.0 0.0 0.0 0.0
0.0 0.0 0.0 0.0 0.0 0.0 0.0 0.0
0.0 0.0 0.0 0.0 0.0 0.0 0.0 0.0
0.0 0.0 0.0 0.0 0.0 0.0 0.0 0.0
0.0 0.0 0.0 0.0 0.0 0.0 0.0 0.0
0.0 0.0 0.0 0.0 0.0 0.0 0.0 0.0
0.0 0.0 0.0 0.0 0.0 0.0 0.0 0.0
0.0 0.0 0.0 0.0 0.0 0.0 0.0 0.0
0.0 0.0 0.0 0.0 0.0 0.0 0.0 0.0
0.0 0.0 0.0 0.0 0.0 0.0 0.0 0.0
0.0 0.0 0.0 0.0 0.0 0.0 0.0 0.0
0.0 0.0 0.0 0.0 0.0 0.0 0.0 0.0
0.0 0.0 0.0 0.0 0.0 0.0 0.0 0.0
0.0 0.0 0.0 0.0 0.0 0.0 0.0 0.0
0.0 0.0 0.0 0.0 0.0 0.0 0.0 0.0
0.0 0.0 0.0 0.0 0.0 0.0 0.0 0.0
0.0 0.0 0.0 0.0 0.0 0.0 0.0 0.0
0.0 0.0 0.0 0.0 0.0 0.0 0.0 0.0
00000000: 8080 8080 8080 8080 8080 8080 8080 8080
00000010: 8080 8080 8080 8080 8080 8080 8080 8080
00000020: 8080 8080 8080 8080 8080 8080 8080 8080
00000030: 8080 8080 8080 8080 8080 8080 8080 8080
00000040: 8080 8080 8080 8080 8080 8080 8080 8080
00000050: 8080 8080 8080 8080 8080 8080 8080 8080
00000060: 8080 8080 8080 8080 8080 8080 8080 8080
00000070: 8080 8080 8080 8080 8080 8080 8080 8080
00000080: 8080 8080 8080 8080 8080 8080 8080 8080
00000090: 8080 8080 8080 8080 8080 8080 8080 8080
000000a0: 8080 8080 8080 8080 8080 8080 8080 8080
000000b0: 8080 8080 8080 8080 8080 8080 8080 8080
000000c0: 8080 8080 8080 8080 8080 8080 8080 8080
000000d0: 8080 8080 8080 8080 8080 8080 8080 8080
000000e0: 8080 8080 8080 8080 8080 8080 8080 8080
000000f0: 8080 8080 8080 8080 8080 8080 8080 8080

tfl.pseudo_qconst26 i1 [1, 3, 1, 40] scale=0.101960786 zero_point=-128
0.0 0.0 0.0 0.0 0.0 0.0 0.0 0.0
0.0 0.0 0.0 0.0 0.0 0.0 0.0 0.0
0.0 0.0 0.0 0.0 0.0 0.0 0.0 0.0
0.0 0.0 0.0 0.0 0.0 0.0 0.0 0.0
0.0 0.0 0.0 0.0 0.0 0.0 0.0 0.0
0.0 0.0 0.0 0.0 0.0 0.0 0.0 0.0
0.0 0.0 0.0 0.0 0.0 0.0 0.0 0.0
0.0 0.0 0.0 0.0 0.0 0.0 0.0 0.0
0.0 0.0 0.0 0.0 0.0 0.0 0.0 0.0
0.0 0.0 0.0 0.0 0.0 0.0 0.0 0.0
0.0 0.0 0.0 0.0 0.0 0.0 0.0 0.0
0.0 0.0 0.0 0.0 0.0 0.0 0.0 0.0
0.0 0.0 0.0 0.0 0.0 0.0 0.0 0.0
0.0 0.0 0.0 0.0 0.0 0.0 0.0 0.0
0.0 0.0 0.0 0.0 0.0 0.0 0.0 0.0
00000000: 8080 8080 8080 8080 8080 8080 8080 8080
00000010: 8080 8080 8080 8080 8080 8080 8080 8080
00000020: 8080 8080 8080 8080 8080 8080 8080 8080
00000030: 8080 8080 8080 8080 8080 8080 8080 8080
00000040: 8080 8080 8080 8080 8080 8080 8080 8080
00000050: 8080 8080 8080 8080 8080 8080 8080 8080
00000060: 8080 8080 8080 8080 8080 8080 8080 8080
00000070: 8080 8080 8080 8080

tfl.pseudo_qconst27 i1 [1, 4, 1, 32] scale=1.2452 zero_point=-128
0.0 0.0 0.0 0.0 0.0 0.0 0.0 0.0
0.0 0.0 0.0 0.0 0.0 0.0 0.0 0.0
0.0 0.0 0.0 0.0 0.0 0.0 0.0 0.0
0.0 0.0 0.0 0.0 0.0 0.0 0.0 0.0
0.0 0.0 0.0 0.0 0.0 0.0 0.0 0.0
0.0 0.0 0.0 0.0 0.0 0.0 0.0 0.0
0.0 0.0 0.0 0.0 0.0 0.0 0.0 0.0
0.0 0.0 0.0 0.0 0.0 0.0 0.0 0.0
0.0 0.0 0.0 0.0 0.0 0.0 0.0 0.0
0.0 0.0 0.0 0.0 0.0 0.0 0.0 0.0
0.0 0.0 0.0 0.0 0.0 0.0 0.0 0.0
0.0 0.0 0.0 0.0 0.0 0.0 0.0 0.0
0.0 0.0 0.0 0.0 0.0 0.0 0.0 0.0
0.0 0.0 0.0 0.0 0.0 0.0 0.0 0.0
0.0 0.0 0.0 0.0 0.0 0.0 0.0 0.0
0.0 0.0 0.0 0.0 0.0 0.0 0.0 0.0
00000000: 8080 8080 8080 8080 8080 8080 8080 8080
00000010: 8080 8080 8080 8080 8080 8080 8080 8080
00000020: 8080 8080 8080 8080 8080 8080 8080 8080
00000030: 8080 8080 8080 8080 8080 8080 8080 8080
00000040: 8080 8080 8080 8080 8080 8080 8080 8080
00000050: 8080 8080 8080 8080 8080 8080 8080 8080
00000060: 8080 8080 8080 8080 8080 8080 8080 8080
00000070: 8080 8080 8080 8080 8080 8080 8080 8080

tfl.pseudo_qconst28 i1 [1, 10, 1, 64] scale=0.037534688 zero_point=-128
0.0 0.0 0.0 0.0 0.0 0.0 0.0 0.0
0.0 0.0 0.0 0.0 0.0 0.0 0.0 0.0
0.0 0.0 0.0 0.0 0.0 0.0 0.0 0.0
0.0 0.0 0.0 0.0 0.0 0.0 0.0 0.0
0.0 0.0 0.0 0.0 0.0 0.0 0.0 0.0
0.0 0.0 0.0 0.0 0.0 0.0 0.0 0.0
0.0 0.0 0.0 0.0 0.0 0.0 0.0 0.0
0.0 0.0 0.0 0.0 0.0 0.0 0.0 0.0
0.0 0.0 0.0 0.0 0.0 0.0 0.0 0.0
0.0 0.0 0.0 0.0 0.0 0.0 0.0 0.0
0.0 0.0 0.0 0.0 0.0 0.0 0.0 0.0
0.0 0.0 0.0 0.0 0.0 0.0 0.0 0.0
0.0 0.0 0.0 0.0 0.0 0.0 0.0 0.0
0.0 0.0 0.0 0.0 0.0 0.0 0.0 0.0
0.0 0.0 0.0 0.0 0.0 0.0 0.0 0.0
0.0 0.0 0.0 0.0 0.0 0.0 0.0 0.0
0.0 0.0 0.0 0.0 0.0 0.0 0.0 0.0
0.0 0.0 0.0 0.0 0.0 0.0 0.0 0.0
0.0 0.0 0.0 0.0 0.0 0.0 0.0 0.0
0.0 0.0 0.0 0.0 0.0 0.0 0.0 0.0
0.0 0.0 0.0 0.0 0.0 0.0 0.0 0.0
0.0 0.0 0.0 0.0 0.0 0.0 0.0 0.0
0.0 0.0 0.0 0.0 0.0 0.0 0.0 0.0
0.0 0.0 0.0 0.0 0.0 0.0 0.0 0.0
0.0 0.0 0.0 0.0 0.0 0.0 0.0 0.0
0.0 0.0 0.0 0.0 0.0 0.0 0.0 0.0
0.0 0.0 0.0 0.0 0.0 0.0 0.0 0.0
0.0 0.0 0.0 0.0 0.0 0.0 0.0 0.0
0.0 0.0 0.0 0.0 0.0 0.0 0.0 0.0
0.0 0.0 0.0 0.0 0.0 0.0 0.0 0.0
0.0 0.0 0.0 0.0 0.0 0.0 0.0 0.0
0.0 0.0 0.0 0.0 0.0 0.0 0.0 0.0
00000000: 8080 8080 8080 8080 8080 8080 8080 8080
00000010: 8080 8080 8080 8080 8080 8080 8080 8080
00000020: 8080 8080 8080 8080 8080 8080 8080 8080
00000030: 8080 8080 8080 8080 8080 8080 8080 8080
00000040: 8080 8080 8080 8080 8080 8080 8080 8080
00000050: 8080 8080 8080 8080 8080 8080 8080 8080
00000060: 8080 8080 8080 8080 8080 8080 8080 8080
00000070: 8080 8080 8080 8080 8080 8080 8080 8080
00000080: 8080 8080 8080 8080 8080 8080 8080 8080
00000090: 8080 8080 8080 8080 8080 8080 8080 8080
000000a0: 8080 8080 8080 8080 8080 8080 8080 8080
000000b0: 8080 8080 8080 8080 8080 8080 8080 8080
000000c0: 8080 8080 8080 8080 8080 8080 8080 8080
000000d0: 8080 8080 8080 8080 8080 8080 8080 8080
000000e0: 8080 8080 8080 8080 8080 8080 8080 8080
000000f0: 8080 8080 8080 8080 8080 8080 8080 8080

tfl.pseudo_qconst29 i1 [1, 14, 1, 64] scale=0.04329849 zero_point=-128
0.0 0.0 0.0 0.0 0.0 0.0 0.0 0.0
0.0 0.0 0.0 0.0 0.0 0.0 0.0 0.0
0.0 0.0 0.0 0.0 0.0 0.0 0.0 0.0
0.0 0.0 0.0 0.0 0.0 0.0 0.0 0.0
0.0 0.0 0.0 0.0 0.0 0.0 0.0 0.0
0.0 0.0 0.0 0.0 0.0 0.0 0.0 0.0
0.0 0.0 0.0 0.0 0.0 0.0 0.0 0.0
0.0 0.0 0.0 0.0 0.0 0.0 0.0 0.0
0.0 0.0 0.0 0.0 0.0 0.0 0.0 0.0
0.0 0.0 0.0 0.0 0.0 0.0 0.0 0.0
0.0 0.0 0.0 0.0 0.0 0.0 0.0 0.0
0.0 0.0 0.0 0.0 0.0 0.0 0.0 0.0
0.0 0.0 0.0 0.0 0.0 0.0 0.0 0.0
0.0 0.0 0.0 0.0 0.0 0.0 0.0 0.0
0.0 0.0 0.0 0.0 0.0 0.0 0.0 0.0
0.0 0.0 0.0 0.0 0.0 0.0 0.0 0.0
0.0 0.0 0.0 0.0 0.0 0.0 0.0 0.0
0.0 0.0 0.0 0.0 0.0 0.0 0.0 0.0
0.0 0.0 0.0 0.0 0.0 0.0 0.0 0.0
0.0 0.0 0.0 0.0 0.0 0.0 0.0 0.0
0.0 0.0 0.0 0.0 0.0 0.0 0.0 0.0
0.0 0.0 0.0 0.0 0.0 0.0 0.0 0.0
0.0 0.0 0.0 0.0 0.0 0.0 0.0 0.0
0.0 0.0 0.0 0.0 0.0 0.0 0.0 0.0
0.0 0.0 0.0 0.0 0.0 0.0 0.0 0.0
0.0 0.0 0.0 0.0 0.0 0.0 0.0 0.0
0.0 0.0 0.0 0.0 0.0 0.0 0.0 0.0
0.0 0.0 0.0 0.0 0.0 0.0 0.0 0.0
0.0 0.0 0.0 0.0 0.0 0.0 0.0 0.0
0.0 0.0 0.0 0.0 0.0 0.0 0.0 0.0
0.0 0.0 0.0 0.0 0.0 0.0 0.0 0.0
0.0 0.0 0.0 0.0 0.0 0.0 0.0 0.0
00000000: 8080 8080 8080 8080 8080 8080 8080 8080
00000010: 8080 8080 8080 8080 8080 8080 8080 8080
00000020: 8080 8080 8080 8080 8080 8080 8080 8080
00000030: 8080 8080 8080 8080 8080 8080 8080 8080
00000040: 8080 8080 8080 8080 8080 8080 8080 8080
00000050: 8080 8080 8080 8080 8080 8080 8080 8080
00000060: 8080 8080 8080 8080 8080 8080 8080 8080
00000070: 8080 8080 8080 8080 8080 8080 8080 8080
00000080: 8080 8080 8080 8080 8080 8080 8080 8080
00000090: 8080 8080 8080 8080 8080 8080 8080 8080
000000a0: 8080 8080 8080 8080 8080 8080 8080 8080
000000b0: 8080 8080 8080 8080 8080 8080 8080 8080
000000c0: 8080 8080 8080 8080 8080 8080 8080 8080
000000d0: 8080 8080 8080 8080 8080 8080 8080 8080
000000e0: 8080 8080 8080 8080 8080 8080 8080 8080
000000f0: 8080 8080 8080 8080 8080 8080 8080 8080
