models/v2/hey_glados.tflite (tflite, 60928 bytes, 18 tensors)

tfl.pseudo_qconst1 i1 [1, 1088] scale=0.015305805 zero_point=0
00000000: df01 0c05 03fb faf7 c92a d8f8 d21b c406
00000010: b518 ea00 ef1d edec e4e1 14de 08c9 d921
00000020: f6dc 022f def5 cf0f 1112 150f f5ed feee
00000030: dee7 ccde b7de 3415 03fb 07f1 0cf3 efe9
00000040: e1ff 0713 f1fd e8f9 f514 ddfa d90c ef17
00000050: df0f fb07 f30e eae5 d9f2 0bf8 06dc ec14
00000060: f0f6 1323 f9ed e207 0105 00fb fc06 f5e7
00000070: f4eb e2f8 d7e1 1700 0306 06f7 0bf3 f2db
00000080: dff7 041a e7f5 e5e6 f10c e8eb dfff f80b
00000090: e509 f605 f708 deea dcf4 07e9 07f5 ef1d
000000a0: f5f7 1b16 fbf3 e400 00ee 03f9 fe02 f7d3
000000b0: f3e3 f201 e2e2 0bf7 0807 0afd 0ef6 eadd
000000c0: ece0 081a e802 e6e7 ed0d e7f3 e8f8 e604
000000d0: e907 eef8 e812 e4e4 dee9 fafa 15ec e71d
000000e0: ec06 1013 fbe1 e5e4 03fa 03fd f606 f5cf
000000f0: f4e1 f100 d2d8 0301 0e01 07f6 01fa ebd9
-0.50509155 0.015305805 0.18366966 0.076529026 0.045917414 -0.076529026 -0.09183483 -0.13775225
-0.8418193 0.6428438 -0.6122322 -0.12244644 -0.70406705 0.41325673 -0.9183483 0.09183483
-1.1479354 0.3673393 -0.3367277 0.0 -0.26019868 0.44386834 -0.2908103 -0.3061161
-0.42856255 -0.47447994 0.3061161 -0.52039737 0.12244644 -0.8418193 -0.5969264 0.50509155
-0.15305805 -0.551009 0.03061161 0.7193728 -0.52039737 -0.16836385 -0.74998444 0.22958708
0.26019868 0.2755045 0.3214219 0.22958708 -0.16836385 -0.2908103 -0.03061161 -0.2755045
-0.52039737 -0.38264513 -0.79590183 -0.52039737 -1.1173238 -0.52039737 0.79590183 0.3214219
0.045917414 -0.076529026 0.10714064 -0.22958708 0.18366966 -0.19897546 -0.26019868 -0.35203353
-0.47447994 -0.015305805 0.10714064 0.2908103 -0.22958708 -0.045917414 -0.3673393 -0.10714064
-0.16836385 0.3061161 -0.5357032 -0.09183483 -0.5969264 0.18366966 -0.26019868 0.35203353
-0.50509155 0.22958708 -0.076529026 0.10714064 -0.19897546 0.21428128 -0.3367277 -0.41325673
-0.5969264 -0.21428128 0.16836385 -0.12244644 0.09183483 -0.551009 -0.3061161 0.3061161
-0.24489288 -0.15305805 0.2908103 0.5357032 -0.10714064 -0.2908103 -0.45917416 0.10714064
0.015305805 0.076529026 0.0 -0.076529026 -0.06122322 0.09183483 -0.16836385 -0.38264513
-0.18366966 -0.3214219 -0.45917416 -0.12244644 -0.627538 -0.47447994 0.35203353 0.0
0.045917414 0.09183483 0.09183483 -0.13775225 0.16836385 -0.19897546 -0.21428128 -0.56631476
-0.50509155 -0.13775225 0.06122322 0.39795092 -0.38264513 -0.16836385 -0.41325673 -0.39795092
-0.22958708 0.18366966 -0.3673393 -0.3214219 -0.50509155 -0.015305805 -0.12244644 0.16836385
-0.41325673 0.13775225 -0.15305805 0.076529026 -0.13775225 0.12244644 -0.52039737 -0.3367277
-0.551009 -0.18366966 0.10714064 -0.35203353 0.10714064 -0.16836385 -0.26019868 0.44386834
-0.16836385 -0.13775225 0.41325673 0.3367277 -0.076529026 -0.19897546 -0.42856255 0.0
0.0 -0.2755045 0.045917414 -0.10714064 -0.03061161 0.03061161 -0.13775225 -0.68876123
-0.19897546 -0.44386834 -0.21428128 0.015305805 -0.45917416 -0.45917416 0.16836385 -0.13775225
0.12244644 0.10714064 0.15305805 -0.045917414 0.21428128 -0.15305805 -0.3367277 -0.5357032
-0.3061161 -0.48978576 0.12244644 0.39795092 -0.3673393 0.03061161 -0.39795092 -0.38264513
-0.2908103 0.19897546 -0.38264513 -0.19897546 -0.3673393 -0.12244644 -0.39795092 0.06122322
-0.35203353 0.10714064 -0.2755045 -0.12244644 -0.3673393 0.2755045 -0.42856255 -0.42856255
-0.52039737 -0.35203353 -0.09183483 -0.09183483 0.3214219 -0.3061161 -0.38264513 0.44386834
-0.3061161 0.09183483 0.24489288 0.2908103 -0.076529026 -0.47447994 -0.41325673 -0.42856255
0.045917414 -0.09183483 0.045917414 -0.045917414 -0.15305805 0.09183483 -0.16836385 -0.74998444
-0.18366966 -0.47447994 -0.22958708 0.0 -0.70406705 -0.6122322 0.045917414 0.015305805
0.21428128 0.015305805 0.10714064 -0.15305805 0.015305805 -0.09183483 -0.3214219 -0.5969264

tfl.pseudo_qconst3 i1 [64, 1, 1, 64]
00000000: 1100 1304 f53c ed0c 69ed f1a4 28d2 41e0
00000010: f076 f810 f935 0e9b f212 c61e 8110 d263
00000020: 812e 40ec 3df5 ebb6 fd77 bdf3 d0ad ddde
00000030: c1b2 eb15 d14d e801 cb3d 2906 2c0d 19fc
00000040: c7f5 f92d eeb7 f2e5 160a 1eea c381 0fc6
00000050: d325 eae8 c74f dfad c6dc bcae 8852 f6c2
00000060: cb35 fd1f 150b a1bb 4301 04e0 0db0 e529
00000070: be41 26e1 0c14 20e6 86ce 12b7 b5db 312a
00000080: ed30 0ed4 cc03 2a11 3927 1681 fdc6 1c43
00000090: 1052 1ef5 025e 1014 bb12 d8ec f032 e2fc
000000a0: a3b8 d4fd 2e35 d81f f902 3b51 dcb0 f139
000000b0: aa49 db9c f4f6 02f1 ed03 db15 cb50 0a4c
000000c0: e74e da3a cdf5 037f 5ddf 7355 5b2c f7a5
000000d0: 3ae9 be00 c3fe 1d2b b64d 2bfb 06d0 0b91
000000e0: 1c2c e1f2 e820 2556 e50e f3bd 0057 f026
000000f0: b74a d8cf 01d3 98df 7ec6 01ca bbeb 2b24
17 0 19 4 -11 60 -19 12
105 -19 -15 -92 40 -46 65 -32
-16 118 -8 16 -7 53 14 -101
-14 18 -58 30 -127 16 -46 99
-127 46 64 -20 61 -11 -21 -74
-3 119 -67 -13 -48 -83 -35 -34
-63 -78 -21 21 -47 77 -24 1
-53 61 41 6 44 13 25 -4
-57 -11 -7 45 -18 -73 -14 -27
22 10 30 -22 -61 -127 15 -58
-45 37 -22 -24 -57 79 -33 -83
-58 -36 -68 -82 -120 82 -10 -62
-53 53 -3 31 21 11 -95 -69
67 1 4 -32 13 -80 -27 41
-66 65 38 -31 12 20 32 -26
-122 -50 18 -73 -75 -37 49 42
-19 48 14 -44 -52 3 42 17
57 39 22 -127 -3 -58 28 67
16 82 30 -11 2 94 16 20
-69 18 -40 -20 -16 50 -30 -4
-93 -72 -44 -3 46 53 -40 31
-7 2 59 81 -36 -80 -15 57
-86 73 -37 -100 -12 -10 2 -15
-19 3 -37 21 -53 80 10 76
-25 78 -38 58 -51 -11 3 127
93 -33 115 85 91 44 -9 -91
58 -23 -66 0 -61 -2 29 43
-74 77 43 -5 6 -48 11 -111
28 44 -31 -14 -24 32 37 86
-27 14 -13 -67 0 87 -16 38
-73 74 -40 -49 1 -45 -104 -33
126 -58 1 -54 -69 -21 43 36

tfl.pseudo_qconst5 i1 [1, 23, 1, 64]
00000000: 702c 0038 8f7c 0ec6 40fc 81de 9b02 f9f6
00000010: 7f9d c2d2 813f 7f81 7f81 7f7f 7f0b d481
00000020: 0a96 2c35 07fe 587f f509 3829 7ff7 81d7
00000030: 81f9 2d2e 8181 61ff d59f ff65 50ac 2fc0
00000040: 6322 2345 a854 27dd 28ea 9f04 d0f9 1103
00000050: 70a3 e2e4 c962 5ca2 4cba 6064 53f3 fcab
00000060: 1d81 1c11 f3e2 5f4d 0c31 2b2e 7732 a3dc
00000070: 99f2 3d06 94ae 6a1b ceb8 166c 03bc 3fd3
00000080: 4d14 1a04 9935 52ea 1ce3 a639 e9f8 0f1a
00000090: 4ebe 07e9 ea7b 33bd 3ae9 2053 23e6 2ab6
000000a0: 1da7 3206 cdd7 7f21 0561 39f7 5f4c c1d6
000000b0: 9fd6 4dd6 b3d6 6953 c412 1f78 f7d6 3cd8
000000c0: 2c31 0508 89fa 6904 18d8 ba55 e61d 143d
000000d0: 2bf3 35d9 f27f f7d1 33f7 e44d f0f1 39c3
000000e0: 0d0c 2f0f 9eee 5e0e 1b59 20e3 4f5b c4d9
000000f0: adf9 4dcf d0e8 5160 fdfe 266e 1df8 39cf
112 44 0 56 -113 124 14 -58
64 -4 -127 -34 -101 2 -7 -10
127 -99 -62 -46 -127 63 127 -127
127 -127 127 127 127 11 -44 -127
10 -106 44 53 7 -2 88 127
-11 9 56 41 127 -9 -127 -41
-127 -7 45 46 -127 -127 97 -1
-43 -97 -1 101 80 -84 47 -64
99 34 35 69 -88 84 39 -35
40 -22 -97 4 -48 -7 17 3
112 -93 -30 -28 -55 98 92 -94
76 -70 96 100 83 -13 -4 -85
29 -127 28 17 -13 -30 95 77
12 49 43 46 119 50 -93 -36
-103 -14 61 6 -108 -82 106 27
-50 -72 22 108 3 -68 63 -45
77 20 26 4 -103 53 82 -22
28 -29 -90 57 -23 -8 15 26
78 -66 7 -23 -22 123 51 -67
58 -23 32 83 35 -26 42 -74
29 -89 50 6 -51 -41 127 33
5 97 57 -9 95 76 -63 -42
-97 -42 77 -42 -77 -42 105 83
-60 18 31 120 -9 -42 60 -40
44 49 5 8 -119 -6 105 4
24 -40 -70 85 -26 29 20 61
43 -13 53 -39 -14 127 -9 -47
51 -9 -28 77 -16 -15 57 -61
13 12 47 15 -98 -18 94 14
27 89 32 -29 79 91 -60 -39
-83 -7 77 -49 -48 -24 81 96
-3 -2 38 110 29 -8 57 -49

tfl.pseudo_qconst7 i1 [64, 1, 1, 64]
00000000: 7f2f 1935 25f0 c051 fdff 5145 4406 12e3
00000010: c823 b9c3 d038 c70c efbf f13f b071 0c04
00000020: 6b1c eb62 e639 d922 c3fc 12c8 d721 db55
00000030: 09c7 f590 2b1c c9b1 b688 d812 d1f3 22d2
00000040: f92a 0847 0134 d9e4 fd1d 41f8 4803 6f43
00000050: b127 ab0d 0a15 2ead d318 12e7 e9f7 41fb
00000060: fba9 fcfc 9004 0ec2 e77f aef8 f747 e8d2
00000070: 28e7 e7eb def0 0efa fe26 1ed2 e622 eaf6
00000080: 4319 ed5a 0103 c717 3d7e 9b27 f50d 0e37
00000090: eff9 ef02 f447 cff5 dcbe 8130 e01f defd
000000a0: e992 dbc5 26e6 eded f935 f1d8 e7dc 2725
000000b0: e4cf 2711 d92b d5d3 ed28 f81e 2366 d3ef
000000c0: 2e44 f00f f92a b00a d015 1c37 3503 d843
000000d0: 0ef1 3151 7f2c f663 4bcf 1b7e f33b 495b
000000e0: 3a4c ebf9 d4ff 35fa e9e5 f0f9 2c01 3913
000000f0: d1be 092b 2cd6 57c5 d1da a435 2158 afd3
127 47 25 53 37 -16 -64 81
-3 -1 81 69 68 6 18 -29
-56 35 -71 -61 -48 56 -57 12
-17 -65 -15 63 -80 113 12 4
107 28 -21 98 -26 57 -39 34
-61 -4 18 -56 -41 33 -37 85
9 -57 -11 -112 43 28 -55 -79
-74 -120 -40 18 -47 -13 34 -46
-7 42 8 71 1 52 -39 -28
-3 29 65 -8 72 3 111 67
-79 39 -85 13 10 21 46 -83
-45 24 18 -25 -23 -9 65 -5
-5 -87 -4 -4 -112 4 14 -62
-25 127 -82 -8 -9 71 -24 -46
40 -25 -25 -21 -34 -16 14 -6
-2 38 30 -46 -26 34 -22 -10
67 25 -19 90 1 3 -57 23
61 126 -101 39 -11 13 14 55
-17 -7 -17 2 -12 71 -49 -11
-36 -66 -127 48 -32 31 -34 -3
-23 -110 -37 -59 38 -26 -19 -19
-7 53 -15 -40 -25 -36 39 37
-28 -49 39 17 -39 43 -43 -45
-19 40 -8 30 35 102 -45 -17
46 68 -16 15 -7 42 -80 10
-48 21 28 55 53 3 -40 67
14 -15 49 81 127 44 -10 99
75 -49 27 126 -13 59 73 91
58 76 -21 -7 -44 -1 53 -6
-23 -27 -16 -7 44 1 57 19
-47 -66 9 43 44 -42 87 -59
-47 -38 -92 53 33 88 -81 -45

tfl.pseudo_qconst9 i1 [1, 15, 1, 32]
00000000: 7f0d f881 39de 6dfe b27f e810 0581 817f
00000010: 81ae 9285 d08d 5c3d 9d68 7f0e 250c d8b2
00000020: 3ae9 e6a0 19c7 6ace eb75 cafd fad4 a048
00000030: c2e4 9b81 e893 2877 b84d 64fb cfbf b5cf
00000040: e908 08be 0e92 5693 205c c213 d7f3 b046
00000050: b8ef 8896 0387 f97f b87f 6dd9 9581 af0f
00000060: e3cf 30dd f381 42d3 694b e248 db12 d351
00000070: c8e4 81c6 019f d638 a57a 70f4 8185 814e
00000080: 0681 37e3 eca9 2625 4705 e558 ab21 be46
00000090: f205 bfcf cda9 ee1a b262 44e8 8ef8 8b7f
000000a0: 04a1 1ae2 e0ba 0a3b 388f e729 8139 cf5a
000000b0: 1601 e2eb bedc da13 f372 19f3 c124 fb3a
000000c0: fad3 faf5 04d6 17e8 17aa d824 a33f d73d
000000d0: 1efb eb12 cb29 bef8 2c37 edf2 d035 09dc
000000e0: 05f4 bbf9 15ec f8cb c7d0 02ed ba24 f04c
000000f0: 3ad4 e2f2 dc32 a3e8 1e0c e805 f202 b3c7
127 13 -8 -127 57 -34 109 -2
-78 127 -24 16 5 -127 -127 127
-127 -82 -110 -123 -48 -115 92 61
-99 104 127 14 37 12 -40 -78
58 -23 -26 -96 25 -57 106 -50
-21 117 -54 -3 -6 -44 -96 72
-62 -28 -101 -127 -24 -109 40 119
-72 77 100 -5 -49 -65 -75 -49
-23 8 8 -66 14 -110 86 -109
32 92 -62 19 -41 -13 -80 70
-72 -17 -120 -106 3 -121 -7 127
-72 127 109 -39 -107 -127 -81 15
-29 -49 48 -35 -13 -127 66 -45
105 75 -30 72 -37 18 -45 81
-56 -28 -127 -58 1 -97 -42 56
-91 122 112 -12 -127 -123 -127 78
6 -127 55 -29 -20 -87 38 37
71 5 -27 88 -85 33 -66 70
-14 5 -65 -49 -51 -87 -18 26
-78 98 68 -24 -114 -8 -117 127
4 -95 26 -30 -32 -70 10 59
56 -113 -25 41 -127 57 -49 90
22 1 -30 -21 -66 -36 -38 19
-13 114 25 -13 -63 36 -5 58
-6 -45 -6 -11 4 -42 23 -24
23 -86 -40 36 -93 63 -41 61
30 -5 -21 18 -53 41 -66 -8
44 55 -19 -14 -48 53 9 -36
5 -12 -69 -7 21 -20 -8 -53
-57 -48 2 -19 -70 36 -16 76
58 -44 -30 -14 -36 50 -93 -24
30 12 -24 5 -14 2 -77 -57

tfl.pseudo_qconst11 i1 [1, 9, 1, 32]
00000000: ef7f 0274 347f d311 2b55 4ba3 b183 213a
00000010: b9f0 5fba b981 0c0f 1d25 9570 7f3d c6db
00000020: de5e 1c75 3f4f c818 3b41 2ffa 1de9 3fe4
00000030: 8104 631e b884 11ed fb39 9a2b 7423 c7a2
00000040: b737 1b7f 4950 a51d 4f46 e2f4 5015 1cdd
00000050: 9908 442a aa97 08e3 eef2 dcb2 0403 c59f
00000060: db1d 1f48 7f40 af1e 543b aec1 42b0 0463
00000070: bfd2 df2f 9fe9 fe81 ebaf 03e9 97dc def8
00000080: 46bd 0233 6d09 a60e 2fd6 d0d6 5681 2e7f
00000090: ca9a 8141 8151 1194 0dbd 145a ba0d b57a
000000a0: 5899 1111 22f6 8110 e6ac 54b0 13c8 1526
000000b0: d0d5 8275 9949 d0ca 025a 007f 101d 817f
000000c0: 36ad 22ce 12f0 ac0a a590 5c95 b4ea cec7
000000d0: 2a52 c27f e81c 815a c57f 2ec0 240b 8417
000000e0: 20e0 4101 f7c5 a824 8181 f6a0 811a 8194
000000f0: 1a79 254b 0b24 9e66 a939 4587 3148 f8f4
-17 127 2 116 52 127 -45 17
43 85 75 -93 -79 -125 33 58
-71 -16 95 -70 -71 -127 12 15
29 37 -107 112 127 61 -58 -37
-34 94 28 117 63 79 -56 24
59 65 47 -6 29 -23 63 -28
-127 4 99 30 -72 -124 17 -19
-5 57 -102 43 116 35 -57 -94
-73 55 27 127 73 80 -91 29
79 70 -30 -12 80 21 28 -35
-103 8 68 42 -86 -105 8 -29
-18 -14 -36 -78 4 3 -59 -97
-37 29 31 72 127 64 -81 30
84 59 -82 -63 66 -80 4 99
-65 -46 -33 47 -97 -23 -2 -127
-21 -81 3 -23 -105 -36 -34 -8
70 -67 2 51 109 9 -90 14
47 -42 -48 -42 86 -127 46 127
-54 -102 -127 65 -127 81 17 -108
13 -67 20 90 -70 13 -75 122
88 -103 17 17 34 -10 -127 16
-26 -84 84 -80 19 -56 21 38
-48 -43 -126 117 -103 73 -48 -54
2 90 0 127 16 29 -127 127
54 -83 34 -50 18 -16 -84 10
-91 -112 92 -107 -76 -22 -50 -57
42 82 -62 127 -24 28 -127 90
-59 127 46 -64 36 11 -124 23
32 -32 65 1 -9 -59 -88 36
-127 -127 -10 -96 -127 26 -127 -108
26 121 37 75 11 36 -98 102
-87 57 69 -121 49 72 -8 -12

tfl.pseudo_qconst13 i1 [64, 1, 1, 64]
00000000: 1d39 4267 412b c124 fe34 2f77 07fa 04f0
00000010: 220d 14b6 d81c 292b 29de 37db fc2c 9ec9
00000020: 0281 c82d d8fe 2ef7 136d 44d1 e808 d2ea
00000030: aab5 f0e0 2add cf44 ec1e 4ae7 28c7 4db6
00000040: 0dc9 b3b4 ebd0 ee04 150b 16d4 fdf3 06c0
00000050: bec4 ddcf 35ed e554 d2e8 e2c3 1437 bdb8
00000060: eb45 8455 14b0 a72c def1 ebfc d15e 1809
00000070: 66ea 19cd e3d0 0c24 39f3 204e 1d7f f509
00000080: 4f7f 3958 f6ec fedb 27d0 32e4 140a c2d8
00000090: d741 0bdb e202 0510 3ff8 feed 0842 caff
000000a0: 4221 e738 f722 f0ed 39cb 0223 0914 1c0c
000000b0: dec8 3e66 07f9 06cc f94d dd01 483e efe7
000000c0: 5417 f518 064f c60a b2c9 f206 b328 bda8
000000d0: 3981 af41 fd2f 5ff3 cf4e 08f9 0e4f f944
000000e0: 2509 29ce edbe a9f4 38ef de05 e8d0 f5b0
000000f0: 05c2 3b0c 05f3 f23a dd07 08ef 00e5 ee11
29 57 66 103 65 43 -63 36
-2 52 47 119 7 -6 4 -16
34 13 20 -74 -40 28 41 43
41 -34 55 -37 -4 44 -98 -55
2 -127 -56 45 -40 -2 46 -9
19 109 68 -47 -24 8 -46 -22
-86 -75 -16 -32 42 -35 -49 68
-20 30 74 -25 40 -57 77 -74
13 -55 -77 -76 -21 -48 -18 4
21 11 22 -44 -3 -13 6 -64
-66 -60 -35 -49 53 -19 -27 84
-46 -24 -30 -61 20 55 -67 -72
-21 69 -124 85 20 -80 -89 44
-34 -15 -21 -4 -47 94 24 9
102 -22 25 -51 -29 -48 12 36
57 -13 32 78 29 127 -11 9
79 127 57 88 -10 -20 -2 -37
39 -48 50 -28 20 10 -62 -40
-41 65 11 -37 -30 2 5 16
63 -8 -2 -19 8 66 -54 -1
66 33 -25 56 -9 34 -16 -19
57 -53 2 35 9 20 28 12
-34 -56 62 102 7 -7 6 -52
-7 77 -35 1 72 62 -17 -25
84 23 -11 24 6 79 -58 10
-78 -55 -14 6 -77 40 -67 -88
57 -127 -81 65 -3 47 95 -13
-49 78 8 -7 14 79 -7 68
37 9 41 -50 -19 -66 -87 -12
56 -17 -34 5 -24 -48 -11 -80
5 -62 59 12 5 -13 -14 58
-35 7 8 -17 0 -27 -18 17

tfl.pseudo_qconst15 i1 [1, 11, 1, 32]
00000000: c852 3e13 7fc8 cee7 d07f 818c 3681 b60c
00000010: e752 7a11 c4bc 62af f7b0 a671 1b81 f5f2
00000020: a47f 3f09 4ca5 1983 a63d 9cde 3f31 edec
00000030: ca54 642f cb08 6fd3 c4b0 8102 c198 01c9
00000040: f366 56f2 6481 5c97 b806 a74b 3b44 eac3
00000050: ecf8 3e39 04e9 52e4 98a2 96bf b8e1 25f5
00000060: 5b05 c9ea 4cfb 2767 ab3f c12a 3ce3 e718
00000070: 558a 3a2b 0790 291f d181 f9bc d6f8 2c03
00000080: 1c0f 81c8 4d5d c37f d423 fe50 48f4 597f
00000090: 3bce 0d17 e4bd e131 e693 28e7 c501 7fe2
000000a0: df44 c2d6 152c 8531 441b f07f 75d6 7f00
000000b0: 0606 e7f4 2817 a0fe 08a0 2152 f851 67c5
000000c0: 1d31 d0d3 0cff a3fc 2d0f 057f 7fd0 5ab4
000000d0: cee6 cf65 4665 81db 2bab b978 0ffc 1636
000000e0: 7f13 d016 2704 c4eb e624 3920 17e8 2a38
000000f0: 8181 817f 5b49 a5bc 10f1 057f 811c fb31
-56 82 62 19 127 -56 -50 -25
-48 127 -127 -116 54 -127 -74 12
-25 82 122 17 -60 -68 98 -81
-9 -80 -90 113 27 -127 -11 -14
-92 127 63 9 76 -91 25 -125
-90 61 -100 -34 63 49 -19 -20
-54 84 100 47 -53 8 111 -45
-60 -80 -127 2 -63 -104 1 -55
-13 102 86 -14 100 -127 92 -105
-72 6 -89 75 59 68 -22 -61
-20 -8 62 57 4 -23 82 -28
-104 -94 -106 -65 -72 -31 37 -11
91 5 -55 -22 76 -5 39 103
-85 63 -63 42 60 -29 -25 24
85 -118 58 43 7 -112 41 31
-47 -127 -7 -68 -42 -8 44 3
28 15 -127 -56 77 93 -61 127
-44 35 -2 80 72 -12 89 127
59 -50 13 23 -28 -67 -31 49
-26 -109 40 -25 -59 1 127 -30
-33 68 -62 -42 21 44 -123 49
68 27 -16 127 117 -42 127 0
6 6 -25 -12 40 23 -96 -2
8 -96 33 82 -8 81 103 -59
29 49 -48 -45 12 -1 -93 -4
45 15 5 127 127 -48 90 -76
-50 -26 -49 101 70 101 -127 -37
43 -85 -71 120 15 -4 22 54
127 19 -48 22 39 4 -60 -21
-26 36 57 32 23 -24 42 56
-127 -127 -127 127 91 73 -91 -68
16 -15 5 127 -127 28 -5 49

tfl.pseudo_qconst17 i1 [1, 7, 1, 32]
00000000: 5d25 291d f69d cf7f b802 4781 7313 297f
00000010: e3d7 297f 3621 ca07 cd27 b596 43db c895
00000020: c341 5b4d 0b8c ce0f a3e4 1395 27f0 f545
00000030: 36ce 145a ca7f c11d dc1d fd81 1817 e4be
00000040: 81fe 7f68 e490 4edf 0201 45f0 4fdb feec
00000050: 7f1c 2566 992e 0947 a81d 460e 2120 7f81
00000060: d7aa 507f caff 6ff7 7f32 792a cbf6 6513
00000070: 7835 f14e d20a f5eb a324 4332 241d 7e88
00000080: fac3 d91e cb7f 7feb 5adc 5704 c116 7f12
00000090: 0d7f 5d28 ce91 e481 18f1 c456 fe29 2bef
000000a0: 27d5 d6d4 816f 65db 159d 8897 76c7 5131
000000b0: ba67 7fd9 9097 fcc2 7f9d 8140 ac3f aa9e
000000c0: f181 e632 bb41 b9ea df81 81df 7f81 0f1e
000000d0: af14 67f3 81c4 7f40 4281 ae1a 817f 9e9d
93 37 41 29 -10 -99 -49 127
-72 2 71 -127 115 19 41 127
-29 -41 41 127 54 33 -54 7
-51 39 -75 -106 67 -37 -56 -107
-61 65 91 77 11 -116 -50 15
-93 -28 19 -107 39 -16 -11 69
54 -50 20 90 -54 127 -63 29
-36 29 -3 -127 24 23 -28 -66
-127 -2 127 104 -28 -112 78 -33
2 1 69 -16 79 -37 -2 -20
127 28 37 102 -103 46 9 71
-88 29 70 14 33 32 127 -127
-41 -86 80 127 -54 -1 111 -9
127 50 121 42 -53 -10 101 19
120 53 -15 78 -46 10 -11 -21
-93 36 67 50 36 29 126 -120
-6 -61 -39 30 -53 127 127 -21
90 -36 87 4 -63 22 127 18
13 127 93 40 -50 -111 -28 -127
24 -15 -60 86 -2 41 43 -17
39 -43 -42 -44 -127 111 101 -37
21 -99 -120 -105 118 -57 81 49
-70 103 127 -39 -112 -105 -4 -62
127 -99 -127 64 -84 63 -86 -98
-15 -127 -26 50 -69 65 -71 -22
-33 -127 -127 -33 127 -127 15 30
-81 20 103 -13 -127 -60 127 64
66 -127 -82 26 -127 127 -98 -99

tfl.pseudo_qconst19 i1 [64, 1, 1, 32]
00000000: 2539 f1bb 0d7f 4c8a e336 f3f5 35bf 04f2
00000010: 0d55 c9fc 16b1 2703 1210 29da 17c4 0a45
00000020: 1913 14ec 811d 1fff 1fed ff13 c6ee f116
00000030: 06eb d330 b4fb 322b 442c 004b eee6 281c
00000040: 1b34 310f dd8d ea81 1225 2149 283b 5833
00000050: 8250 fefb bfb7 d22b 1e94 cb10 6d39 e6bc
00000060: 02f2 1de0 3f19 4209 01f7 da11 0329 1681
00000070: b92b aed7 98b0 9fec 243c fe1e 0560 344a
00000080: e604 dbe9 cd81 2813 db1c 14fb f9b1 df2c
00000090: c201 ebf5 1abc ea2e 35c6 04f1 f848 fba1
000000a0: bd19 81ef 0e63 1ce6 e7c0 06f0 f42e f8fc
000000b0: 451f 90bd fccd 1db7 c8e9 162a 0ee4 fd53
000000c0: 022b 0a58 bcfa dc01 dcc9 9a81 ae75 9b1e
000000d0: 1e8a f9ae 9cac e916 efdf 0350 f4f1 3b1a
000000e0: 0236 f3da 1ad0 f7ee d8c7 212f fbf8 7fc7
000000f0: 25cc abc4 0dfb dfec e416 3416 1a11 06c0
37 57 -15 -69 13 127 76 -118
-29 54 -13 -11 53 -65 4 -14
13 85 -55 -4 22 -79 39 3
18 16 41 -38 23 -60 10 69
25 19 20 -20 -127 29 31 -1
31 -19 -1 19 -58 -18 -15 22
6 -21 -45 48 -76 -5 50 43
68 44 0 75 -18 -26 40 28
27 52 49 15 -35 -115 -22 -127
18 37 33 73 40 59 88 51
-126 80 -2 -5 -65 -73 -46 43
30 -108 -53 16 109 57 -26 -68
2 -14 29 -32 63 25 66 9
1 -9 -38 17 3 41 22 -127
-71 43 -82 -41 -104 -80 -97 -20
36 60 -2 30 5 96 52 74
-26 4 -37 -23 -51 -127 40 19
-37 28 20 -5 -7 -79 -33 44
-62 1 -21 -11 26 -68 -22 46
53 -58 4 -15 -8 72 -5 -95
-67 25 -127 -17 14 99 28 -26
-25 -64 6 -16 -12 46 -8 -4
69 31 -112 -67 -4 -51 29 -73
-56 -23 22 42 14 -28 -3 83
2 43 10 88 -68 -6 -36 1
-36 -55 -102 -127 -82 117 -101 30
30 -118 -7 -82 -100 -84 -23 22
-17 -33 3 80 -12 -15 59 26
2 54 -13 -38 26 -48 -9 -18
-40 -57 33 47 -5 -8 127 -57
37 -52 -85 -60 13 -5 -33 -20
-28 22 52 22 26 17 6 -64

tfl.pseudo_qconst21 i1 [1, 5, 1, 32]
00000000: ceec f356 36c1 c023 fe71 f2b9 c6b6 8447
00000010: 7f98 d720 0581 017f 813a c381 53f9 d679
00000020: 8145 ff2f 7f25 e8b3 7f0a d901 ab81 814c
00000030: 74ed 1b41 b9cf 1723 c010 9d89 7f5f 9337
00000040: 8c7f 300a bb7f 3c81 67e3 be7f 81bf 83c7
00000050: 4b54 f837 8146 eeea 3381 811a fd25 2d93
00000060: cd4b c84a afdf 7f26 248a 251f b628 2a81
00000070: 5c28 8fae bf0c 81a3 0044 be28 bb25 7f82
00000080: 1aaa 817f 2ca6 e26b 0e81 7fc3 ec9b 75b6
00000090: 7e7f 8181 1d96 969c 9bfe 223d 2b7f c381
-50 -20 -13 86 54 -63 -64 35
-2 113 -14 -71 -58 -74 -124 71
127 -104 -41 32 5 -127 1 127
-127 58 -61 -127 83 -7 -42 121
-127 69 -1 47 127 37 -24 -77
127 10 -39 1 -85 -127 -127 76
116 -19 27 65 -71 -49 23 35
-64 16 -99 -119 127 95 -109 55
-116 127 48 10 -69 127 60 -127
103 -29 -66 127 -127 -65 -125 -57
75 84 -8 55 -127 70 -18 -22
51 -127 -127 26 -3 37 45 -109
-51 75 -56 74 -81 -33 127 38
36 -118 37 31 -74 40 42 -127
92 40 -113 -82 -65 12 -127 -93
0 68 -66 40 -69 37 127 -126
26 -86 -127 127 44 -90 -30 107
14 -127 127 -61 -20 -101 117 -74
126 127 -127 -127 29 -106 -106 -100
-101 -2 34 61 43 127 -61 -127

tfl.pseudo_qconst23 i1 [32, 5, 1, 40]
00000000: 29ac 1ce8 db15 fefb eef8 3913 0bea ecdc
00000010: 05dc 11e8 e9f0 0303 eac1 b8c0 dafa d8b5
00000020: a181 c0b2 dfb7 cfc8 2fb0 20d2 ef2b f9f2
00000030: e604 2718 10e4 e2bf 15f9 21fd f6f2 0310
00000040: e5d0 c0e2 f5f8 e5c6 dad0 e3c5 effd fefa
00000050: 4ca2 31d3 e82d 0009 f9f8 07da 07e6 cfde
00000060: 2729 2004 f80f e711 d5f7 ddf5 1e00 192b
00000070: ff1f 1bde ef1a f539 27c6 1dd6 d924 111f
00000080: 0e0d 08de f8eb dcf7 1121 1ee0 eb18 f819
00000090: fae5 ef18 4c19 280d 333c 5020 2621 2139
000000a0: 2eaa 29ba be1d f900 ff07 06df f211 c9ef
000000b0: 2025 1cf8 e001 f10c f8f9 df14 3a17 4b1a
000000c0: 453e 5117 1717 230d 0625 280e fd16 2c35
000000d0: 474d feef e5ea 1705 0f08 fcee d9eb f8e9
000000e0: e8df e6fd 12d2 edf1 d4e0 f7f0 f3f0 0d25
000000f0: f813 0bf1 0119 2b2e 3c4b 01f3 cde3 09ea
41 -84 28 -24 -37 21 -2 -5
-18 -8 57 19 11 -22 -20 -36
5 -36 17 -24 -23 -16 3 3
-22 -63 -72 -64 -38 -6 -40 -75
-95 -127 -64 -78 -33 -73 -49 -56
47 -80 32 -46 -17 43 -7 -14
-26 4 39 24 16 -28 -30 -65
21 -7 33 -3 -10 -14 3 16
-27 -48 -64 -30 -11 -8 -27 -58
-38 -48 -29 -59 -17 -3 -2 -6
76 -94 49 -45 -24 45 0 9
-7 -8 7 -38 7 -26 -49 -34
39 41 32 4 -8 15 -25 17
-43 -9 -35 -11 30 0 25 43
-1 31 27 -34 -17 26 -11 57
39 -58 29 -42 -39 36 17 31
14 13 8 -34 -8 -21 -36 -9
17 33 30 -32 -21 24 -8 25
-6 -27 -17 24 76 25 40 13
51 60 80 32 38 33 33 57
46 -86 41 -70 -66 29 -7 0
-1 7 6 -33 -14 17 -55 -17
32 37 28 -8 -32 1 -15 12
-8 -7 -33 20 58 23 75 26
69 62 81 23 23 23 35 13
6 37 40 14 -3 22 44 53
71 77 -2 -17 -27 -22 23 5
15 8 -4 -18 -39 -21 -8 -23
-24 -33 -26 -3 18 -46 -19 -15
-44 -32 -9 -16 -13 -16 13 37
-8 19 11 -15 1 25 43 46
60 75 1 -13 -51 -29 9 -22

tfl.pseudo_qconst24 i1 [1, 14, 1, 64] scale=0.052619524 zero_point=-128
00000000: 8080 8080 8080 8080 8080 8080 8080 8080
00000010: 8080 8080 8080 8080 8080 8080 8080 8080
00000020: 8080 8080 8080 8080 8080 8080 8080 8080
00000030: 8080 8080 8080 8080 8080 8080 8080 8080
00000040: 8080 8080 8080 8080 8080 8080 8080 8080
00000050: 8080 8080 8080 8080 8080 8080 8080 8080
00000060: 8080 8080 8080 8080 8080 8080 8080 8080
00000070: 8080 8080 8080 8080 8080 8080 8080 8080
00000080: 8080 8080 8080 8080 8080 8080 8080 8080
00000090: 8080 8080 8080 8080 8080 8080 8080 8080
000000a0: 8080 8080 8080 8080 8080 8080 8080 8080
000000b0: 8080 8080 8080 8080 8080 8080 8080 8080
000000c0: 8080 8080 8080 8080 8080 8080 8080 8080
000000d0: 8080 8080 8080 8080 8080 8080 8080 8080
000000e0: 8080 8080 8080 8080 8080 8080 8080 8080
000000f0: 8080 8080 8080 8080 8080 8080 8080 8080
0.0 0.0 0.0 0.0 0.0 0.0 0.0 0.0
0.0 0.0 0.0 0.0 0.0 0.0 0.0 0.0
0.0 0.0 0.0 0.0 0.0 0.0 0.0 0.0
0.0 0.0 0.0 0.0 0.0 0.0 0.0 0.0
0.0 0.0 0.0 0.0 0.0 0.0 0.0 0.0
0.0 0.0 0.0 0.0 0.0 0.0 0.0 0.0
0.0 0.0 0.0 0.0 0.0 0.0 0.0 0.0
0.0 0.0 0.0 0.0 0.0 0.0 0.0 0.0
0.0 0.0 0.0 0.0 0.0 0.0 0.0 0.0
0.0 0.0 0.0 0.0 0.0 0.0 0.0 0.0
0.0 0.0 0.0 0.0 0.0 0.0 0.0 0.0
0.0 0.0 0.0 0.0 0.0 0.0 0.0 0.0
0.0 0.0 0.0 0.0 0.0 0.0 0.0 0.0
0.0 0.0 0.0 0.0 0.0 0.0 0.0 0.0
0.0 0.0 0.0 0.0 0.0 0.0 0.0 0.0
0.0 0.0 0.0 0.0 0.0 0.0 0.0 0.0
0.0 0.0 0.0 0.0 0.0 0.0 0.0 0.0
0.0 0.0 0.0 0.0 0.0 0.0 0.0 0.0
0.0 0.0 0.0 0.0 0.0 0.0 0.0 0.0
0.0 0.0 0.0 0.0 0.0 0.0 0.0 0.0
0.0 0.0 0.0 0.0 0.0 0.0 0.0 0.0
0.0 0.0 0.0 0.0 0.0 0.0 0.0 0.0
0.0 0.0 0.0 0.0 0.0 0.0 0.0 0.0
0.0 0.0 0.0 0.0 0.0 0.0 0.0 0.0
0.0 0.0 0.0 0.0 0.0 0.0 0.0 0.0
0.0 0.0 0.0 0.0 0.0 0.0 0.0 0.0
0.0 0.0 0.0 0.0 0.0 0.0 0.0 0.0
0.0 0.0 0.0 0.0 0.0 0.0 0.0 0.0
0.0 0.0 0.0 0.0 0.0 0.0 0.0 0.0
0.0 0.0 0.0 0.0 0.0 0.0 0.0 0.0
0.0 0.0 0.0 0.0 0.0 0.0 0.0 0.0
0.0 0.0 0.0 0.0 0.0 0.0 0.0 0.0

tfl.pseudo_qconst25 i1 [1, 10, 1, 64] scale=0.042764936 zero_point=-128
00000000: 8080 8080 8080 8080 8080 8080 8080 8080
00000010: 8080 8080 8080 8080 8080 8080 8080 8080
00000020: 8080 8080 8080 8080 8080 8080 8080 8080
00000030: 8080 8080 8080 8080 8080 8080 8080 8080
00000040: 8080 8080 8080 8080 8080 8080 8080 8080
00000050: 8080 8080 8080 8080 8080 8080 8080 8080
00000060: 8080 8080 8080 8080 8080 8080 8080 8080
00000070: 8080 8080 8080 8080 8080 8080 8080 8080
00000080: 8080 8080 8080 8080 8080 8080 8080 8080
00000090: 8080 8080 8080 8080 8080 8080 8080 8080
000000a0: 8080 8080 8080 8080 8080 8080 8080 8080
000000b0: 8080 8080 8080 8080 8080 8080 8080 8080
000000c0: 8080 8080 8080 8080 8080 8080 8080 8080
000000d0: 8080 8080 8080 8080 8080 8080 8080 8080
000000e0: 8080 8080 8080 8080 8080 8080 8080 8080
000000f0: 8080 8080 8080 8080 8080 8080 8080 8080
0.0 0.0 0.0 0.0 0.0 0.0 0.0 0.0
0.0 0.0 0.0 0.0 0.0 0.0 0.0 0.0
0.0 0.0 0.0 0.0 0.0 0.0 0.0 0.0
0.0 0.0 0.0 0.0 0.0 0.0 0.0 0.0
0.0 0.0 0.0 0.0 0.0 0.0 0.0 0.0
0.0 0.0 0.0 0.0 0.0 0.0 0.0 0.0
0.0 0.0 0.0 0.0 0.0 0.0 0.0 0.0
0.0 0.0 0.0 0.0 0.0 0.0 0.0 0.0
0.0 0.0 0.0 0.0 0.0 0.0 0.0 0.0
0.0 0.0 0.0 0.0 0.0 0.0 0.0 0.0
0.0 0.0 0.0 0.0 0.0 0.0 0.0 0.0
0.0 0.0 0.0 0.0 0.0 0.0 0.0 0.0
0.0 0.0 0.0 0.0 0.0 0.0 0.0 0.0
0.0 0.0 0.0 0.0 0.0 0.0 0.0 0.0
0.0 0.0 0.0 0.0 0.0 0.0 0.0 0.0
0.0 0.0 0.0 0.0 0.0 0.0 0.0 0.0
0.0 0.0 0.0 0.0 0.0 0.0 0.0 0.0
0.0 0.0 0.0 0.0 0.0 0.0 0.0 0.0
0.0 0.0 0.0 0.0 0.0 0.0 0.0 0.0
0.0 0.0 0.0 0.0 0.0 0.0 0.0 0.0
0.0 0.0 0.0 0.0 0.0 0.0 0.0 0.0
0.0 0.0 0.0 0.0 0.0 0.0 0.0 0.0
0.0 0.0 0.0 0.0 0.0 0.0 0.0 0.0
0.0 0.0 0.0 0.0 0.0 0.0 0.0 0.0
0.0 0.0 0.0 0.0 0.0 0.0 0.0 0.0
0.0 0.0 0.0 0.0 0.0 0.0 0.0 0.0
0.0 0.0 0.0 0.0 0.0 0.0 0.0 0.0
0.0 0.0 0.0 0.0 0.0 0.0 0.0 0.0
0.0 0.0 0.0 0.0 0.0 0.0 0.0 0.0
0.0 0.0 0.0 0.0 0.0 0.0 0.0 0.0
0.0 0.0 0.0 0.0 0.0 0.0 0.0 0.0
0.0 0.0 0.0 0.0 0.0 0.0 0.0 0.0

tfl.pseudo_qconst26 i1 [1, 4, 1, 32] scale=2.9050846 zero_point=-128
00000000: 8080 8080 8080 8080 8080 8080 8080 8080
00000010: 8080 8080 8080 8080 8080 8080 8080 8080
00000020: 8080 8080 8080 8080 8080 8080 8080 8080
00000030: 8080 8080 8080 8080 8080 8080 8080 8080
00000040: 8080 8080 8080 8080 8080 8080 8080 8080
00000050: 8080 8080 8080 8080 8080 8080 8080 8080
00000060: 8080 8080 8080 8080 8080 8080 8080 8080
00000070: 8080 8080 8080 8080 8080 8080 8080 8080
0.0 0.0 0.0 0.0 0.0 0.0 0.0 0.0
0.0 0.0 0.0 0.0 0.0 0.0 0.0 0.0
0.0 0.0 0.0 0.0 0.0 0.0 0.0 0.0
0.0 0.0 0.0 0.0 0.0 0.0 0.0 0.0
0.0 0.0 0.0 0.0 0.0 0.0 0.0 0.0
0.0 0.0 0.0 0.0 0.0 0.0 0.0 0.0
0.0 0.0 0.0 0.0 0.0 0.0 0.0 0.0
0.0 0.0 0.0 0.0 0.0 0.0 0.0 0.0
0.0 0.0 0.0 0.0 0.0 0.0 0.0 0.0
0.0 0.0 0.0 0.0 0.0 0.0 0.0 0.0
0.0 0.0 0.0 0.0 0.0 0.0 0.0 0.0
0.0 0.0 0.0 0.0 0.0 0.0 0.0 0.0
0.0 0.0 0.0 0.0 0.0 0.0 0.0 0.0
0.0 0.0 0.0 0.0 0.0 0.0 0.0 0.0
0.0 0.0 0.0 0.0 0.0 0.0 0.0 0.0
0.0 0.0 0.0 0.0 0.0 0.0 0.0 0.0

tfl.pseudo_qconst27 i1 [1, 2, 1, 40] scale=0.101960786 zero_point=-128
00000000: 8080 8080 8080 8080 8080 8080 8080 8080
00000010: 8080 8080 8080 8080 8080 8080 8080 8080
00000020: 8080 8080 8080 8080 8080 8080 8080 8080
00000030: 8080 8080 8080 8080 8080 8080 8080 8080
00000040: 8080 8080 8080 8080 8080 8080 8080 8080
0.0 0.0 0.0 0.0 0.0 0.0 0.0 0.0
0.0 0.0 0.0 0.0 0.0 0.0 0.0 0.0
0.0 0.0 0.0 0.0 0.0 0.0 0.0 0.0
0.0 0.0 0.0 0.0 0.0 0.0 0.0 0.0
0.0 0.0 0.0 0.0 0.0 0.0 0.0 0.0
0.0 0.0 0.0 0.0 0.0 0.0 0.0 0.0
0.0 0.0 0.0 0.0 0.0 0.0 0.0 0.0
0.0 0.0 0.0 0.0 0.0 0.0 0.0 0.0
0.0 0.0 0.0 0.0 0.0 0.0 0.0 0.0
0.0 0.0 0.0 0.0 0.0 0.0 0.0 0.0

tfl.pseudo_qconst28 i1 [1, 16, 1, 64] scale=0.02649882 zero_point=-128
00000000: 8080 8080 8080 8080 8080 8080 8080 8080
00000010: 8080 8080 8080 8080 8080 8080 8080 8080
00000020: 8080 8080 8080 8080 8080 8080 8080 8080
00000030: 8080 8080 8080 8080 8080 8080 8080 8080
00000040: 8080 8080 8080 8080 8080 8080 8080 8080
00000050: 8080 8080 8080 8080 8080 8080 8080 8080
00000060: 8080 8080 8080 8080 8080 8080 8080 8080
00000070: 8080 8080 8080 8080 8080 8080 8080 8080
00000080: 8080 8080 8080 8080 8080 8080 8080 8080
00000090: 8080 8080 8080 8080 8080 8080 8080 8080
000000a0: 8080 8080 8080 8080 8080 8080 8080 8080
000000b0: 8080 8080 8080 8080 8080 8080 8080 8080
000000c0: 8080 8080 8080 8080 8080 8080 8080 8080
000000d0: 8080 8080 8080 8080 8080 8080 8080 8080
000000e0: 8080 8080 8080 8080 8080 8080 8080 8080
000000f0: 8080 8080 8080 8080 8080 8080 8080 8080
0.0 0.0 0.0 0.0 0.0 0.0 0.0 0.0
0.0 0.0 0.0 0.0 0.0 0.0 0.0 0.0
0.0 0.0 0.0 0.0 0.0 0.0 0.0 0.0
0.0 0.0 0.0 0.0 0.0 0.0 0.0 0.0
0.0 0.0 0.0 0.0 0.0 0.0 0.0 0.0
0.0 0.0 0.0 0.0 0.0 0.0 0.0 0.0
0.0 0.0 0.0 0.0 0.0 0.0 0.0 0.0
0.0 0.0 0.0 0.0 0.0 0.0 0.0 0.0
0.0 0.0 0.0 0.0 0.0 0.0 0.0 0.0
0.0 0.0 0.0 0.0 0.0 0.0 0.0 0.0
0.0 0.0 0.0 0.0 0.0 0.0 0.0 0.0
0.0 0.0 0.0 0.0 0.0 0.0 0.0 0.0
0.0 0.0 0.0 0.0 0.0 0.0 0.0 0.0
0.0 0.0 0.0 0.0 0.0 0.0 0.0 0.0
0.0 0.0 0.0 0.0 0.0 0.0 0.0 0.0
0.0 0.0 0.0 0.0 0.0 0.0 0.0 0.0
0.0 0.0 0.0 0.0 0.0 0.0 0.0 0.0
0.0 0.0 0.0 0.0 0.0 0.0 0.0 0.0
0.0 0.0 0.0 0.0 0.0 0.0 0.0 0.0
0.0 0.0 0.0 0.0 0.0 0.0 0.0 0.0
0.0 0.0 0.0 0.0 0.0 0.0 0.0 0.0
0.0 0.0 0.0 0.0 0.0 0.0 0.0 0.0
0.0 0.0 0.0 0.0 0.0 0.0 0.0 0.0
0.0 0.0 0.0 0.0 0.0 0.0 0.0 0.0
0.0 0.0 0.0 0.0 0.0 0.0 0.0 0.0
0.0 0.0 0.0 0.0 0.0 0.0 0.0 0.0
0.0 0.0 0.0 0.0 0.0 0.0 0.0 0.0
0.0 0.0 0.0 0.0 0.0 0.0 0.0 0.0
0.0 0.0 0.0 0.0 0.0 0.0 0.0 0.0
0.0 0.0 0.0 0.0 0.0 0.0 0.0 0.0
0.0 0.0 0.0 0.0 0.0 0.0 0.0 0.0
0.0 0.0 0.0 0.0 0.0 0.0 0.0 0.0

tfl.pseudo_qconst29 i1 [1, 22, 1, 64] scale=0.03797943 zero_point=-128
00000000: 8080 8080 8080 8080 8080 8080 8080 8080
00000010: 8080 8080 8080 8080 8080 8080 8080 8080
00000020: 8080 8080 8080 8080 8080 8080 8080 8080
00000030: 8080 8080 8080 8080 8080 8080 8080 8080
00000040: 8080 8080 8080 8080 8080 8080 8080 8080
00000050: 8080 8080 8080 8080 8080 8080 8080 8080
00000060: 8080 8080 8080 8080 8080 8080 8080 8080
00000070: 8080 8080 8080 8080 8080 8080 8080 8080
00000080: 8080 8080 8080 8080 8080 8080 8080 8080
00000090: 8080 8080 8080 8080 8080 8080 8080 8080
000000a0: 8080 8080 8080 8080 8080 8080 8080 8080
000000b0: 8080 8080 8080 8080 8080 8080 8080 8080
000000c0: 8080 8080 8080 8080 8080 8080 8080 8080
000000d0: 8080 8080 8080 8080 8080 8080 8080 8080
000000e0: 8080 8080 8080 8080 8080 8080 8080 8080
000000f0: 8080 8080 8080 8080 8080 8080 8080 8080
0.0 0.0 0.0 0.0 0.0 0.0 0.0 0.0
0.0 0.0 0.0 0.0 0.0 0.0 0.0 0.0
0.0 0.0 0.0 0.0 0.0 0.0 0.0 0.0
0.0 0.0 0.0 0.0 0.0 0.0 0.0 0.0
0.0 0.0 0.0 0.0 0.0 0.0 0.0 0.0
0.0 0.0 0.0 0.0 0.0 0.0 0.0 0.0
0.0 0.0 0.0 0.0 0.0 0.0 0.0 0.0
0.0 0.0 0.0 0.0 0.0 0.0 0.0 0.0
0.0 0.0 0.0 0.0 0.0 0.0 0.0 0.0
0.0 0.0 0.0 0.0 0.0 0.0 0.0 0.0
0.0 0.0 0.0 0.0 0.0 0.0 0.0 0.0
0.0 0.0 0.0 0.0 0.0 0.0 0.0 0.0
0.0 0.0 0.0 0.0 0.0 0.0 0.0 0.0
0.0 0.0 0.0 0.0 0.0 0.0 0.0 0.0
0.0 0.0 0.0 0.0 0.0 0.0 0.0 0.0
0.0 0.0 0.0 0.0 0.0 0.0 0.0 0.0
0.0 0.0 0.0 0.0 0.0 0.0 0.0 0.0
0.0 0.0 0.0 0.0 0.0 0.0 0.0 0.0
0.0 0.0 0.0 0.0 0.0 0.0 0.0 0.0
0.0 0.0 0.0 0.0 0.0 0.0 0.0 0.0
0.0 0.0 0.0 0.0 0.0 0.0 0.0 0.0
0.0 0.0 0.0 0.0 0.0 0.0 0.0 0.0
0.0 0.0 0.0 0.0 0.0 0.0 0.0 0.0
0.0 0.0 0.0 0.0 0.0 0.0 0.0 0.0
0.0 0.0 0.0 0.0 0.0 0.0 0.0 0.0
0.0 0.0 0.0 0.0 0.0 0.0 0.0 0.0
0.0 0.0 0.0 0.0 0.0 0.0 0.0 0.0
0.0 0.0 0.0 0.0 0.0 0.0 0.0 0.0
0.0 0.0 0.0 0.0 0.0 0.0 0.0 0.0
0.0 0.0 0.0 0.0 0.0 0.0 0.0 0.0
0.0 0.0 0.0 0.0 0.0 0.0 0.0 0.0
0.0 0.0 0.0 0.0 0.0 0.0 0.0 0.0
