models/v2/okay_nabu.tflite (tflite, 55984 bytes, 16 tensors)

model_1/dense_1/MatMul i1 [1, 576] scale=0.0034449676 zero_point=0
0	0xc1	-0.21703295
1	0xfa	-0.020669805
2	0xc1	-0.21703295
3	0xc8	-0.19291818
4	0xdf	-0.11368393
5	0xea	-0.07578929
6	0xec	-0.06889935
7	0x1c	0.09645909
8	0xe7	-0.08612419
9	0xf1	-0.051674515
10	0xef	-0.058564447
11	0xca	-0.18602824
12	0xbf	-0.2239229
13	0xe6	-0.08956916
14	0xdc	-0.12401883
15	0xe1	-0.10679399
16	0xc6	-0.19980812
17	0xf5	-0.037894644
18	0xcc	-0.17913832
19	0xd5	-0.1481336
20	0xb5	-0.25837258
21	0xaf	-0.27904236
22	0xfd	-0.010334902
23	0x09	0.031004708
24	0xfb	-0.017224837
25	0xe7	-0.08612419
26	0x02	0.006889935
27	0xc6	-0.19980812
28	0xf3	-0.04478458
29	0x05	0.017224837
30	0x26	0.13090877
31	0x28	0.1377987
32	0xd4	-0.15157858
33	0x1f	0.10679399
34	0xc9	-0.18947321
35	0xda	-0.13090877
36	0x18	0.08267922
37	0x06	0.020669805
38	0xea	-0.07578929
39	0xc3	-0.21014301
40	0xe9	-0.07923426
41	0xea	-0.07578929
42	0x14	0.06889935
43	0xd7	-0.14124367
44	0xdd	-0.12057386
45	0x17	0.07923426
46	0xe5	-0.09301412
47	0x0d	0.04478458
48	0xf2	-0.048229545
49	0xb6	-0.2549276
50	0xe1	-0.10679399
51	0x08	0.02755974
52	0x07	0.024114773
53	0x04	0.01377987
54	0x0d	0.04478458
55	0xb1	-0.27215242
56	0xde	-0.117128894
57	0xb1	-0.27215242
58	0x12	0.062009417
59	0x1a	0.08956916
60	0xc4	-0.20669806
61	0xd8	-0.1377987
62	0xd3	-0.15502355
63	0xce	-0.17224838
64	0xf1	-0.051674515
65	0xf8	-0.02755974
66	0xe7	-0.08612419
67	0xe2	-0.10334903
68	0xdd	-0.12057386
69	0xcf	-0.16880341
70	0x03	0.010334902
71	0x04	0.01377987
72	0xe4	-0.09645909
73	0x0c	0.04133961
74	0xe2	-0.10334903
75	0xf8	-0.02755974
76	0x10	0.05511948
77	0xd5	-0.1481336
78	0xf8	-0.02755974
79	0xe0	-0.11023896
80	0xf6	-0.034449674
81	0x09	0.031004708
82	0xd9	-0.13435374
83	0x07	0.024114773
84	0xd5	-0.1481336
85	0xe5	-0.09301412
86	0xed	-0.065454386
87	0x01	0.0034449676
88	0xe7	-0.08612419
89	0xff	-0.0034449676
90	0x02	0.006889935
91	0xf4	-0.04133961
92	0xd5	-0.1481336
93	0x0d	0.04478458
94	0x26	0.13090877
95	0xe5	-0.09301412
96	0xe2	-0.10334903
97	0x15	0.07234432
98	0xed	-0.065454386
99	0xf4	-0.04133961
100	0x12	0.062009417
101	0x08	0.02755974
102	0xfa	-0.020669805
103	0xf6	-0.034449674
104	0xfc	-0.01377987
105	0xf0	-0.05511948
106	0x0c	0.04133961
107	0x04	0.01377987
108	0xef	-0.058564447
109	0x17	0.07923426
110	0x06	0.020669805
111	0xeb	-0.07234432
112	0x02	0.006889935
113	0xdf	-0.11368393
114	0xde	-0.117128894
115	0x03	0.010334902
116	0x2c	0.15157858
117	0xe0	-0.11023896
118	0x0f	0.051674515
119	0xe4	-0.09645909
120	0x12	0.062009417
121	0xf2	-0.048229545
122	0x17	0.07923426
123	0x06	0.020669805
124	0x09	0.031004708
125	0x0f	0.051674515
126	0xfe	-0.006889935
127	0xef	-0.058564447
128	0xe5	-0.09301412
129	0x09	0.031004708
130	0xfc	-0.01377987
131	0xe6	-0.08956916
132	0xbf	-0.2239229
133	0xde	-0.117128894
134	0xe9	-0.07923426
135	0xf7	-0.031004708
136	0xfa	-0.020669805
137	0xff	-0.0034449676
138	0x12	0.062009417
139	0xf1	-0.051674515
140	0xe8	-0.08267922
141	0xd4	-0.15157858
142	0x14	0.06889935
143	0x06	0.020669805
144	0xdd	-0.12057386
145	0xf8	-0.02755974
146	0xf0	-0.05511948
147	0xfb	-0.017224837
148	0xec	-0.06889935
149	0x03	0.010334902
150	0xdc	-0.12401883
151	0x29	0.14124367
152	0xde	-0.117128894
153	0xee	-0.062009417
154	0xd8	-0.1377987
155	0xe1	-0.10679399
156	0xfd	-0.010334902
157	0xff	-0.0034449676
158	0xf1	-0.051674515
159	0x06	0.020669805
160	0x04	0.01377987
161	0x06	0.020669805
162	0xfb	-0.017224837
163	0xf2	-0.048229545
164	0xe6	-0.08956916
165	0x08	0.02755974
166	0x0f	0.051674515
167	0x00	0.0
168	0xe7	-0.08612419
169	0x12	0.062009417
170	0x06	0.020669805
171	0x01	0.0034449676
172	0xdb	-0.1274638
173	0x02	0.006889935
174	0x18	0.08267922
175	0x08	0.02755974
176	0x16	0.07578929
177	0xf3	-0.04478458
178	0xef	-0.058564447
179	0x07	0.024114773
180	0x16	0.07578929
181	0xeb	-0.07234432
182	0xfe	-0.006889935
183	0xf0	-0.05511948
184	0xf7	-0.031004708
185	0xfb	-0.017224837
186	0xf0	-0.05511948
187	0x02	0.006889935
188	0xde	-0.117128894
189	0x05	0.017224837
190	0xe1	-0.10679399
191	0xf4	-0.04133961
192	0xe4	-0.09645909
193	0xd8	-0.1377987
194	0x05	0.017224837
195	0x01	0.0034449676
196	0xd5	-0.1481336
197	0xef	-0.058564447
198	0xf2	-0.048229545
199	0x02	0.006889935
200	0xf9	-0.024114773
201	0x13	0.065454386
202	0xe8	-0.08267922
203	0xd8	-0.1377987
204	0xfd	-0.010334902
205	0xfa	-0.020669805
206	0x19	0.08612419
207	0xe6	-0.08956916
208	0xd8	-0.1377987
209	0xea	-0.07578929
210	0xfe	-0.006889935
211	0x11	0.058564447
212	0xe0	-0.11023896
213	0xf9	-0.024114773
214	0xe0	-0.11023896
215	0x29	0.14124367
216	0xeb	-0.07234432
217	0xe6	-0.08956916
218	0xfc	-0.01377987
219	0xfc	-0.01377987
220	0xf7	-0.031004708
221	0xd8	-0.1377987
222	0x25	0.1274638
223	0x0f	0.051674515
224	0xe5	-0.09301412
225	0x00	0.0
226	0xf3	-0.04478458
227	0x00	0.0
228	0x08	0.02755974
229	0xed	-0.065454386
230	0xe9	-0.07923426
231	0x12	0.062009417
232	0xdc	-0.12401883
233	0xeb	-0.07234432
234	0xf7	-0.031004708
235	0x0f	0.051674515
236	0xe1	-0.10679399
237	0x07	0.024114773
238	0xf3	-0.04478458
239	0x10	0.05511948
240	0x0f	0.051674515
241	0xe3	-0.09990406
242	0xf8	-0.02755974
243	0xf3	-0.04478458
244	0xfb	-0.017224837
245	0xe8	-0.08267922
246	0x1c	0.09645909
247	0xe2	-0.10334903
248	0x00	0.0
249	0xe7	-0.08612419
250	0xed	-0.065454386
251	0x18	0.08267922
252	0xe9	-0.07923426
253	0x01	0.0034449676
254	0xf8	-0.02755974
255	0xfd	-0.010334902

model_1/conv2d_9/Conv2D i1 [64, 1, 1, 64]
0	0x10	16
1	0xf4	-12
2	0xf6	-10
3	0x81	-127
4	0x19	25
5	0xfc	-4
6	0xfb	-5
7	0x6e	110
8	0x6f	111
9	0x36	54
10	0x1c	28
11	0xfc	-4
12	0xef	-17
13	0x06	6
14	0xf3	-13
15	0xf5	-11
16	0xf7	-9
17	0xba	-70
18	0x99	-103
19	0x1e	30
20	0x05	5
21	0xdc	-36
22	0xc8	-56
23	0xd8	-40
24	0x02	2
25	0x2a	42
26	0xc6	-58
27	0xda	-38
28	0xc2	-62
29	0x18	24
30	0xe7	-25
31	0x04	4
32	0xe9	-23
33	0xdd	-35
34	0x69	105
35	0xe7	-25
36	0x11	17
37	0xf1	-15
38	0xde	-34
39	0x02	2
40	0x05	5
41	0x62	98
42	0xc9	-55
43	0xed	-19
44	0x16	22
45	0x22	34
46	0x1f	31
47	0x0a	10
48	0xcf	-49
49	0x1f	31
50	0x26	38
51	0x14	20
52	0xb5	-75
53	0xeb	-21
54	0x27	39
55	0xf8	-8
56	0xf7	-9
57	0x06	6
58	0x02	2
59	0x2c	44
60	0x08	8
61	0xbd	-67
62	0xfc	-4
63	0xca	-54
64	0xfa	-6
65	0x02	2
66	0xcd	-51
67	0xda	-38
68	0x42	66
69	0x1e	30
70	0xd0	-48
71	0x61	97
72	0x38	56
73	0x2b	43
74	0x21	33
75	0xeb	-21
76	0x19	25
77	0xf0	-16
78	0x5a	90
79	0x63	99
80	0x59	89
81	0x25	37
82	0xc4	-60
83	0xf7	-9
84	0xbb	-69
85	0x23	35
86	0xfd	-3
87	0xf9	-7
88	0xaa	-86
89	0x29	41
90	0xd6	-42
91	0xb2	-78
92	0xe4	-28
93	0xee	-18
94	0x01	1
95	0x38	56
96	0xac	-84
97	0x11	17
98	0x23	35
99	0x9f	-97
100	0xe7	-25
101	0x0f	15
102	0x16	22
103	0x1a	26
104	0xa0	-96
105	0x35	53
106	0x38	56
107	0xa2	-94
108	0x7f	127
109	0x02	2
110	0x43	67
111	0x11	17
112	0xc9	-55
113	0xff	-1
114	0x3f	63
115	0x21	33
116	0xb2	-78
117	0xd5	-43
118	0xae	-82
119	0xaa	-86
120	0xfe	-2
121	0xf1	-15
122	0x46	70
123	0x19	25
124	0x22	34
125	0xff	-1
126	0x11	17
127	0x21	33
128	0xe1	-31
129	0xd1	-47
130	0x18	24
131	0x81	-127
132	0x20	32
133	0xca	-54
134	0x2f	47
135	0x33	51
136	0x20	32
137	0x27	39
138	0x24	36
139	0xf9	-7
140	0x20	32
141	0xe8	-24
142	0x05	5
143	0x4f	79
144	0xe9	-23
145	0x2f	47
146	0x0e	14
147	0x25	37
148	0xeb	-21
149	0x57	87
150	0xbf	-65
151	0xf1	-15
152	0x26	38
153	0x5b	91
154	0x3a	58
155	0x1e	30
156	0x06	6
157	0xb9	-71
158	0x2f	47
159	0x0c	12
160	0x1f	31
161	0xe2	-30
162	0xd9	-39
163	0xe6	-26
164	0xd6	-42
165	0xe0	-32
166	0xcd	-51
167	0x16	22
168	0xd8	-40
169	0xf2	-14
170	0xb7	-73
171	0xb2	-78
172	0x38	56
173	0x3e	62
174	0x25	37
175	0x07	7
176	0x56	86
177	0x3b	59
178	0x0a	10
179	0x1c	28
180	0xce	-50
181	0xf8	-8
182	0x9a	-102
183	0xa0	-96
184	0xfe	-2
185	0xff	-1
186	0x20	32
187	0xff	-1
188	0xf0	-16
189	0xd7	-41
190	0x45	69
191	0x05	5
192	0xc9	-55
193	0xfb	-5
194	0x3b	59
195	0xd6	-42
196	0x27	39
197	0xc1	-63
198	0x1d	29
199	0x0d	13
200	0xd6	-42
201	0x34	52
202	0x97	-105
203	0x00	0
204	0x58	88
205	0xe1	-31
206	0xea	-22
207	0x7f	127
208	0x30	48
209	0x04	4
210	0x42	66
211	0xf5	-11
212	0xc8	-56
213	0x3e	62
214	0x5d	93
215	0xed	-19
216	0x54	84
217	0xbb	-69
218	0x15	21
219	0x52	82
220	0x11	17
221	0xf2	-14
222	0xc9	-55
223	0x4b	75
224	0xb9	-71
225	0xe1	-31
226	0xcd	-51
227	0x9f	-97
228	0xe7	-25
229	0xdd	-35
230	0x00	0
231	0xe7	-25
232	0xfe	-2
233	0x15	21
234	0x35	53
235	0xf4	-12
236	0xf3	-13
237	0xe3	-29
238	0x4a	74
239	0xfc	-4
240	0x12	18
241	0xfd	-3
242	0x22	34
243	0x2c	44
244	0xf2	-14
245	0xc4	-60
246	0x22	34
247	0x53	83
248	0x06	6
249	0x31	49
250	0xb5	-75
251	0x09	9
252	0xe8	-24
253	0xfa	-6
254	0xfa	-6
255	0x1c	28

model_1/depthwise_conv2d_7/depthwise i1 [1, 21, 1, 64]
0	0xdd	-35
1	0x81	-127
2	0x7f	127
3	0x1e	30
4	0x07	7
5	0x6c	108
6	0x6b	107
7	0x81	-127
8	0x7f	127
9	0xee	-18
10	0xe7	-25
11	0x08	8
12	0x7f	127
13	0xa5	-91
14	0x47	71
15	0xb5	-75
16	0xd3	-45
17	0xc3	-61
18	0x89	-119
19	0xac	-84
20	0x14	20
21	0x3c	60
22	0x7f	127
23	0xed	-19
24	0x7f	127
25	0x81	-127
26	0xae	-82
27	0x7f	127
28	0xb9	-71
29	0x45	69
30	0x7f	127
31	0x25	37
32	0xda	-38
33	0x7f	127
34	0xd5	-43
35	0xfb	-5
36	0xb1	-79
37	0xf3	-13
38	0xe1	-31
39	0xbd	-67
40	0x7f	127
41	0x75	117
42	0x81	-127
43	0x02	2
44	0xbf	-65
45	0x02	2
46	0xf2	-14
47	0x23	35
48	0x7f	127
49	0xb4	-76
50	0x61	97
51	0xe6	-26
52	0xff	-1
53	0xda	-38
54	0x02	2
55	0x02	2
56	0x7f	127
57	0x81	-127
58	0x9b	-101
59	0x7f	127
60	0x6f	111
61	0x14	20
62	0x05	5
63	0x81	-127
64	0xd2	-46
65	0xc7	-57
66	0x65	101
67	0x15	21
68	0x64	100
69	0x74	116
70	0x7e	126
71	0xda	-38
72	0x69	105
73	0xe0	-32
74	0xf2	-14
75	0xf0	-16
76	0x3a	58
77	0x1a	26
78	0x46	70
79	0xb3	-77
80	0xf6	-10
81	0xf4	-12
82	0x81	-127
83	0xc1	-63
84	0x07	7
85	0x1c	28
86	0x66	102
87	0x4e	78
88	0x6f	111
89	0x8f	-113
90	0xa7	-89
91	0x43	67
92	0x90	-112
93	0x6b	107
94	0x35	53
95	0x11	17
96	0xf5	-11
97	0x52	82
98	0xd6	-42
99	0x0a	10
100	0xa9	-87
101	0x1b	27
102	0xf4	-12
103	0xff	-1
104	0x5d	93
105	0x33	51
106	0xb3	-77
107	0xd4	-44
108	0xc7	-57
109	0x1e	30
110	0xea	-22
111	0x3a	58
112	0x1a	26
113	0xd9	-39
114	0x1a	26
115	0x06	6
116	0x02	2
117	0xbf	-65
118	0x2a	42
119	0xf1	-15
120	0x3e	62
121	0xa7	-89
122	0xbf	-65
123	0xed	-19
124	0x7f	127
125	0x24	36
126	0xd3	-45
127	0x9d	-99
128	0x28	40
129	0xd1	-47
130	0x1d	29
131	0x24	36
132	0x61	97
133	0x42	66
134	0x74	116
135	0xf3	-13
136	0x40	64
137	0xe3	-29
138	0xf2	-14
139	0xe2	-30
140	0x1f	31
141	0xc9	-55
142	0x3f	63
143	0xa7	-89
144	0x02	2
145	0xef	-17
146	0xa9	-87
147	0xbc	-68
148	0x13	19
149	0x2a	42
150	0x43	67
151	0x2c	44
152	0x45	69
153	0x8a	-118
154	0x8b	-117
155	0xfa	-6
156	0x93	-109
157	0xdf	-33
158	0xf0	-16
159	0xfd	-3
160	0xe8	-24
161	0x5f	95
162	0xf5	-11
163	0x06	6
164	0xc2	-62
165	0x20	32
166	0xeb	-21
167	0xf4	-12
168	0x40	64
169	0x1e	30
170	0x9a	-102
171	0xd7	-41
172	0xe1	-31
173	0x19	25
174	0xe1	-31
175	0x12	18
176	0x3f	63
177	0xd3	-45
178	0x32	50
179	0xfe	-2
180	0x43	67
181	0xc2	-62
182	0x3c	60
183	0x0f	15
184	0xf3	-13
185	0xec	-20
186	0xe2	-30
187	0xbb	-69
188	0x3b	59
189	0x13	19
190	0x00	0
191	0xb6	-74
192	0xf3	-13
193	0xd9	-39
194	0x0a	10
195	0x00	0
196	0x53	83
197	0x25	37
198	0x15	21
199	0xf0	-16
200	0x23	35
201	0xe9	-23
202	0x04	4
203	0xe1	-31
204	0xd7	-41
205	0x60	96
206	0x28	40
207	0xa4	-92
208	0xfb	-5
209	0x0f	15
210	0xec	-20
211	0xb9	-71
212	0x15	21
213	0x16	22
214	0x58	88
215	0x44	68
216	0x10	16
217	0xc8	-56
218	0xb8	-72
219	0xbb	-69
220	0xa8	-88
221	0xff	-1
222	0xdb	-37
223	0xb7	-73
224	0xfb	-5
225	0x14	20
226	0x1f	31
227	0x08	8
228	0xae	-82
229	0x21	33
230	0xbd	-67
231	0x29	41
232	0x5a	90
233	0x0e	14
234	0xf1	-15
235	0xe2	-30
236	0xdc	-36
237	0x34	52
238	0xf4	-12
239	0xc7	-57
240	0x41	65
241	0x02	2
242	0x13	19
243	0x15	21
244	0x60	96
245	0xf7	-9
246	0x32	50
247	0x3c	60
248	0xf4	-12
249	0xdd	-35
250	0xf0	-16
251	0xc3	-61
252	0xf9	-7
253	0x13	19
254	0xe7	-25
255	0xcd	-51

model_1/conv2d_8/Conv2D i1 [64, 1, 1, 64]
0	0xeb	-21
1	0xf6	-10
2	0x0d	13
3	0xfb	-5
4	0x11	17
5	0x13	19
6	0xdb	-37
7	0x04	4
8	0x2a	42
9	0xd6	-42
10	0x04	4
11	0x1f	31
12	0xea	-22
13	0xc0	-64
14	0x11	17
15	0xdf	-33
16	0xcc	-52
17	0xea	-22
18	0x10	16
19	0xf9	-7
20	0xf8	-8
21	0xd5	-43
22	0xf7	-9
23	0xf1	-15
24	0x16	22
25	0x23	35
26	0xe1	-31
27	0x0c	12
28	0xec	-20
29	0x40	64
30	0xf3	-13
31	0x46	70
32	0x7f	127
33	0x40	64
34	0xf9	-7
35	0x0a	10
36	0xdf	-33
37	0xef	-17
38	0x09	9
39	0x1f	31
40	0x21	33
41	0xea	-22
42	0x37	55
43	0xde	-34
44	0xf0	-16
45	0xe3	-29
46	0xdf	-33
47	0xff	-1
48	0xe5	-27
49	0x12	18
50	0x30	48
51	0x18	24
52	0x0a	10
53	0xf0	-16
54	0x1a	26
55	0x15	21
56	0x09	9
57	0xe8	-24
58	0xf2	-14
59	0xfd	-3
60	0x40	64
61	0xe7	-25
62	0xdd	-35
63	0x01	1
64	0x39	57
65	0x1e	30
66	0xef	-17
67	0x23	35
68	0xbc	-68
69	0x2d	45
70	0x0e	14
71	0x17	23
72	0x0e	14
73	0x41	65
74	0xe9	-23
75	0xe6	-26
76	0xf9	-7
77	0x48	72
78	0x21	33
79	0xfe	-2
80	0xe6	-26
81	0x83	-125
82	0x09	9
83	0x12	18
84	0xdb	-37
85	0xd2	-46
86	0xae	-82
87	0x0c	12
88	0x1c	28
89	0x04	4
90	0x52	82
91	0xfc	-4
92	0x1f	31
93	0xad	-83
94	0x61	97
95	0x08	8
96	0xe9	-23
97	0x13	19
98	0xec	-20
99	0x46	70
100	0x00	0
101	0x0e	14
102	0x0d	13
103	0xfb	-5
104	0xca	-54
105	0x06	6
106	0xe4	-28
107	0xf6	-10
108	0x4e	78
109	0x1f	31
110	0xea	-22
111	0x39	57
112	0x01	1
113	0x37	55
114	0xe5	-27
115	0xf7	-9
116	0x02	2
117	0x2e	46
118	0x38	56
119	0xda	-38
120	0xd0	-48
121	0xf6	-10
122	0x0c	12
123	0xef	-17
124	0xd3	-45
125	0x7f	127
126	0x3b	59
127	0xe6	-26
128	0x2d	45
129	0x6d	109
130	0xe9	-23
131	0x18	24
132	0x1e	30
133	0x16	22
134	0x07	7
135	0xa9	-87
136	0x41	65
137	0xb4	-76
138	0xfb	-5
139	0xaa	-86
140	0xac	-84
141	0xea	-22
142	0x40	64
143	0xc9	-55
144	0x2d	45
145	0x09	9
146	0x17	23
147	0x52	82
148	0xfb	-5
149	0x8e	-114
150	0xe8	-24
151	0xdd	-35
152	0xb1	-79
153	0x6b	107
154	0x91	-111
155	0xcd	-51
156	0xf9	-7
157	0x1c	28
158	0x9e	-98
159	0x25	37
160	0x00	0
161	0x10	16
162	0xd0	-48
163	0x81	-127
164	0x89	-119
165	0x26	38
166	0x25	37
167	0xce	-50
168	0x1f	31
169	0x03	3
170	0x3b	59
171	0xe2	-30
172	0x06	6
173	0xcb	-53
174	0xfa	-6
175	0x50	80
176	0x0c	12
177	0x1e	30
178	0xc8	-56
179	0x6b	107
180	0xb2	-78
181	0x2e	46
182	0x02	2
183	0x1e	30
184	0xc1	-63
185	0x04	4
186	0x56	86
187	0x0a	10
188	0x4a	74
189	0x26	38
190	0xf9	-7
191	0xf4	-12
192	0x3c	60
193	0xd1	-47
194	0x57	87
195	0x60	96
196	0xbf	-65
197	0xd6	-42
198	0xf4	-12
199	0xbd	-67
200	0x3b	59
201	0x23	35
202	0xe2	-30
203	0xf8	-8
204	0x94	-108
205	0xd2	-46
206	0x66	102
207	0x6d	109
208	0xf4	-12
209	0x46	70
210	0xcc	-52
211	0x0d	13
212	0x40	64
213	0x40	64
214	0x1e	30
215	0x00	0
216	0xfe	-2
217	0xa4	-92
218	0x71	113
219	0xfe	-2
220	0xdc	-36
221	0x69	105
222	0x47	71
223	0x39	57
224	0x5d	93
225	0xac	-84
226	0x98	-104
227	0x0b	11
228	0xed	-19
229	0xed	-19
230	0x5a	90
231	0x2b	43
232	0x2c	44
233	0x48	72
234	0xfb	-5
235	0x28	40
236	0x00	0
237	0x4a	74
238	0xcf	-49
239	0x18	24
240	0xb4	-76
241	0xfa	-6
242	0x24	36
243	0x58	88
244	0x70	112
245	0x70	112
246	0x34	52
247	0x16	22
248	0xc3	-61
249	0x48	72
250	0x4c	76
251	0x39	57
252	0x4f	79
253	0xd9	-39
254	0x7f	127
255	0x04	4

model_1/depthwise_conv2d_6/depthwise i1 [1, 13, 1, 64]
0	0xbb	-69
1	0x81	-127
2	0xc8	-56
3	0xcb	-53
4	0x19	25
5	0x81	-127
6	0x0d	13
7	0x55	85
8	0x79	121
9	0xb2	-78
10	0x00	0
11	0x87	-121
12	0x4d	77
13	0xac	-84
14	0xf5	-11
15	0xed	-19
16	0xf8	-8
17	0x81	-127
18	0x19	25
19	0xef	-17
20	0x81	-127
21	0x81	-127
22	0x81	-127
23	0xd8	-40
24	0xea	-22
25	0xf2	-14
26	0xc0	-64
27	0x3c	60
28	0x02	2
29	0x81	-127
30	0x37	55
31	0xe8	-24
32	0xc2	-62
33	0xd5	-43
34	0xd7	-41
35	0x81	-127
36	0x3d	61
37	0x71	113
38	0x02	2
39	0x2a	42
40	0x7f	127
41	0x56	86
42	0x6f	111
43	0x61	97
44	0x50	80
45	0x04	4
46	0xe5	-27
47	0x7f	127
48	0xde	-34
49	0x08	8
50	0x2a	42
51	0x7f	127
52	0xb3	-77
53	0xeb	-21
54	0x9f	-97
55	0x0f	15
56	0x25	37
57	0x0b	11
58	0x08	8
59	0xfc	-4
60	0x86	-122
61	0x7f	127
62	0x55	85
63	0x1c	28
64	0xee	-18
65	0xab	-85
66	0xaa	-86
67	0xba	-70
68	0x43	67
69	0xaf	-81
70	0x00	0
71	0x2a	42
72	0x7f	127
73	0xb9	-71
74	0x09	9
75	0x81	-127
76	0x29	41
77	0xc0	-64
78	0xf0	-16
79	0xe2	-30
80	0xea	-22
81	0xbb	-69
82	0x49	73
83	0xff	-1
84	0xc6	-58
85	0x25	37
86	0xe5	-27
87	0x06	6
88	0xea	-22
89	0xd3	-45
90	0xcd	-51
91	0xf5	-11
92	0xf1	-15
93	0x8a	-118
94	0x2d	45
95	0xfc	-4
96	0xec	-20
97	0xd2	-46
98	0x25	37
99	0x8c	-116
100	0x73	115
101	0x57	87
102	0x31	49
103	0x28	40
104	0x61	97
105	0x39	57
106	0x2b	43
107	0x7f	127
108	0x7f	127
109	0x04	4
110	0xf6	-10
111	0x3c	60
112	0xff	-1
113	0xfe	-2
114	0x2a	42
115	0x70	112
116	0xab	-85
117	0x14	20
118	0xea	-22
119	0x41	65
120	0xe7	-25
121	0xec	-20
122	0x0a	10
123	0x10	16
124	0xb4	-76
125	0x46	70
126	0x37	55
127	0x8c	-116
128	0x18	24
129	0xde	-34
130	0xb3	-77
131	0xcf	-49
132	0x23	35
133	0xba	-70
134	0x04	4
135	0x7f	127
136	0x43	67
137	0xb5	-75
138	0x05	5
139	0xa0	-96
140	0x0c	12
141	0xc1	-63
142	0x09	9
143	0xe8	-24
144	0x07	7
145	0xb3	-77
146	0xeb	-21
147	0xf9	-7
148	0xa5	-91
149	0xf8	-8
150	0x07	7
151	0x3a	58
152	0xf5	-11
153	0xe4	-28
154	0xdf	-33
155	0x15	21
156	0x04	4
157	0x87	-121
158	0x23	35
159	0xe1	-31
160	0x0d	13
161	0xc6	-58
162	0x29	41
163	0x95	-107
164	0x4c	76
165	0x6c	108
166	0xfb	-5
167	0x18	24
168	0x1f	31
169	0x1d	29
170	0x53	83
171	0x4c	76
172	0x6a	106
173	0x07	7
174	0x83	-125
175	0x01	1
176	0xe8	-24
177	0xea	-22
178	0x16	22
179	0x5b	91
180	0xd8	-40
181	0x14	20
182	0xef	-17
183	0xf4	-12
184	0xfd	-3
185	0xda	-38
186	0xfb	-5
187	0x29	41
188	0x81	-127
189	0x32	50
190	0x30	48
191	0xfb	-5
192	0x29	41
193	0xcc	-52
194	0xa3	-93
195	0xe5	-27
196	0x30	48
197	0xe1	-31
198	0x01	1
199	0x35	53
200	0x56	86
201	0xc7	-57
202	0xf3	-13
203	0xc5	-59
204	0x2b	43
205	0xfa	-6
206	0x17	23
207	0x0b	11
208	0x06	6
209	0xca	-54
210	0x23	35
211	0xe3	-29
212	0xf4	-12
213	0x19	25
214	0x19	25
215	0x1e	30
216	0xe5	-27
217	0x03	3
218	0x0f	15
219	0x19	25
220	0x11	17
221	0xe4	-28
222	0x13	19
223	0x05	5
224	0x03	3
225	0x2a	42
226	0x50	80
227	0xb8	-72
228	0x7f	127
229	0x6c	108
230	0x03	3
231	0x3a	58
232	0x4b	75
233	0x00	0
234	0x45	69
235	0x60	96
236	0x54	84
237	0xee	-18
238	0x9e	-98
239	0xf1	-15
240	0xe4	-28
241	0x1c	28
242	0x0a	10
243	0x68	104
244	0xbd	-67
245	0x36	54
246	0x1e	30
247	0xeb	-21
248	0x69	105
249	0xd0	-48
250	0xf4	-12
251	0x26	38
252	0xfc	-4
253	0x1c	28
254	0x68	104
255	0x08	8

model_1/conv2d_7/Conv2D i1 [64, 1, 1, 64]
0	0x26	38
1	0x0c	12
2	0xe0	-32
3	0xbb	-69
4	0xad	-83
5	0xe1	-31
6	0x45	69
7	0xf5	-11
8	0xf0	-16
9	0xbf	-65
10	0xae	-82
11	0x41	65
12	0xef	-17
13	0x0f	15
14	0xc5	-59
15	0x3b	59
16	0x41	65
17	0xd2	-46
18	0xc6	-58
19	0xe1	-31
20	0x1d	29
21	0xd6	-42
22	0x08	8
23	0x08	8
24	0x26	38
25	0x22	34
26	0xec	-20
27	0xf3	-13
28	0x23	35
29	0xe6	-26
30	0xf2	-14
31	0x1a	26
32	0x27	39
33	0xfa	-6
34	0x07	7
35	0x03	3
36	0xdb	-37
37	0xe9	-23
38	0xcb	-53
39	0x7f	127
40	0xb2	-78
41	0xd6	-42
42	0xbe	-66
43	0x3b	59
44	0x55	85
45	0xf9	-7
46	0xea	-22
47	0x09	9
48	0xed	-19
49	0xeb	-21
50	0x5f	95
51	0xeb	-21
52	0xdd	-35
53	0xd5	-43
54	0x0f	15
55	0x40	64
56	0x13	19
57	0xdd	-35
58	0xfc	-4
59	0x07	7
60	0xb2	-78
61	0xe2	-30
62	0x19	25
63	0x0d	13
64	0x53	83
65	0xca	-54
66	0xb8	-72
67	0x4d	77
68	0x81	-127
69	0x08	8
70	0xcd	-51
71	0x15	21
72	0x03	3
73	0xee	-18
74	0x14	20
75	0xfd	-3
76	0xd4	-44
77	0x34	52
78	0x05	5
79	0x1e	30
80	0xef	-17
81	0x08	8
82	0x3a	58
83	0x02	2
84	0xce	-50
85	0xf4	-12
86	0xe8	-24
87	0x3f	63
88	0x1e	30
89	0xdc	-36
90	0xea	-22
91	0x2c	44
92	0x16	22
93	0xcf	-49
94	0xaf	-81
95	0x16	22
96	0xf6	-10
97	0xc3	-61
98	0xc5	-59
99	0xe4	-28
100	0xe0	-32
101	0xf4	-12
102	0x07	7
103	0x04	4
104	0xf4	-12
105	0xf4	-12
106	0xd4	-44
107	0x0b	11
108	0x6b	107
109	0x14	20
110	0x23	35
111	0xc2	-62
112	0xd5	-43
113	0x24	36
114	0xb0	-80
115	0xd6	-42
116	0x0f	15
117	0x32	50
118	0x17	23
119	0xed	-19
120	0xf0	-16
121	0xe6	-26
122	0xc0	-64
123	0x51	81
124	0xf2	-14
125	0x49	73
126	0xdd	-35
127	0x4a	74
128	0x3c	60
129	0x11	17
130	0xd7	-41
131	0xf5	-11
132	0xf6	-10
133	0xfd	-3
134	0x59	89
135	0x0d	13
136	0x3f	63
137	0xf0	-16
138	0xa2	-94
139	0x1a	26
140	0xb8	-72
141	0xf9	-7
142	0x0b	11
143	0x2f	47
144	0x98	-104
145	0xcc	-52
146	0x35	53
147	0xe1	-31
148	0x20	32
149	0xe9	-23
150	0x2b	43
151	0xd2	-46
152	0x06	6
153	0x02	2
154	0x12	18
155	0xae	-82
156	0xed	-19
157	0xd9	-39
158	0x00	0
159	0x32	50
160	0x3e	62
161	0xfd	-3
162	0xf9	-7
163	0x16	22
164	0xf0	-16
165	0x50	80
166	0xb4	-76
167	0x53	83
168	0xc7	-57
169	0x14	20
170	0x9e	-98
171	0x03	3
172	0xf7	-9
173	0xc0	-64
174	0xeb	-21
175	0xf8	-8
176	0xe5	-27
177	0x81	-127
178	0x2d	45
179	0x17	23
180	0xbb	-69
181	0xd0	-48
182	0x14	20
183	0x40	64
184	0x3e	62
185	0xe0	-32
186	0xbd	-67
187	0x16	22
188	0x0a	10
189	0x02	2
190	0xe4	-28
191	0xe4	-28
192	0x4e	78
193	0xaf	-81
194	0x0d	13
195	0xf3	-13
196	0x43	67
197	0x19	25
198	0xb7	-73
199	0xfb	-5
200	0xfd	-3
201	0x0d	13
202	0x07	7
203	0x2b	43
204	0x8f	-113
205	0x22	34
206	0xee	-18
207	0x05	5
208	0xbc	-68
209	0x1a	26
210	0x20	32
211	0xf7	-9
212	0xec	-20
213	0x01	1
214	0x14	20
215	0x1c	28
216	0x13	19
217	0xee	-18
218	0x1f	31
219	0x07	7
220	0xa9	-87
221	0x68	104
222	0x0c	12
223	0xdb	-37
224	0xff	-1
225	0x17	23
226	0x4d	77
227	0xcc	-52
228	0xf3	-13
229	0x26	38
230	0xe3	-29
231	0xf5	-11
232	0xf6	-10
233	0xfe	-2
234	0xc8	-56
235	0x2b	43
236	0xbc	-68
237	0x35	53
238	0xd7	-41
239	0xdb	-37
240	0x02	2
241	0x07	7
242	0x28	40
243	0x2e	46
244	0x1a	26
245	0xdc	-36
246	0xfa	-6
247	0xfa	-6
248	0x02	2
249	0xd2	-46
250	0x6a	106
251	0xe5	-27
252	0x81	-127
253	0x47	71
254	0x07	7
255	0xea	-22

model_1/depthwise_conv2d_5/depthwise i1 [1, 9, 1, 64]
0	0xed	-19
1	0xc1	-63
2	0x7f	127
3	0x0a	10
4	0x7f	127
5	0xfc	-4
6	0xfe	-2
7	0xf8	-8
8	0x26	38
9	0x4b	75
10	0x7f	127
11	0x0a	10
12	0xf3	-13
13	0xf9	-7
14	0xdb	-37
15	0x14	20
16	0x31	49
17	0x15	21
18	0x11	17
19	0x01	1
20	0x7f	127
21	0xce	-50
22	0x9c	-100
23	0x38	56
24	0x7f	127
25	0x81	-127
26	0xb7	-73
27	0x82	-126
28	0xe8	-24
29	0xb9	-71
30	0x16	22
31	0x3f	63
32	0x1f	31
33	0x7f	127
34	0x45	69
35	0x0c	12
36	0xd9	-39
37	0xdd	-35
38	0x41	65
39	0xb4	-76
40	0x41	65
41	0x2e	46
42	0x06	6
43	0x26	38
44	0xee	-18
45	0x45	69
46	0x70	112
47	0x96	-106
48	0xaa	-86
49	0x25	37
50	0x54	84
51	0x1e	30
52	0x35	53
53	0xff	-1
54	0x81	-127
55	0x7f	127
56	0x63	99
57	0x03	3
58	0x7f	127
59	0x81	-127
60	0x28	40
61	0xec	-20
62	0x44	68
63	0x81	-127
64	0xe7	-25
65	0xc7	-57
66	0x6b	107
67	0x00	0
68	0x41	65
69	0x16	22
70	0xf2	-14
71	0xdc	-36
72	0xa0	-96
73	0x43	67
74	0x37	55
75	0x04	4
76	0x00	0
77	0xf8	-8
78	0x01	1
79	0xf1	-15
80	0x11	17
81	0x0a	10
82	0xaa	-86
83	0x04	4
84	0x46	70
85	0xa7	-89
86	0x8a	-118
87	0x7f	127
88	0x11	17
89	0xdf	-33
90	0x27	39
91	0xaf	-81
92	0xe2	-30
93	0xd3	-45
94	0x1f	31
95	0xf2	-14
96	0xb1	-79
97	0x44	68
98	0x58	88
99	0x45	69
100	0x67	103
101	0xed	-19
102	0x42	66
103	0xd1	-47
104	0x03	3
105	0x4e	78
106	0x18	24
107	0xda	-38
108	0xfe	-2
109	0x7f	127
110	0xef	-17
111	0xe8	-24
112	0x81	-127
113	0xfe	-2
114	0x37	55
115	0x5a	90
116	0xef	-17
117	0xaa	-86
118	0xe6	-26
119	0x2e	46
120	0x26	38
121	0xc9	-55
122	0x36	54
123	0x90	-112
124	0x29	41
125	0x34	52
126	0x35	53
127	0xc3	-61
128	0x07	7
129	0xae	-82
130	0x55	85
131	0xbf	-65
132	0x30	48
133	0x08	8
134	0x97	-105
135	0xda	-38
136	0xc7	-57
137	0x3e	62
138	0x1b	27
139	0x25	37
140	0x08	8
141	0xaf	-81
142	0x57	87
143	0xba	-70
144	0x40	64
145	0x41	65
146	0xc8	-56
147	0x47	71
148	0x1a	26
149	0x18	24
150	0xdc	-36
151	0x4b	75
152	0x07	7
153	0x2b	43
154	0x0d	13
155	0x40	64
156	0xd9	-39
157	0xe9	-23
158	0x25	37
159	0xfe	-2
160	0x81	-127
161	0x20	32
162	0x61	97
163	0x42	66
164	0x7b	123
165	0xe1	-31
166	0x7e	126
167	0xf5	-11
168	0x7f	127
169	0xe4	-28
170	0x23	35
171	0xcd	-51
172	0x16	22
173	0x50	80
174	0xac	-84
175	0x7f	127
176	0xf3	-13
177	0xdf	-33
178	0x24	36
179	0x14	20
180	0x00	0
181	0xb3	-77
182	0xbb	-69
183	0x1b	27
184	0x4c	76
185	0x3f	63
186	0x7a	122
187	0xd7	-41
188	0x07	7
189	0xe8	-24
190	0x72	114
191	0xe2	-30
192	0xf1	-15
193	0xcc	-52
194	0x37	55
195	0x8c	-116
196	0xd7	-41
197	0xd9	-39
198	0xa7	-89
199	0xe7	-25
200	0x66	102
201	0xff	-1
202	0xfb	-5
203	0x3d	61
204	0xed	-19
205	0x97	-105
206	0xfe	-2
207	0xb1	-79
208	0x18	24
209	0x1e	30
210	0x4a	74
211	0xe1	-31
212	0x58	88
213	0xd7	-41
214	0x41	65
215	0xcd	-51
216	0xac	-84
217	0x04	4
218	0x46	70
219	0xb2	-78
220	0xf2	-14
221	0x0e	14
222	0x26	38
223	0xf7	-9
224	0xed	-19
225	0x04	4
226	0x7f	127
227	0x5a	90
228	0xfc	-4
229	0x02	2
230	0x21	33
231	0xbb	-69
232	0x45	69
233	0xd9	-39
234	0xf9	-7
235	0x81	-127
236	0xc0	-64
237	0x1c	28
238	0xec	-20
239	0x59	89
240	0x4c	76
241	0xa9	-87
242	0x39	57
243	0xf2	-14
244	0x38	56
245	0xfa	-6
246	0x09	9
247	0x14	20
248	0x45	69
249	0xf6	-10
250	0x05	5
251	0x03	3
252	0x04	4
253	0x81	-127
254	0x5f	95
255	0xf0	-16

model_1/conv2d_6/Conv2D i1 [64, 1, 1, 32]
0	0xe7	-25
1	0x2a	42
2	0x28	40
3	0xdc	-36
4	0x5e	94
5	0xfe	-2
6	0x44	68
7	0x19	25
8	0x25	37
9	0xdd	-35
10	0xda	-38
11	0xf3	-13
12	0x02	2
13	0x18	24
14	0x26	38
15	0x3b	59
16	0xea	-22
17	0x18	24
18	0xda	-38
19	0xfa	-6
20	0xba	-70
21	0xac	-84
22	0xcd	-51
23	0xbb	-69
24	0x00	0
25	0x1d	29
26	0x02	2
27	0xbd	-67
28	0x10	16
29	0x1b	27
30	0xbc	-68
31	0x7f	127
32	0xcc	-52
33	0xfb	-5
34	0xae	-82
35	0x55	85
36	0x1c	28
37	0xbd	-67
38	0xc4	-60
39	0x06	6
40	0x2d	45
41	0xc5	-59
42	0xfd	-3
43	0xa1	-95
44	0x00	0
45	0xc8	-56
46	0x3d	61
47	0xc6	-58
48	0xa5	-91
49	0xdb	-37
50	0xe5	-27
51	0x81	-127
52	0xa6	-90
53	0x0e	14
54	0xd4	-44
55	0x4c	76
56	0xd2	-46
57	0x29	41
58	0xdd	-35
59	0xef	-17
60	0x09	9
61	0xef	-17
62	0x37	55
63	0xc0	-64
64	0xc5	-59
65	0x3f	63
66	0x16	22
67	0xfe	-2
68	0x63	99
69	0xb4	-76
70	0x39	57
71	0x1a	26
72	0x59	89
73	0xd7	-41
74	0x2a	42
75	0x23	35
76	0xff	-1
77	0xef	-17
78	0xf5	-11
79	0x22	34
80	0x21	33
81	0xb1	-79
82	0x7f	127
83	0x34	52
84	0xa8	-88
85	0x40	64
86	0x0c	12
87	0xdd	-35
88	0x28	40
89	0x60	96
90	0x21	33
91	0xc6	-58
92	0x67	103
93	0x27	39
94	0x7b	123
95	0xe1	-31
96	0x15	21
97	0x55	85
98	0x15	21
99	0xdb	-37
100	0x4f	79
101	0xc2	-62
102	0x25	37
103	0x0f	15
104	0x81	-127
105	0xdc	-36
106	0xc9	-55
107	0xd6	-42
108	0x2d	45
109	0xd1	-47
110	0xf3	-13
111	0x38	56
112	0x63	99
113	0x40	64
114	0x30	48
115	0x01	1
116	0xeb	-21
117	0x15	21
118	0x1b	27
119	0x1a	26
120	0x65	101
121	0x3e	62
122	0xc5	-59
123	0x02	2
124	0x07	7
125	0x1b	27
126	0xf0	-16
127	0xbe	-66
128	0x64	100
129	0xe3	-29
130	0xcf	-49
131	0xc5	-59
132	0xd8	-40
133	0x58	88
134	0x27	39
135	0xce	-50
136	0x53	83
137	0x31	49
138	0xe1	-31
139	0xb3	-77
140	0x55	85
141	0x25	37
142	0x62	98
143	0xe0	-32
144	0x0e	14
145	0x45	69
146	0x79	121
147	0x81	-127
148	0x0c	12
149	0xea	-22
150	0xf8	-8
151	0x13	19
152	0xda	-38
153	0xe2	-30
154	0x22	34
155	0x65	101
156	0x1b	27
157	0x54	84
158	0x96	-106
159	0x0b	11
160	0xf6	-10
161	0x28	40
162	0x44	68
163	0xe1	-31
164	0xd6	-42
165	0x0f	15
166	0x0b	11
167	0xe9	-23
168	0x1a	26
169	0x21	33
170	0x1f	31
171	0x00	0
172	0xe8	-24
173	0x81	-127
174	0x08	8
175	0x33	51
176	0x2e	46
177	0xfd	-3
178	0xe5	-27
179	0x07	7
180	0x07	7
181	0x30	48
182	0xf0	-16
183	0xeb	-21
184	0x31	49
185	0x0f	15
186	0xed	-19
187	0xd6	-42
188	0xc5	-59
189	0xfd	-3
190	0x2a	42
191	0x03	3
192	0xc1	-63
193	0xeb	-21
194	0x82	-126
195	0xbd	-67
196	0xea	-22
197	0xfb	-5
198	0xe3	-29
199	0x27	39
200	0x12	18
201	0xf6	-10
202	0x0f	15
203	0x22	34
204	0xbb	-69
205	0x1d	29
206	0x22	34
207	0xee	-18
208	0x15	21
209	0x7f	127
210	0x07	7
211	0x29	41
212	0xae	-82
213	0x1b	27
214	0x03	3
215	0x46	70
216	0x0f	15
217	0x1e	30
218	0xd8	-40
219	0x15	21
220	0xea	-22
221	0xd6	-42
222	0xe3	-29
223	0x0b	11
224	0xfe	-2
225	0xdb	-37
226	0x1b	27
227	0x41	65
228	0x32	50
229	0x05	5
230	0xe1	-31
231	0x1c	28
232	0x81	-127
233	0xf2	-14
234	0xf0	-16
235	0x10	16
236	0xf6	-10
237	0x28	40
238	0x99	-103
239	0x36	54
240	0x0d	13
241	0xdd	-35
242	0xdc	-36
243	0x07	7
244	0x00	0
245	0x1f	31
246	0x17	23
247	0x6e	110
248	0xc6	-58
249	0x19	25
250	0xc5	-59
251	0xc7	-57
252	0xc9	-55
253	0x28	40
254	0xfd	-3
255	0x17	23

model_1/depthwise_conv2d_4/depthwise1 i1 [1, 5, 1, 32]
0	0x81	-127
1	0x48	72
2	0x3f	63
3	0xbd	-67
4	0x48	72
5	0x7f	127
6	0xfe	-2
7	0xd5	-43
8	0xe2	-30
9	0x24	36
10	0x7f	127
11	0x2c	44
12	0x9b	-101
13	0x39	57
14	0x14	20
15	0x46	70
16	0x81	-127
17	0xdb	-37
18	0x3b	59
19	0x81	-127
20	0x51	81
21	0x5e	94
22	0x1b	27
23	0xcb	-53
24	0xed	-19
25	0xd8	-40
26	0xf0	-16
27	0xad	-83
28	0x5c	92
29	0x2a	42
30	0x81	-127
31	0x81	-127
32	0x22	34
33	0xd9	-39
34	0xc8	-56
35	0x88	-120
36	0x48	72
37	0x02	2
38	0x71	113
39	0x81	-127
40	0x2b	43
41	0xe0	-32
42	0x11	17
43	0xa9	-87
44	0xd4	-44
45	0x6f	111
46	0x38	56
47	0xb6	-74
48	0xe7	-25
49	0x97	-105
50	0x7f	127
51	0xa4	-92
52	0x7f	127
53	0x46	70
54	0xe6	-26
55	0xe4	-28
56	0xbc	-68
57	0xb0	-80
58	0x3a	58
59	0xcb	-53
60	0x4e	78
61	0x7f	127
62	0xb2	-78
63	0xf9	-7
64	0x53	83
65	0x33	51
66	0x81	-127
67	0x43	67
68	0x12	18
69	0xff	-1
70	0x7f	127
71	0x92	-110
72	0x39	57
73	0x94	-108
74	0xb4	-76
75	0x33	51
76	0x7f	127
77	0x71	113
78	0x17	23
79	0x81	-127
80	0x84	-124
81	0xbb	-69
82	0x4e	78
83	0x83	-125
84	0x2a	42
85	0x1f	31
86	0xb6	-74
87	0x58	88
88	0x22	34
89	0xd9	-39
90	0xde	-34
91	0x50	80
92	0x08	8
93	0x02	2
94	0x14	20
95	0x8b	-117
96	0x25	37
97	0xf7	-9
98	0xac	-84
99	0x7f	127
100	0x81	-127
101	0x39	57
102	0xa5	-91
103	0xf6	-10
104	0x3e	62
105	0x14	20
106	0x16	22
107	0x7f	127
108	0x41	65
109	0xae	-82
110	0x81	-127
111	0xa2	-94
112	0xb3	-77
113	0x81	-127
114	0xfb	-5
115	0xe7	-25
116	0x61	97
117	0x53	83
118	0xdc	-36
119	0x1e	30
120	0xb4	-76
121	0x81	-127
122	0x40	64
123	0x7f	127
124	0xbb	-69
125	0xe0	-32
126	0x14	20
127	0x8b	-117
128	0x12	18
129	0x81	-127
130	0x7a	122
131	0x12	18
132	0xb4	-76
133	0xc3	-61
134	0x97	-105
135	0x71	113
136	0x7f	127
137	0x7f	127
138	0x3b	59
139	0x35	53
140	0xeb	-21
141	0x7f	127
142	0xf6	-10
143	0x41	65
144	0xc7	-57
145	0x3d	61
146	0x34	52
147	0xf2	-14
148	0x62	98
149	0x7f	127
150	0x7f	127
151	0x81	-127
152	0x81	-127
153	0xbc	-68
154	0x7f	127
155	0x66	102
156	0x81	-127
157	0x71	113
158	0x4a	74
159	0xf9	-7

model_1/stream_6/conv2d_5/Conv2D i1 [32, 5, 1, 40]
0	0x34	52
1	0xfb	-5
2	0x38	56
3	0x2c	44
4	0x2f	47
5	0xfb	-5
6	0xfa	-6
7	0x81	-127
8	0xcf	-49
9	0xe4	-28
10	0x07	7
11	0xfa	-6
12	0x21	33
13	0xe7	-25
14	0xe3	-29
15	0xfc	-4
16	0x13	19
17	0xd8	-40
18	0xe9	-23
19	0xd1	-47
20	0xf2	-14
21	0xe0	-32
22	0xf0	-16
23	0xa7	-89
24	0xd7	-41
25	0xe4	-28
26	0xa5	-91
27	0xba	-70
28	0xa1	-95
29	0xd9	-39
30	0xf4	-12
31	0xce	-50
32	0xd4	-44
33	0x81	-127
34	0xee	-18
35	0xe6	-26
36	0x3f	63
37	0xfa	-6
38	0xfd	-3
39	0xc1	-63
40	0x4e	78
41	0xf5	-11
42	0x2c	44
43	0x10	16
44	0xf5	-11
45	0x04	4
46	0xf6	-10
47	0xc1	-63
48	0xe2	-30
49	0xc9	-55
50	0xf8	-8
51	0x96	-106
52	0xf7	-9
53	0xe9	-23
54	0xd9	-39
55	0xdf	-33
56	0x02	2
57	0x06	6
58	0xe8	-24
59	0xc4	-60
60	0xdc	-36
61	0xea	-22
62	0xb0	-80
63	0xda	-38
64	0xc8	-56
65	0xfb	-5
66	0xbb	-69
67	0x0c	12
68	0xd2	-46
69	0xda	-38
70	0xf1	-15
71	0xa7	-89
72	0xde	-34
73	0xd0	-48
74	0xcc	-52
75	0xe6	-26
76	0x07	7
77	0x38	56
78	0xfc	-4
79	0xbb	-69
80	0x2f	47
81	0x16	22
82	0x2a	42
83	0x1c	28
84	0x0a	10
85	0xd3	-45
86	0x01	1
87	0x00	0
88	0x02	2
89	0xd6	-42
90	0xe0	-32
91	0xca	-54
92	0xd2	-46
93	0xd8	-40
94	0xce	-50
95	0xcf	-49
96	0x22	34
97	0xec	-20
98	0x0c	12
99	0xfb	-5
100	0x10	16
101	0xe5	-27
102	0xc5	-59
103	0x99	-103
104	0xd7	-41
105	0x0b	11
106	0xdb	-37
107	0xe6	-26
108	0xe3	-29
109	0x15	21
110	0x15	21
111	0xca	-54
112	0x2a	42
113	0xdb	-37
114	0x1b	27
115	0xf8	-8
116	0x12	18
117	0x21	33
118	0xff	-1
119	0xa7	-89
120	0x2f	47
121	0x1a	26
122	0x24	36
123	0xf7	-9
124	0x00	0
125	0x09	9
126	0x15	21
127	0x0b	11
128	0x32	50
129	0x06	6
130	0xba	-70
131	0xf3	-13
132	0xf0	-16
133	0xc7	-57
134	0xb8	-72
135	0xcf	-49
136	0x20	32
137	0x00	0
138	0x3c	60
139	0xf9	-7
140	0x22	34
141	0x09	9
142	0xd8	-40
143	0xb6	-74
144	0xfe	-2
145	0xff	-1
146	0x16	22
147	0x1a	26
148	0x1d	29
149	0x16	22
150	0x40	64
151	0xd1	-47
152	0x1b	27
153	0x13	19
154	0x0e	14
155	0x03	3
156	0x19	25
157	0x10	16
158	0xfd	-3
159	0xcb	-53
160	0x3c	60
161	0x11	17
162	0x3d	61
163	0x13	19
164	0xeb	-21
165	0xe3	-29
166	0x3c	60
167	0x3c	60
168	0x3f	63
169	0x43	67
170	0xde	-34
171	0xe3	-29
172	0xee	-18
173	0xd0	-48
174	0x94	-108
175	0xbb	-69
176	0xff	-1
177	0x4c	76
178	0x65	101
179	0x42	66
180	0x37	55
181	0x11	17
182	0xe4	-28
183	0xb5	-75
184	0xfb	-5
185	0x38	56
186	0x27	39
187	0x02	2
188	0x12	18
189	0x16	22
190	0x1c	28
191	0x23	35
192	0x40	64
193	0x21	33
194	0x0f	15
195	0xbd	-67
196	0xd1	-47
197	0x01	1
198	0x2b	43
199	0xf8	-8
200	0xf7	-9
201	0xb4	-76
202	0x0a	10
203	0xaa	-86
204	0xde	-34
205	0xd7	-41
206	0xfd	-3
207	0xd8	-40
208	0xc9	-55
209	0xd8	-40
210	0xfc	-4
211	0xc2	-62
212	0xa3	-93
213	0xca	-54
214	0xb2	-78
215	0xed	-19
216	0xdc	-36
217	0x3a	58
218	0x01	1
219	0xd6	-42
220	0x0d	13
221	0xb4	-76
222	0x19	25
223	0xa9	-87
224	0x15	21
225	0xd5	-43
226	0x0a	10
227	0xcc	-52
228	0xe9	-23
229	0xf4	-12
230	0xef	-17
231	0x98	-104
232	0xf7	-9
233	0xe3	-29
234	0x06	6
235	0x11	17
236	0x20	32
237	0x26	38
238	0x44	68
239	0xd2	-46
240	0xe8	-24
241	0xbd	-67
242	0xfe	-2
243	0xc0	-64
244	0xf9	-7
245	0xd6	-42
246	0x16	22
247	0xf0	-16
248	0x06	6
249	0xd6	-42
250	0xb8	-72
251	0x00	0
252	0xdd	-35
253	0xe7	-25
254	0xea	-22
255	0x22	34

tfl.pseudo_qconst i1 [1, 12, 1, 64] scale=0.039528344 zero_point=-128
0	0x80	0.0
1	0x80	0.0
2	0x80	0.0
3	0x80	0.0
4	0x80	0.0
5	0x80	0.0
6	0x80	0.0
7	0x80	0.0
8	0x80	0.0
9	0x80	0.0
10	0x80	0.0
11	0x80	0.0
12	0x80	0.0
13	0x80	0.0
14	0x80	0.0
15	0x80	0.0
16	0x80	0.0
17	0x80	0.0
18	0x80	0.0
19	0x80	0.0
20	0x80	0.0
21	0x80	0.0
22	0x80	0.0
23	0x80	0.0
24	0x80	0.0
25	0x80	0.0
26	0x80	0.0
27	0x80	0.0
28	0x80	0.0
29	0x80	0.0
30	0x80	0.0
31	0x80	0.0
32	0x80	0.0
33	0x80	0.0
34	0x80	0.0
35	0x80	0.0
36	0x80	0.0
37	0x80	0.0
38	0x80	0.0
39	0x80	0.0
40	0x80	0.0
41	0x80	0.0
42	0x80	0.0
43	0x80	0.0
44	0x80	0.0
45	0x80	0.0
46	0x80	0.0
47	0x80	0.0
48	0x80	0.0
49	0x80	0.0
50	0x80	0.0
51	0x80	0.0
52	0x80	0.0
53	0x80	0.0
54	0x80	0.0
55	0x80	0.0
56	0x80	0.0
57	0x80	0.0
58	0x80	0.0
59	0x80	0.0
60	0x80	0.0
61	0x80	0.0
62	0x80	0.0
63	0x80	0.0
64	0x80	0.0
65	0x80	0.0
66	0x80	0.0
67	0x80	0.0
68	0x80	0.0
69	0x80	0.0
70	0x80	0.0
71	0x80	0.0
72	0x80	0.0
73	0x80	0.0
74	0x80	0.0
75	0x80	0.0
76	0x80	0.0
77	0x80	0.0
78	0x80	0.0
79	0x80	0.0
80	0x80	0.0
81	0x80	0.0
82	0x80	0.0
83	0x80	0.0
84	0x80	0.0
85	0x80	0.0
86	0x80	0.0
87	0x80	0.0
88	0x80	0.0
89	0x80	0.0
90	0x80	0.0
91	0x80	0.0
92	0x80	0.0
93	0x80	0.0
94	0x80	0.0
95	0x80	0.0
96	0x80	0.0
97	0x80	0.0
98	0x80	0.0
99	0x80	0.0
100	0x80	0.0
101	0x80	0.0
102	0x80	0.0
103	0x80	0.0
104	0x80	0.0
105	0x80	0.0
106	0x80	0.0
107	0x80	0.0
108	0x80	0.0
109	0x80	0.0
110	0x80	0.0
111	0x80	0.0
112	0x80	0.0
113	0x80	0.0
114	0x80	0.0
115	0x80	0.0
116	0x80	0.0
117	0x80	0.0
118	0x80	0.0
119	0x80	0.0
120	0x80	0.0
121	0x80	0.0
122	0x80	0.0
123	0x80	0.0
124	0x80	0.0
125	0x80	0.0
126	0x80	0.0
127	0x80	0.0
128	0x80	0.0
129	0x80	0.0
130	0x80	0.0
131	0x80	0.0
132	0x80	0.0
133	0x80	0.0
134	0x80	0.0
135	0x80	0.0
136	0x80	0.0
137	0x80	0.0
138	0x80	0.0
139	0x80	0.0
140	0x80	0.0
141	0x80	0.0
142	0x80	0.0
143	0x80	0.0
144	0x80	0.0
145	0x80	0.0
146	0x80	0.0
147	0x80	0.0
148	0x80	0.0
149	0x80	0.0
150	0x80	0.0
151	0x80	0.0
152	0x80	0.0
153	0x80	0.0
154	0x80	0.0
155	0x80	0.0
156	0x80	0.0
157	0x80	0.0
158	0x80	0.0
159	0x80	0.0
160	0x80	0.0
161	0x80	0.0
162	0x80	0.0
163	0x80	0.0
164	0x80	0.0
165	0x80	0.0
166	0x80	0.0
167	0x80	0.0
168	0x80	0.0
169	0x80	0.0
170	0x80	0.0
171	0x80	0.0
172	0x80	0.0
173	0x80	0.0
174	0x80	0.0
175	0x80	0.0
176	0x80	0.0
177	0x80	0.0
178	0x80	0.0
179	0x80	0.0
180	0x80	0.0
181	0x80	0.0
182	0x80	0.0
183	0x80	0.0
184	0x80	0.0
185	0x80	0.0
186	0x80	0.0
187	0x80	0.0
188	0x80	0.0
189	0x80	0.0
190	0x80	0.0
191	0x80	0.0
192	0x80	0.0
193	0x80	0.0
194	0x80	0.0
195	0x80	0.0
196	0x80	0.0
197	0x80	0.0
198	0x80	0.0
199	0x80	0.0
200	0x80	0.0
201	0x80	0.0
202	0x80	0.0
203	0x80	0.0
204	0x80	0.0
205	0x80	0.0
206	0x80	0.0
207	0x80	0.0
208	0x80	0.0
209	0x80	0.0
210	0x80	0.0
211	0x80	0.0
212	0x80	0.0
213	0x80	0.0
214	0x80	0.0
215	0x80	0.0
216	0x80	0.0
217	0x80	0.0
218	0x80	0.0
219	0x80	0.0
220	0x80	0.0
221	0x80	0.0
222	0x80	0.0
223	0x80	0.0
224	0x80	0.0
225	0x80	0.0
226	0x80	0.0
227	0x80	0.0
228	0x80	0.0
229	0x80	0.0
230	0x80	0.0
231	0x80	0.0
232	0x80	0.0
233	0x80	0.0
234	0x80	0.0
235	0x80	0.0
236	0x80	0.0
237	0x80	0.0
238	0x80	0.0
239	0x80	0.0
240	0x80	0.0
241	0x80	0.0
242	0x80	0.0
243	0x80	0.0
244	0x80	0.0
245	0x80	0.0
246	0x80	0.0
247	0x80	0.0
248	0x80	0.0
249	0x80	0.0
250	0x80	0.0
251	0x80	0.0
252	0x80	0.0
253	0x80	0.0
254	0x80	0.0
255	0x80	0.0

tfl.pseudo_qconst1 i1 [1, 8, 1, 64] scale=0.046990547 zero_point=-128
0	0x80	0.0
1	0x80	0.0
2	0x80	0.0
3	0x80	0.0
4	0x80	0.0
5	0x80	0.0
6	0x80	0.0
7	0x80	0.0
8	0x80	0.0
9	0x80	0.0
10	0x80	0.0
11	0x80	0.0
12	0x80	0.0
13	0x80	0.0
14	0x80	0.0
15	0x80	0.0
16	0x80	0.0
17	0x80	0.0
18	0x80	0.0
19	0x80	0.0
20	0x80	0.0
21	0x80	0.0
22	0x80	0.0
23	0x80	0.0
24	0x80	0.0
25	0x80	0.0
26	0x80	0.0
27	0x80	0.0
28	0x80	0.0
29	0x80	0.0
30	0x80	0.0
31	0x80	0.0
32	0x80	0.0
33	0x80	0.0
34	0x80	0.0
35	0x80	0.0
36	0x80	0.0
37	0x80	0.0
38	0x80	0.0
39	0x80	0.0
40	0x80	0.0
41	0x80	0.0
42	0x80	0.0
43	0x80	0.0
44	0x80	0.0
45	0x80	0.0
46	0x80	0.0
47	0x80	0.0
48	0x80	0.0
49	0x80	0.0
50	0x80	0.0
51	0x80	0.0
52	0x80	0.0
53	0x80	0.0
54	0x80	0.0
55	0x80	0.0
56	0x80	0.0
57	0x80	0.0
58	0x80	0.0
59	0x80	0.0
60	0x80	0.0
61	0x80	0.0
62	0x80	0.0
63	0x80	0.0
64	0x80	0.0
65	0x80	0.0
66	0x80	0.0
67	0x80	0.0
68	0x80	0.0
69	0x80	0.0
70	0x80	0.0
71	0x80	0.0
72	0x80	0.0
73	0x80	0.0
74	0x80	0.0
75	0x80	0.0
76	0x80	0.0
77	0x80	0.0
78	0x80	0.0
79	0x80	0.0
80	0x80	0.0
81	0x80	0.0
82	0x80	0.0
83	0x80	0.0
84	0x80	0.0
85	0x80	0.0
86	0x80	0.0
87	0x80	0.0
88	0x80	0.0
89	0x80	0.0
90	0x80	0.0
91	0x80	0.0
92	0x80	0.0
93	0x80	0.0
94	0x80	0.0
95	0x80	0.0
96	0x80	0.0
97	0x80	0.0
98	0x80	0.0
99	0x80	0.0
100	0x80	0.0
101	0x80	0.0
102	0x80	0.0
103	0x80	0.0
104	0x80	0.0
105	0x80	0.0
106	0x80	0.0
107	0x80	0.0
108	0x80	0.0
109	0x80	0.0
110	0x80	0.0
111	0x80	0.0
112	0x80	0.0
113	0x80	0.0
114	0x80	0.0
115	0x80	0.0
116	0x80	0.0
117	0x80	0.0
118	0x80	0.0
119	0x80	0.0
120	0x80	0.0
121	0x80	0.0
122	0x80	0.0
123	0x80	0.0
124	0x80	0.0
125	0x80	0.0
126	0x80	0.0
127	0x80	0.0
128	0x80	0.0
129	0x80	0.0
130	0x80	0.0
131	0x80	0.0
132	0x80	0.0
133	0x80	0.0
134	0x80	0.0
135	0x80	0.0
136	0x80	0.0
137	0x80	0.0
138	0x80	0.0
139	0x80	0.0
140	0x80	0.0
141	0x80	0.0
142	0x80	0.0
143	0x80	0.0
144	0x80	0.0
145	0x80	0.0
146	0x80	0.0
147	0x80	0.0
148	0x80	0.0
149	0x80	0.0
150	0x80	0.0
151	0x80	0.0
152	0x80	0.0
153	0x80	0.0
154	0x80	0.0
155	0x80	0.0
156	0x80	0.0
157	0x80	0.0
158	0x80	0.0
159	0x80	0.0
160	0x80	0.0
161	0x80	0.0
162	0x80	0.0
163	0x80	0.0
164	0x80	0.0
165	0x80	0.0
166	0x80	0.0
167	0x80	0.0
168	0x80	0.0
169	0x80	0.0
170	0x80	0.0
171	0x80	0.0
172	0x80	0.0
173	0x80	0.0
174	0x80	0.0
175	0x80	0.0
176	0x80	0.0
177	0x80	0.0
178	0x80	0.0
179	0x80	0.0
180	0x80	0.0
181	0x80	0.0
182	0x80	0.0
183	0x80	0.0
184	0x80	0.0
185	0x80	0.0
186	0x80	0.0
187	0x80	0.0
188	0x80	0.0
189	0x80	0.0
190	0x80	0.0
191	0x80	0.0
192	0x80	0.0
193	0x80	0.0
194	0x80	0.0
195	0x80	0.0
196	0x80	0.0
197	0x80	0.0
198	0x80	0.0
199	0x80	0.0
200	0x80	0.0
201	0x80	0.0
202	0x80	0.0
203	0x80	0.0
204	0x80	0.0
205	0x80	0.0
206	0x80	0.0
207	0x80	0.0
208	0x80	0.0
209	0x80	0.0
210	0x80	0.0
211	0x80	0.0
212	0x80	0.0
213	0x80	0.0
214	0x80	0.0
215	0x80	0.0
216	0x80	0.0
217	0x80	0.0
218	0x80	0.0
219	0x80	0.0
220	0x80	0.0
221	0x80	0.0
222	0x80	0.0
223	0x80	0.0
224	0x80	0.0
225	0x80	0.0
226	0x80	0.0
227	0x80	0.0
228	0x80	0.0
229	0x80	0.0
230	0x80	0.0
231	0x80	0.0
232	0x80	0.0
233	0x80	0.0
234	0x80	0.0
235	0x80	0.0
236	0x80	0.0
237	0x80	0.0
238	0x80	0.0
239	0x80	0.0
240	0x80	0.0
241	0x80	0.0
242	0x80	0.0
243	0x80	0.0
244	0x80	0.0
245	0x80	0.0
246	0x80	0.0
247	0x80	0.0
248	0x80	0.0
249	0x80	0.0
250	0x80	0.0
251	0x80	0.0
252	0x80	0.0
253	0x80	0.0
254	0x80	0.0
255	0x80	0.0

tfl.pseudo_qconst2 i1 [1, 4, 1, 32] scale=1.2967485 zero_point=-128
0	0x80	0.0
1	0x80	0.0
2	0x80	0.0
3	0x80	0.0
4	0x80	0.0
5	0x80	0.0
6	0x80	0.0
7	0x80	0.0
8	0x80	0.0
9	0x80	0.0
10	0x80	0.0
11	0x80	0.0
12	0x80	0.0
13	0x80	0.0
14	0x80	0.0
15	0x80	0.0
16	0x80	0.0
17	0x80	0.0
18	0x80	0.0
19	0x80	0.0
20	0x80	0.0
21	0x80	0.0
22	0x80	0.0
23	0x80	0.0
24	0x80	0.0
25	0x80	0.0
26	0x80	0.0
27	0x80	0.0
28	0x80	0.0
29	0x80	0.0
30	0x80	0.0
31	0x80	0.0
32	0x80	0.0
33	0x80	0.0
34	0x80	0.0
35	0x80	0.0
36	0x80	0.0
37	0x80	0.0
38	0x80	0.0
39	0x80	0.0
40	0x80	0.0
41	0x80	0.0
42	0x80	0.0
43	0x80	0.0
44	0x80	0.0
45	0x80	0.0
46	0x80	0.0
47	0x80	0.0
48	0x80	0.0
49	0x80	0.0
50	0x80	0.0
51	0x80	0.0
52	0x80	0.0
53	0x80	0.0
54	0x80	0.0
55	0x80	0.0
56	0x80	0.0
57	0x80	0.0
58	0x80	0.0
59	0x80	0.0
60	0x80	0.0
61	0x80	0.0
62	0x80	0.0
63	0x80	0.0
64	0x80	0.0
65	0x80	0.0
66	0x80	0.0
67	0x80	0.0
68	0x80	0.0
69	0x80	0.0
70	0x80	0.0
71	0x80	0.0
72	0x80	0.0
73	0x80	0.0
74	0x80	0.0
75	0x80	0.0
76	0x80	0.0
77	0x80	0.0
78	0x80	0.0
79	0x80	0.0
80	0x80	0.0
81	0x80	0.0
82	0x80	0.0
83	0x80	0.0
84	0x80	0.0
85	0x80	0.0
86	0x80	0.0
87	0x80	0.0
88	0x80	0.0
89	0x80	0.0
90	0x80	0.0
91	0x80	0.0
92	0x80	0.0
93	0x80	0.0
94	0x80	0.0
95	0x80	0.0
96	0x80	0.0
97	0x80	0.0
98	0x80	0.0
99	0x80	0.0
100	0x80	0.0
101	0x80	0.0
102	0x80	0.0
103	0x80	0.0
104	0x80	0.0
105	0x80	0.0
106	0x80	0.0
107	0x80	0.0
108	0x80	0.0
109	0x80	0.0
110	0x80	0.0
111	0x80	0.0
112	0x80	0.0
113	0x80	0.0
114	0x80	0.0
115	0x80	0.0
116	0x80	0.0
117	0x80	0.0
118	0x80	0.0
119	0x80	0.0
120	0x80	0.0
121	0x80	0.0
122	0x80	0.0
123	0x80	0.0
124	0x80	0.0
125	0x80	0.0
126	0x80	0.0
127	0x80	0.0

tfl.pseudo_qconst3 i1 [1, 2, 1, 40] scale=0.101960786 zero_point=-128
0	0x80	0.0
1	0x80	0.0
2	0x80	0.0
3	0x80	0.0
4	0x80	0.0
5	0x80	0.0
6	0x80	0.0
7	0x80	0.0
8	0x80	0.0
9	0x80	0.0
10	0x80	0.0
11	0x80	0.0
12	0x80	0.0
13	0x80	0.0
14	0x80	0.0
15	0x80	0.0
16	0x80	0.0
17	0x80	0.0
18	0x80	0.0
19	0x80	0.0
20	0x80	0.0
21	0x80	0.0
22	0x80	0.0
23	0x80	0.0
24	0x80	0.0
25	0x80	0.0
26	0x80	0.0
27	0x80	0.0
28	0x80	0.0
29	0x80	0.0
30	0x80	0.0
31	0x80	0.0
32	0x80	0.0
33	0x80	0.0
34	0x80	0.0
35	0x80	0.0
36	0x80	0.0
37	0x80	0.0
38	0x80	0.0
39	0x80	0.0
40	0x80	0.0
41	0x80	0.0
42	0x80	0.0
43	0x80	0.0
44	0x80	0.0
45	0x80	0.0
46	0x80	0.0
47	0x80	0.0
48	0x80	0.0
49	0x80	0.0
50	0x80	0.0
51	0x80	0.0
52	0x80	0.0
53	0x80	0.0
54	0x80	0.0
55	0x80	0.0
56	0x80	0.0
57	0x80	0.0
58	0x80	0.0
59	0x80	0.0
60	0x80	0.0
61	0x80	0.0
62	0x80	0.0
63	0x80	0.0
64	0x80	0.0
65	0x80	0.0
66	0x80	0.0
67	0x80	0.0
68	0x80	0.0
69	0x80	0.0
70	0x80	0.0
71	0x80	0.0
72	0x80	0.0
73	0x80	0.0
74	0x80	0.0
75	0x80	0.0
76	0x80	0.0
77	0x80	0.0
78	0x80	0.0
79	0x80	0.0

tfl.pseudo_qconst4 i1 [1, 8, 1, 64] scale=0.022799669 zero_point=-128
0	0x80	0.0
1	0x80	0.0
2	0x80	0.0
3	0x80	0.0
4	0x80	0.0
5	0x80	0.0
6	0x80	0.0
7	0x80	0.0
8	0x80	0.0
9	0x80	0.0
10	0x80	0.0
11	0x80	0.0
12	0x80	0.0
13	0x80	0.0
14	0x80	0.0
15	0x80	0.0
16	0x80	0.0
17	0x80	0.0
18	0x80	0.0
19	0x80	0.0
20	0x80	0.0
21	0x80	0.0
22	0x80	0.0
23	0x80	0.0
24	0x80	0.0
25	0x80	0.0
26	0x80	0.0
27	0x80	0.0
28	0x80	0.0
29	0x80	0.0
30	0x80	0.0
31	0x80	0.0
32	0x80	0.0
33	0x80	0.0
34	0x80	0.0
35	0x80	0.0
36	0x80	0.0
37	0x80	0.0
38	0x80	0.0
39	0x80	0.0
40	0x80	0.0
41	0x80	0.0
42	0x80	0.0
43	0x80	0.0
44	0x80	0.0
45	0x80	0.0
46	0x80	0.0
47	0x80	0.0
48	0x80	0.0
49	0x80	0.0
50	0x80	0.0
51	0x80	0.0
52	0x80	0.0
53	0x80	0.0
54	0x80	0.0
55	0x80	0.0
56	0x80	0.0
57	0x80	0.0
58	0x80	0.0
59	0x80	0.0
60	0x80	0.0
61	0x80	0.0
62	0x80	0.0
63	0x80	0.0
64	0x80	0.0
65	0x80	0.0
66	0x80	0.0
67	0x80	0.0
68	0x80	0.0
69	0x80	0.0
70	0x80	0.0
71	0x80	0.0
72	0x80	0.0
73	0x80	0.0
74	0x80	0.0
75	0x80	0.0
76	0x80	0.0
77	0x80	0.0
78	0x80	0.0
79	0x80	0.0
80	0x80	0.0
81	0x80	0.0
82	0x80	0.0
83	0x80	0.0
84	0x80	0.0
85	0x80	0.0
86	0x80	0.0
87	0x80	0.0
88	0x80	0.0
89	0x80	0.0
90	0x80	0.0
91	0x80	0.0
92	0x80	0.0
93	0x80	0.0
94	0x80	0.0
95	0x80	0.0
96	0x80	0.0
97	0x80	0.0
98	0x80	0.0
99	0x80	0.0
100	0x80	0.0
101	0x80	0.0
102	0x80	0.0
103	0x80	0.0
104	0x80	0.0
105	0x80	0.0
106	0x80	0.0
107	0x80	0.0
108	0x80	0.0
109	0x80	0.0
110	0x80	0.0
111	0x80	0.0
112	0x80	0.0
113	0x80	0.0
114	0x80	0.0
115	0x80	0.0
116	0x80	0.0
117	0x80	0.0
118	0x80	0.0
119	0x80	0.0
120	0x80	0.0
121	0x80	0.0
122	0x80	0.0
123	0x80	0.0
124	0x80	0.0
125	0x80	0.0
126	0x80	0.0
127	0x80	0.0
128	0x80	0.0
129	0x80	0.0
130	0x80	0.0
131	0x80	0.0
132	0x80	0.0
133	0x80	0.0
134	0x80	0.0
135	0x80	0.0
136	0x80	0.0
137	0x80	0.0
138	0x80	0.0
139	0x80	0.0
140	0x80	0.0
141	0x80	0.0
142	0x80	0.0
143	0x80	0.0
144	0x80	0.0
145	0x80	0.0
146	0x80	0.0
147	0x80	0.0
148	0x80	0.0
149	0x80	0.0
150	0x80	0.0
151	0x80	0.0
152	0x80	0.0
153	0x80	0.0
154	0x80	0.0
155	0x80	0.0
156	0x80	0.0
157	0x80	0.0
158	0x80	0.0
159	0x80	0.0
160	0x80	0.0
161	0x80	0.0
162	0x80	0.0
163	0x80	0.0
164	0x80	0.0
165	0x80	0.0
166	0x80	0.0
167	0x80	0.0
168	0x80	0.0
169	0x80	0.0
170	0x80	0.0
171	0x80	0.0
172	0x80	0.0
173	0x80	0.0
174	0x80	0.0
175	0x80	0.0
176	0x80	0.0
177	0x80	0.0
178	0x80	0.0
179	0x80	0.0
180	0x80	0.0
181	0x80	0.0
182	0x80	0.0
183	0x80	0.0
184	0x80	0.0
185	0x80	0.0
186	0x80	0.0
187	0x80	0.0
188	0x80	0.0
189	0x80	0.0
190	0x80	0.0
191	0x80	0.0
192	0x80	0.0
193	0x80	0.0
194	0x80	0.0
195	0x80	0.0
196	0x80	0.0
197	0x80	0.0
198	0x80	0.0
199	0x80	0.0
200	0x80	0.0
201	0x80	0.0
202	0x80	0.0
203	0x80	0.0
204	0x80	0.0
205	0x80	0.0
206	0x80	0.0
207	0x80	0.0
208	0x80	0.0
209	0x80	0.0
210	0x80	0.0
211	0x80	0.0
212	0x80	0.0
213	0x80	0.0
214	0x80	0.0
215	0x80	0.0
216	0x80	0.0
217	0x80	0.0
218	0x80	0.0
219	0x80	0.0
220	0x80	0.0
221	0x80	0.0
222	0x80	0.0
223	0x80	0.0
224	0x80	0.0
225	0x80	0.0
226	0x80	0.0
227	0x80	0.0
228	0x80	0.0
229	0x80	0.0
230	0x80	0.0
231	0x80	0.0
232	0x80	0.0
233	0x80	0.0
234	0x80	0.0
235	0x80	0.0
236	0x80	0.0
237	0x80	0.0
238	0x80	0.0
239	0x80	0.0
240	0x80	0.0
241	0x80	0.0
242	0x80	0.0
243	0x80	0.0
244	0x80	0.0
245	0x80	0.0
246	0x80	0.0
247	0x80	0.0
248	0x80	0.0
249	0x80	0.0
250	0x80	0.0
251	0x80	0.0
252	0x80	0.0
253	0x80	0.0
254	0x80	0.0
255	0x80	0.0

tfl.pseudo_qconst5 i1 [1, 20, 1, 64] scale=0.035686698 zero_point=-128
0	0x80	0.0
1	0x80	0.0
2	0x80	0.0
3	0x80	0.0
4	0x80	0.0
5	0x80	0.0
6	0x80	0.0
7	0x80	0.0
8	0x80	0.0
9	0x80	0.0
10	0x80	0.0
11	0x80	0.0
12	0x80	0.0
13	0x80	0.0
14	0x80	0.0
15	0x80	0.0
16	0x80	0.0
17	0x80	0.0
18	0x80	0.0
19	0x80	0.0
20	0x80	0.0
21	0x80	0.0
22	0x80	0.0
23	0x80	0.0
24	0x80	0.0
25	0x80	0.0
26	0x80	0.0
27	0x80	0.0
28	0x80	0.0
29	0x80	0.0
30	0x80	0.0
31	0x80	0.0
32	0x80	0.0
33	0x80	0.0
34	0x80	0.0
35	0x80	0.0
36	0x80	0.0
37	0x80	0.0
38	0x80	0.0
39	0x80	0.0
40	0x80	0.0
41	0x80	0.0
42	0x80	0.0
43	0x80	0.0
44	0x80	0.0
45	0x80	0.0
46	0x80	0.0
47	0x80	0.0
48	0x80	0.0
49	0x80	0.0
50	0x80	0.0
51	0x80	0.0
52	0x80	0.0
53	0x80	0.0
54	0x80	0.0
55	0x80	0.0
56	0x80	0.0
57	0x80	0.0
58	0x80	0.0
59	0x80	0.0
60	0x80	0.0
61	0x80	0.0
62	0x80	0.0
63	0x80	0.0
64	0x80	0.0
65	0x80	0.0
66	0x80	0.0
67	0x80	0.0
68	0x80	0.0
69	0x80	0.0
70	0x80	0.0
71	0x80	0.0
72	0x80	0.0
73	0x80	0.0
74	0x80	0.0
75	0x80	0.0
76	0x80	0.0
77	0x80	0.0
78	0x80	0.0
79	0x80	0.0
80	0x80	0.0
81	0x80	0.0
82	0x80	0.0
83	0x80	0.0
84	0x80	0.0
85	0x80	0.0
86	0x80	0.0
87	0x80	0.0
88	0x80	0.0
89	0x80	0.0
90	0x80	0.0
91	0x80	0.0
92	0x80	0.0
93	0x80	0.0
94	0x80	0.0
95	0x80	0.0
96	0x80	0.0
97	0x80	0.0
98	0x80	0.0
99	0x80	0.0
100	0x80	0.0
101	0x80	0.0
102	0x80	0.0
103	0x80	0.0
104	0x80	0.0
105	0x80	0.0
106	0x80	0.0
107	0x80	0.0
108	0x80	0.0
109	0x80	0.0
110	0x80	0.0
111	0x80	0.0
112	0x80	0.0
113	0x80	0.0
114	0x80	0.0
115	0x80	0.0
116	0x80	0.0
117	0x80	0.0
118	0x80	0.0
119	0x80	0.0
120	0x80	0.0
121	0x80	0.0
122	0x80	0.0
123	0x80	0.0
124	0x80	0.0
125	0x80	0.0
126	0x80	0.0
127	0x80	0.0
128	0x80	0.0
129	0x80	0.0
130	0x80	0.0
131	0x80	0.0
132	0x80	0.0
133	0x80	0.0
134	0x80	0.0
135	0x80	0.0
136	0x80	0.0
137	0x80	0.0
138	0x80	0.0
139	0x80	0.0
140	0x80	0.0
141	0x80	0.0
142	0x80	0.0
143	0x80	0.0
144	0x80	0.0
145	0x80	0.0
146	0x80	0.0
147	0x80	0.0
148	0x80	0.0
149	0x80	0.0
150	0x80	0.0
151	0x80	0.0
152	0x80	0.0
153	0x80	0.0
154	0x80	0.0
155	0x80	0.0
156	0x80	0.0
157	0x80	0.0
158	0x80	0.0
159	0x80	0.0
160	0x80	0.0
161	0x80	0.0
162	0x80	0.0
163	0x80	0.0
164	0x80	0.0
165	0x80	0.0
166	0x80	0.0
167	0x80	0.0
168	0x80	0.0
169	0x80	0.0
170	0x80	0.0
171	0x80	0.0
172	0x80	0.0
173	0x80	0.0
174	0x80	0.0
175	0x80	0.0
176	0x80	0.0
177	0x80	0.0
178	0x80	0.0
179	0x80	0.0
180	0x80	0.0
181	0x80	0.0
182	0x80	0.0
183	0x80	0.0
184	0x80	0.0
185	0x80	0.0
186	0x80	0.0
187	0x80	0.0
188	0x80	0.0
189	0x80	0.0
190	0x80	0.0
191	0x80	0.0
192	0x80	0.0
193	0x80	0.0
194	0x80	0.0
195	0x80	0.0
196	0x80	0.0
197	0x80	0.0
198	0x80	0.0
199	0x80	0.0
200	0x80	0.0
201	0x80	0.0
202	0x80	0.0
203	0x80	0.0
204	0x80	0.0
205	0x80	0.0
206	0x80	0.0
207	0x80	0.0
208	0x80	0.0
209	0x80	0.0
210	0x80	0.0
211	0x80	0.0
212	0x80	0.0
213	0x80	0.0
214	0x80	0.0
215	0x80	0.0
216	0x80	0.0
217	0x80	0.0
218	0x80	0.0
219	0x80	0.0
220	0x80	0.0
221	0x80	0.0
222	0x80	0.0
223	0x80	0.0
224	0x80	0.0
225	0x80	0.0
226	0x80	0.0
227	0x80	0.0
228	0x80	0.0
229	0x80	0.0
230	0x80	0.0
231	0x80	0.0
232	0x80	0.0
233	0x80	0.0
234	0x80	0.0
235	0x80	0.0
236	0x80	0.0
237	0x80	0.0
238	0x80	0.0
239	0x80	0.0
240	0x80	0.0
241	0x80	0.0
242	0x80	0.0
243	0x80	0.0
244	0x80	0.0
245	0x80	0.0
246	0x80	0.0
247	0x80	0.0
248	0x80	0.0
249	0x80	0.0
250	0x80	0.0
251	0x80	0.0
252	0x80	0.0
253	0x80	0.0
254	0x80	0.0
255	0x80	0.0
