models/v2/Okey_fifi.tflite (tflite, 206964 bytes, 9 tensors)

arith.constant f4 [1, 32]
0.061137706 0.11025622 0.1648723 0.053801965 -0.33027953 0.12643638 0.055732083 -0.33610848
-0.05584344 0.10405008 -0.03848425 -0.3422713 -0.34143865 0.05054344 -0.020599348 -0.095367916
-0.33950692 -0.13589515 0.05466217 0.024902575 0.07835213 0.12306421 0.13579261 -0.14008854
0.01938429 -0.03828539 -0.33402798 -0.36334398 -0.349594 -0.33251834 0.09310555 -0.355781
00000000: 886b 7a3d 03ce e13d 49d4 283e 735f 5c3d
00000010: 661a a9be 8a78 013e 5347 643d 6916 acbe
00000020: 17bc 64bd 3518 d53d a9a1 1dbd 2f3e afbe
00000030: 0cd1 aebe a306 4f3d f7bf a8bc 4150 c3bd
00000040: dad3 adbe 1928 0bbe 71e5 5f3d 7c00 cc3c
00000050: 1577 a03d 1709 fc3d 380d 0b3e 5f73 0fbe
00000060: cdcb 9e3c 24d1 1cbd b705 abbe 3908 babe
00000070: fcfd b2be d83f aabe 1fae be3d ed28 b6be

arith.constant1 f4 [32, 32]
0.097228535 0.11231618 -0.119740695 -0.19068596 -0.074062504 -0.1253628 0.12086694 0.11492045
0.119452775 0.1316606 0.1417289 -0.16849405 0.16236144 -0.093224265 0.085721515 0.0766184
-0.0005025306 0.1540231 0.19916624 0.0851375 0.14303283 -0.099119395 0.15637511 0.026698425
0.123961456 0.022985963 0.03508465 0.0028586534 -0.058436118 0.021346536 0.1338564 0.053500034
-0.04765309 -0.10940008 0.006734634 0.15325813 0.1100673 -0.07467898 -0.009848072 0.041847803
-0.16113037 -0.029368183 -0.12107274 -0.0426626 -0.042462785 -0.15527235 -0.012185217 -0.15730505
-0.11477332 0.15268631 0.114879705 -0.04293256 0.09776745 -0.18616644 0.1669392 -0.00050380256
0.16277851 0.12029197 -0.135806 -0.026135067 -0.0035957606 0.15289679 0.026432244 -0.055755876
0.14238329 -0.041708805 0.14483777 0.077939466 -0.04649919 0.09490665 0.04590226 -0.02181319
-0.04188123 0.087797984 0.026277041 -0.11139289 0.1707701 -0.020053864 -0.17916848 0.074339785
-0.074054986 0.025366016 0.038253292 -0.03347979 0.038376447 -0.10372011 0.074813396 0.114752665
0.14335085 0.0049837455 -0.0651714 0.06281286 0.15120423 -0.09186145 0.04020247 -0.021683764
-0.07210564 0.12713185 -0.01444891 0.009199502 0.013761569 0.11054785 0.07480531 -0.029191973
-0.10255516 0.16429704 0.030753354 0.04512846 0.049862158 -0.19275871 -0.098657444 -0.0141882785
0.1699257 0.0010950831 0.017509285 0.12323067 -0.111584924 -0.086714424 0.07483299 -0.10896883
0.16327585 -0.019712899 0.1402706 0.15111586 0.07468479 -0.15416923 0.12893702 -0.05819889
-0.070778765 0.011596713 0.09413915 0.051143162 0.09352645 0.027489828 -0.035069086 0.17044365
-0.12627831 -0.07381746 0.01185276 0.14941132 -0.14977181 -0.004222352 0.14302585 0.0043489677
-0.15823002 0.043663688 -0.14463264 0.14209792 0.11991081 -0.010377593 -0.095617324 0.030733688
0.036889195 0.19151859 -0.06567682 0.03946478 -0.017528076 0.15670511 0.103740804 0.022949966
-0.15840301 -0.095084764 -0.12814315 -0.16076948 -0.15055476 0.08363323 0.10697926 -0.12551245
-0.05794743 -0.0018597054 0.023787688 0.119000174 0.10389002 -0.0021480315 -0.006231865 0.022018166
-0.09509658 -0.07978357 0.11562025 0.02630887 0.12865901 -0.14461051 0.052646894 0.16562471
0.12901196 -0.12781876 0.12251157 0.07377486 -0.014536193 0.1354195 -0.13851969 -0.017342888
0.020314751 -0.014591716 -0.14907636 -0.024802176 0.14973833 -0.0182647 -0.0966565 -0.13545069
-0.09121758 0.060539935 -0.100252524 0.018444045 -0.019502958 0.038752392 -0.19161475 0.092244714
0.09413015 0.08373114 0.15373673 -0.13244244 0.1237517 0.007276521 -0.024575835 0.08636532
-0.14572275 -0.039041013 -0.123430215 0.08589753 0.15144306 0.06051949 0.0035355878 -0.093087
0.075158015 -0.06185468 -0.0036044437 0.070749626 -0.05597717 -0.020245152 0.16567133 -0.014811728
0.18988875 0.14638014 0.06533054 0.07485 0.0033753393 -0.01731556 -0.10570923 -0.07750668
0.06818338 -0.05861053 0.048996136 0.029164912 0.11319028 0.1316288 -0.12947604 0.019538432
0.027850192 0.041780796 -0.13177095 0.20241429 0.056830272 -0.019750735 -0.039283093 0.0012907458
00000000: c11f c73d 0606 e63d 9c3a f5bd 2e43 43be
00000010: 15ae 97bd 1b5f 00be 1689 f73d 6a5b eb3d
00000020: a8a3 f43d 09d2 063e 6121 113e b489 2cbe
00000030: 1442 263e 5dec bebd c38e af3d 1cea 9c3d
00000040: 42bc 03ba 3bb8 1d3e 3cf2 4b3e 925c ae3d
00000050: 3377 123e 1cff cabd cc20 203e a8b6 da3c
00000060: 81df fd3d 0f4d bc3c ecb4 0f3d 3f58 3b3b
00000070: b65a 6fbd eede ae3c a711 093e da22 5b3d
00000080: e32f 43bd 260d e0bd 34ae dc3b b3ef 1c3e
00000090: f76a e13d 4bf1 98bd cf59 21bc 9a68 2b3d
000000a0: 5cff 24be 8b95 f0bc fcf4 f7bd fabe 2ebd
000000b0: 75ed 2dbd b7ff 1ebe 81a4 47bc 9314 21be
000000c0: 460e ebbd cd59 1c3e 0d46 eb3d 0dda 2fbd
000000d0: 4d3a c83d 6aa2 3ebe 1cf2 2a3e 9e11 04ba
000000e0: 69af 263e a35b f63d ba10 0bbe 3519 d6bc
000000f0: daa6 6bbb fa90 1c3e 6f88 d83c 4660 64bd
00000100: edcc 113e dad6 2abd 5a50 143e ba9e 9f3d
00000110: ef75 3ebd 6b5e c23d 0204 3c3d 93b1 b2bc
00000120: a78b 2bbd 6ecf b33d f342 d73c f521 e4bd
00000130: 5bde 2e3e 0048 a4bc f177 37be 753f 983d
00000140: 24aa 97bd 64cc cf3c 7caf 1c3d 1b22 09bd
00000150: 9f30 1d3d 366b d4bd c437 993d 7203 eb3d
00000160: 91ca 123e b04e a33b 9578 85bd 07a4 803d
00000170: 48d5 1a3e db21 bcbd 58ab 243d 26a2 b1bc
00000180: 1fac 93bd da2e 023e 1fbb 6cbc 82b9 163c
00000190: 3478 613c e966 e23d 8733 993d 0124 efbc
000001a0: 7108 d2bd 7c3d 283e 75ee fb3c 9fd8 383d
000001b0: 433c 4c3d 8a62 45be ea0c cabd f475 68bc
000001c0: 0101 2e3e e488 8f3a a26f 8f3c 5d60 fc3d
000001d0: a386 e4bd 5597 b1bd 0a42 993d 0d2b dfbd
000001e0: c931 273e f27c a1bc 19a3 0f3e 1ebe 1a3e
000001f0: 57f4 983d 8ade 1dbe 1108 043e f661 6ebd
00000200: 75f4 90bd 2400 3e3c 07cc c03d 7e7b 513d
00000210: cc8a bf3d 5932 e13c 9aa4 0fbd c888 2e3e
00000220: 1a4f 01be 9c2d 97bd 1432 423c 48ff 183e
00000230: c85d 19be a85b 8abb 5e75 123e c981 8e3b
00000240: 0d07 22be b2d8 323d 941a 14be 1e82 113e
00000250: cc93 f53d c806 2abc 04d3 c3bd 37c5 fb3c
00000260: 2019 173d 731d 443e 9281 86bd d2a5 213d
00000270: 0a97 8fbc 4e77 203e 0f76 d43d 9101 bc3c
00000280: 6634 22be cdbb c2bd f537 03be c1a0 24be
00000290: 072b 1abe e647 ab3d f117 db3d 5686 00be
000002a0: 495a 6dbd 5cc1 f3ba 66de c23c 5db6 f33d
000002b0: 4ac4 d43d fdc5 0cbb ac34 ccbb 715f b43c
000002c0: ffc1 c2bd 9165 a3bd 4fca ec3d b385 d73c
000002d0: 30bf 033e c714 14be 45a4 573d 8699 293e
000002e0: b61b 043e ece2 02be 59e7 fa3d 4617 973d
000002f0: 3629 6ebc 69ab 0a3e 1bd8 0dbe ac12 8ebc
00000300: 1f6b a63c 1812 6fbc 79a7 18be ef2d cbbc
00000310: 0155 193e da9f 95bc d8f3 c5bd 96b3 0abe
00000320: 48d0 babd b9f8 773d 3251 cdbd f717 973c
00000330: abc4 9fbc d4ba 1e3d a836 44be ccea bc3d
00000340: 4fc7 c03d 3b7b ab3d 296d 1d3e fe9e 07be
00000350: 8871 fd3d e26f ee3b 4353 c9bc 4de0 b03d
00000360: 5838 15be 78e9 1fbd fbc8 fcbd 0beb af3d
00000370: e413 1b3e 49e3 773d 52b5 673b 66a4 bebd
00000380: 72ec 993d 555b 7dbd 8838 6cbb 2ee5 903d
00000390: 5148 65bd 29d9 a5bc bfa5 293e e4ac 72bc
000003a0: 3272 423e ade4 153e 05cc 853d f54a 993d
000003b0: cc34 5d3b 5cd9 8dbc 157e d8bd d2bb 9ebd
000003c0: baa3 8b3d 9811 70bd 2cb0 483d 41eb ee3c
000003d0: 4ed0 e73d b3c9 063e 5e95 04be 100f a03c
000003e0: 1626 e43c 5722 2b3d f7ee 06be b145 4f3e
000003f0: dcc6 683d 4bcc a1bc 4fe7 20bd 3e2e a93a

arith.constant2 f4 [32, 1536]
0.016619887 -0.030737119 0.019123247 -0.019888334 -0.0067771813 -0.013371236 0.017333334 -0.022820935
-0.0129948445 0.0031603843 0.024905551 -0.012244456 -0.004818189 0.0038309991 -0.009940267 -0.021392485
0.018466713 -0.02130112 -0.010828015 0.0055495426 -0.00083441584 0.021280626 -0.019257462 -0.03247124
0.0024579717 -0.023320107 0.01119543 0.016231583 0.019840503 -0.0047818273 0.0016689922 -0.024068018
0.026641086 0.013774654 -0.021599388 -0.026471056 -0.0077211414 -0.027327605 0.0009601969 -0.01137717
-0.020344637 0.011535957 -0.016424967 0.021942375 0.014874099 -0.011174315 0.022429094 0.01277567
0.0034794207 0.024991568 0.0143885715 0.010836596 0.0069837794 0.0036421851 0.024264356 -0.011074437
0.016649643 0.011990397 0.0030078513 0.021962164 0.0038782 0.004789838 -0.006182415 0.025045285
0.017844258 -0.024760978 -0.016602244 0.016617563 -0.022119768 0.021457203 0.03258307 -0.0057499744
0.023761488 -0.0026056943 0.0017784865 0.013535097 0.014181002 -0.024171926 -0.015125658 -0.0076346397
-0.021293173 -0.014357297 0.022541448 -0.0060779266 -0.024876961 -0.0063142213 0.015022596 -0.01600532
0.020781122 -0.016093742 -0.0045590727 -0.0019199321 0.023731017 -0.020553468 -0.010505386 -0.016805882
0.021210056 -0.022446506 -0.022155855 -0.032509077 -0.0030201126 0.013575728 -0.002827317 -0.002157182
-0.030367391 -0.007786804 0.0083977515 0.0104212975 0.003785565 -0.015632372 0.026534108 -0.0027404272
0.0029249825 0.0014157079 0.006633614 -0.008890052 -0.015312903 -0.009628804 -0.011730341 0.016651023
-0.008825164 -0.018218638 0.02333083 -0.01716561 0.0072636614 0.008274454 0.007840031 0.0050996384
-0.0060570287 -0.018775864 -0.018602395 -0.022113716 -0.016528554 -0.016061787 -0.026460944 0.013813245
0.022943579 -0.018759057 0.009452689 -0.018468402 -0.001696917 -0.002905998 -0.011752735 0.022108112
-0.0041779694 -0.015454521 0.00051726564 -0.0064329426 0.0053723725 -0.0050128815 0.025145598 0.022642722
0.009457626 0.004305939 -0.0044886507 0.009306049 -0.002488917 0.024671169 0.022706203 -0.004627145
-0.020904873 -0.015283574 0.03493862 0.012581867 -0.012244764 0.026676355 0.027801486 -0.0062929136
-0.027278882 -0.01515931 0.010235476 -0.0005187567 -0.021828182 0.005824049 0.0044251382 -0.0031302096
0.014878038 -0.022509253 0.006284053 0.027853698 -0.009079807 0.00081556704 0.00495311 0.012787997
-8.8065586e-05 -0.010654014 0.009217512 0.014927272 0.011407565 -0.020796232 -0.0033091279 0.021991186
-0.0036597394 0.009311869 -0.006454586 0.017051505 0.006422808 -0.0011002363 -0.008465974 -0.015689583
0.009968409 -0.015746364 -0.018203018 0.008413752 0.013900585 -0.016705189 0.0037674906 0.007956664
0.011006557 0.014802237 0.010101267 -0.0022721032 0.00407881 0.016631093 0.02174122 0.0014764974
0.023401337 -0.0041777557 0.013219722 0.0050519845 0.020000366 -0.016052721 0.0007579011 -0.028262937
-0.008207087 -0.009475731 0.0115352785 -0.0034644885 -0.011529001 -0.0032471693 -0.0053947396 0.013099772
-0.023055932 -0.021830013 -0.009516076 -0.021361008 -0.017245842 -0.01380917 0.003092784 -0.020717733
0.017968891 -0.0009360289 -0.0098412065 -0.015425239 0.009285864 0.0015061896 -0.013894801 0.027692216
0.004060992 -0.00520154 0.025270034 0.02975527 0.015603343 0.002751741 -0.006539889 0.001780678
00000000: 6e26 883c 69cc fbbc 5ba8 9c3c dcec a2bc
00000010: 1e13 debb 0713 5bbc a3fe 8d3c f8f2 babc
00000020: 54e8 54bc 731e 4f3b ba06 cc3c f99c 48bc
00000030: e6e1 9dbb 8011 7b3b 80dc 22bc 4b3f afbc
00000040: 8147 973c b07f aebc fd67 31bc f0d8 b53b
00000050: b3bc 5aba b554 ae3c d3c1 9dbc 9000 05bd
00000060: ec15 213b cf09 bfbc 096d 373c 19f8 843c
00000070: 8d88 a23c e0b0 9cbb 16c2 da3a 4b2a c5bc
00000080: 683e da3c 16af 613c 33f1 b0bc d4d9 d8bc
00000090: a101 fdbb 24de dfbc b9b5 7b3a 4f67 3abc
000000a0: cca9 a6bc 5001 3d3c a78d 86bc 7fc0 b33c
000000b0: 7eb2 733c 7914 37bc 38bd b73c 0b51 513c
000000c0: fe06 643b 1ebb cc3c 0bbe 6b3c fa8b 313c
000000d0: 30d8 e43b bab1 6e3b 0bc6 c63c 8e71 35bc
000000e0: d564 883c 5f73 443c 5f1f 453b ffe9 b33c
000000f0: 6629 7e3b 13f4 9c3b db95 cabb c52b cd3c
00000100: 1f2e 923c 89d7 cabc 6e01 88bc 8e21 883c
00000110: 8434 b5bc 04c7 af3c d375 053d 486a bcbb
00000120: 74a7 c23c 4cc4 2abb 1b1c e93a 50c2 5d3c
00000130: 6f57 683c 3404 c6bc 9cd1 77bc 002c fabb
00000140: 056f aebc de3a 6bbc d8a8 b83c 5829 c7bb
00000150: c5ca cbbc 87e7 cebb 5621 763c 971d 83bc
00000160: 2c3d aa3c 06d7 83bc 4664 95bb 3ba6 fbba
00000170: 8d67 c23c bf5f a8bc c81e 2cbc 7dac 89bc
00000180: b6c0 ad3c bce1 b7bc 3280 b5bc 3d28 05bd
00000190: 15ed 45bb bb6c 5e3c 824a 39bb 825f 0dbb
000001a0: 09c5 f8bc 7228 ffbb b996 093c 17be 2a3c
000001b0: 3e17 783b 760f 80bc 0f5e d93c bd98 33bb
000001c0: 10b1 3f3b 468f b93a ca5e d93b 95a7 11bc
000001d0: f8e2 7abc 22c2 1dbc 9e30 40bc ba67 883c
000001e0: 6c97 10bc 413f 95bc 4c20 bf3c e59e 8cbc
000001f0: 0204 ee3b 9391 073c 7973 003c de1a a73b
00000200: 0a7a c6bb d7cf 99bc 0d64 98bc d327 b5bc
00000210: e466 87bc 0294 83bc 9fc4 d8bc f350 623c
00000220: 2cf4 bb3c 98ac 99bc 74df 1a3c 0c4b 97bc
00000230: 166b deba 8e72 3ebb 8b8e 40bc 121c b53c
00000240: 59e7 88bb f634 7dbc 1c99 073a 6fcb d2bb
00000250: ba0a b03b 1943 a4bb 24fe cd3c 3b7d b93c
00000260: 29f4 1a3c d618 8d3b 8815 93bb 6678 183c
00000270: 191d 23bb 311b ca3c 5c02 ba3c 4e9f 97bb
00000280: b240 abbc f567 7abc cc1b 0f3d 2d24 4e3c
00000290: 439e 48bc 5f88 da3c f1bf e33c c934 cebb
000002a0: f677 dfbc c15e 78bc b3b2 273c 2cfd 07ba
000002b0: 04d1 b2bc aad7 be3b c000 913b 3424 4dbb
000002c0: 04c3 733c 5365 b8bc 75ea cd3b 702d e43c
000002d0: 79c3 14bc c7cb 553a b34d a23b bf84 513c
000002e0: daaf b8b8 2c8e 2ebc 0c05 173c 8491 743c
000002f0: cce6 3a3c dc5c aabc f4dd 58bb dc26 b43c
00000300: 3dd8 6fbb cf90 183c fe80 d3bb 99af 8b3c
00000310: 6b76 d23b ce35 90ba deb4 0abc 7187 80bc
00000320: 8a52 233c 85fe 80bc 7f1e 95bc d5d9 093c
00000330: 47bf 633c 52d9 88bc 01e8 763b ab5c 023c
00000340: d954 343c 1585 723c c97f 253c 91e7 14bb
00000350: 8aa7 853b ee3d 883c a51a b23c 0887 c13a
00000360: 29b4 bf3c 8ee5 88bb 8897 583c 1e8b a53b
00000370: cfd7 a33c ff80 83bc e2ad 463a ad87 e7bc
00000380: 0577 06bc 1940 1bbc 77fe 3c3c 790c 63bb
00000390: 23e4 3cbc 76ce 54bb 5bc6 b0bb 6da0 563c
000003a0: cbdf bcbc dbd4 b2bc 51e9 1bbc 48fd aebc
000003b0: 2747 8dbc db3f 62bc 4eb0 4a3b 3cb8 a9bc
000003c0: 7f33 933c d65f 75ba 033d 21bc 24ba 7cbc
000003d0: bd23 183c 566b c53a 05a7 63bc c9da e23c
000003e0: 1212 853b ae71 aabb 1a03 cf3c 53c1 f33c
000003f0: 2aa5 7f3c 8e56 343b 914c d6bb a465 e93a

model_8/tf.__operators__.add/AddV2/y f4 [32]
-0.0073022908 -0.018255677 0.025165977 -0.019787515 -0.0025323234 -0.00022672869 -0.023481002 -0.011456009
0.019649561 0.018871225 -0.009960096 -0.027484072 -0.015023672 -0.010621289 -0.00066229 -0.017090984
-0.018117597 -0.01726541 0.019564634 -0.014302749 -0.008925315 0.027495256 0.018644448 -0.014606962
-0.010495587 -0.013751301 -0.021143742 0.0135242315 0.00922533 -0.020555709 -0.014588251 -0.02151519
00000000: 0e48 efbb ee8c 95bc e128 ce3c 6d19 a2bc
00000010: 56f5 25bb 05be 6db9 3b5b c0bc fcb1 3bbc
00000020: 1ef8 a03c d497 9a3c ac2f 23bc 4726 e1bc
00000030: d925 76bc ea04 2ebc 889d 2dba 6402 8cbc
00000040: 5b6b 94bc 3070 8dbc 0346 a03c 1456 6abc
00000050: 7c3b 12bc bb3d e13c 3ebc 983c 0a52 6fbc
00000060: aff5 2bbc 234d 61bc a435 adbc bd94 5d3c
00000070: d725 173c 7264 a8bc 8f03 6fbc a040 b0bc

model_8/tf.__operators__.add_1/AddV2/y f4 [32]
0.056546535 -0.018094448 -0.10661686 0.10362289 -0.13564861 0.116792984 0.1148266 -0.16300862
0.06718902 -0.14832538 -0.041236922 0.007940545 -0.06628025 0.16635473 -0.0965258 -0.024656296
0.15614226 -0.11944515 0.098594844 0.110204875 0.028491383 0.14056195 -0.09395588 -0.05564389
0.16772646 0.01899843 0.037587926 -0.012030966 -0.09204361 0.047888972 -0.16371319 0.009525567
00000000: 579d 673d cf3a 94bc f159 dabd 3d38 d43d
00000010: 78e7 0abe 2931 ef3d 352a eb3d bbeb 26be
00000020: 669a 893d 9ce2 17be 0ce8 28bd 0f19 023c
00000030: f1bd 87bd e558 2a3e 52af c5bd 00fc c9bc
00000040: c2e3 1f3e a99f f4bd 18ec c93d 18b3 e13d
00000050: c366 e93c 79ef 0f3e f16b c0bd d9ea 63bd
00000060: 7cc0 2b3e 98a2 9b3c ccf5 193d 871d 45bc
00000070: 5c81 bcbd 3a27 443d 6ea4 27be 2011 1c3c

model_8/tf.math.add_2/Add/y f4 [1, 32]
-0.004041889 -0.0011783221 0.012929885 0.02606744 0.0068563633 0.030915318 -0.0011942615 -0.00925353
0.011156006 -0.0007497641 0.00051323726 -0.0066978224 -0.007813832 0.021296011 0.017693248 -0.007828001
-0.039112728 -0.0026130497 0.011139424 0.007407758 -0.006757547 0.01195435 0.008790492 -0.00331075
0.06321845 0.016810147 5.6692705e-05 0.013986343 -0.0013869014 0.0084890975 -0.001791001 -0.00093571993
00000000: d371 84bb ee71 9aba ded7 533c 628b d53c
00000010: 58ab e03b 1f42 fd3c c488 9cba 1e9c 17bc
00000020: aec7 363c d18b 44ba c58a 063a 6879 dbbb
00000030: 9605 00bc f974 ae3c 6ef1 903c 0441 00bc
00000040: ab34 20bd b33f 2bbb 2182 363c c7bc f23b
00000050: 6a6e ddbb 2edc 433c ff05 103c 2bf9 58bb
00000060: ad78 813d 6fb5 893c 54c9 6d38 f926 653c
00000070: b0c8 b5ba db15 0b3c 05c0 eaba 1a4b 75ba

model_8/tf.math.add_5/Add/y f4 [1, 32]
-0.009444009 0.0033371903 0.020959467 0.015962958 0.26868406 0.018673904 0.00978771 0.23561986
-0.07000036 0.0044461205 -0.0003193407 0.22222285 0.22600701 -0.017685808 -0.030059405 -0.02110051
0.2409633 -0.024318522 0.014554506 0.030075602 0.016909475 0.0044836323 0.05741794 -0.02156028
-0.012332326 -0.041253302 0.24253866 0.22517905 0.22757769 0.23747912 -0.008905025 0.26754823
00000000: 0bbb 1abc c3b4 5a3b 30b3 ab3c c0c4 823c
00000010: f590 893e 04fa 983c a25c 203c 5546 713e
00000020: 595c 8fbd c3b0 913b 2f6d a7b9 638e 633e
00000030: 626e 673e d4e1 90bc 243f f6bc fada acbc
00000040: 15bf 763e a337 c7bc 0676 6e3c 1c61 f63c
00000050: bd85 8a3c 6feb 923b 132f 6b3d 2f9f b0bc
00000060: 860d 4abc 39f9 28bd 0e5c 783e 5695 663e
00000070: 200a 693e ba2d 733e 62e6 11bc 15fc 883e

model_8/tf.math.multiply_10/Mul/y f4 [1, 32]
0.99884367 0.9991187 0.98574525 1.0150253 0.9783207 1.0670224 0.99896264 0.9983815
1.018559 0.99979025 0.9991852 0.9989613 0.9982964 1.050031 1.0472108 0.99822843
0.9821374 0.99873257 1.0095776 0.99732417 0.9991311 1.012894 1.0025264 0.99898994
1.0304722 1.0031358 0.9989612 1.0061094 0.99916863 0.9989329 0.9987691 0.99923235
00000000: 38b4 7f3f 3ec6 7f3f cd59 7c3f 59ec 813f
00000010: 3a73 7a3f 3194 883f 04bc 7f3f ee95 7f3f
00000020: 2460 823f 41f2 7f3f 9aca 7f3f eebb 7f3f
00000030: 5a90 7f3f 6a67 863f 010b 863f e68b 7f3f
00000040: 5b6d 7b3f f0ac 7f3f d739 813f a350 7f3f
00000050: 0ec7 7f3f 83a6 813f c952 803f cebd 7f3f
00000060: 83e6 833f c166 803f ecbb 7f3f 31c8 803f
00000070: 84c9 7f3f 11ba 7f3f 55af 7f3f b1cd 7f3f

model_8/tf.math.multiply_22/Mul/y f4 [1, 32]
0.99611473 1.0186758 1.0296808 1.031628 1.3243015 1.0278094 1.0210013 1.2436744
0.93259174 1.0009216 1.0004748 1.2001429 1.2056099 0.9935068 0.9718189 0.9910785
1.2631555 0.97536236 1.0133569 1.0400186 1.0219382 1.0084673 1.0776018 0.9857941
0.97575897 0.96580154 1.2647953 1.2202878 1.222358 1.2471759 0.99896616 1.3278025
00000000: 6001 7f3f f863 823f 95cc 833f 630c 843f
00000010: b682 a93f 428f 833f 2cb0 823f b930 9f3f
00000020: 55be 6e3f 331e 803f 8f0f 803f 489e 993f
00000030: 6d51 9a3f 7656 7e3f 20c9 783f 52b7 7d3f
00000040: 14af a13f 59b1 793f aeb5 813f 541f 853f
00000050: dfce 823f 7515 813f dbee 893f 015d 7c3f
00000060: 57cb 793f c53e 773f d0e4 a13f 6432 9c3f
00000070: 3a76 9c3f 76a3 9f3f 3fbc 7f3f 6ff5 a93f
